reinforcement_learning/models_cartpole/dqn_agent_634.pt (torch, 655107 bytes, 6 tensors)

fc1.weight f4 [400, 4]
000000 f8 12 2c 3e 87 e3 8f be 6e 68 85 3e a6 74 0f bd
       0.16804111 -0.28103277 0.26056236 -0.035023354
000010 4f 24 fd 3d 50 59 00 bc 0b c7 46 3f 7a a5 32 3e
       0.12360441 -0.007833794 0.77647465 0.17445937
000020 f0 ee 9f 3e 9f 50 c0 bd 28 7f 31 3f c1 9e d6 3e
       0.31236982 -0.09390377 0.6933465 0.41917995
000030 a9 d7 77 3e 46 75 a8 3e a6 46 06 3f 56 be 77 be
       0.24203362 0.32901973 0.5245155 -0.24193701
000040 60 12 c4 3e 05 1a 99 be 06 99 22 bf 06 b9 9c be
       0.3829527 -0.29902664 -0.63514745 -0.30609912
000050 8d ac e0 3e 60 f8 df 3e a4 10 c4 be c6 27 b3 bc
       0.43881646 0.43744183 -0.38293946 -0.021869551
000060 d6 f8 bf be ad 51 e0 3e 42 e5 44 bf f0 8c 2b 3d
       -0.37494534 0.43812314 -0.7691232 0.041882455
000070 6c 84 02 be cf 59 bf be 17 94 33 bf d7 c8 e9 be
       -0.12745827 -0.37373206 -0.7014784 -0.4566104
000080 f9 85 c0 bc 6c 34 f9 be 92 d5 15 be 9d ed d4 3e
       -0.023501383 -0.48672807 -0.14632252 0.41587535
000090 ab 48 7e 3d 23 07 33 3e 5b 67 8c bc 0d 1f c2 3e
       0.06208102 0.17483191 -0.017139127 0.37914315
0000a0 e9 5e 68 bd 7a 6a 5b 3d 69 db fd 3e 2d ee 62 be
       -0.05673114 0.05356834 0.4958146 -0.2216117
0000b0 de dd de 3e 7e e3 cf be a3 2b 02 3f 83 0e fc 3e
       0.43528646 -0.4060325 0.50847834 0.49229822
0000c0 90 71 dd be c4 6c 17 3d e0 e8 5b 3e 98 db c7 3e
       -0.43250704 0.03696896 0.21475554 0.39034724
0000d0 f7 cf 03 bd ef 78 aa 3e ba 8b 9e be 10 37 4a 3e
       -0.032180753 0.3329539 -0.30965978 0.19747567
0000e0 63 40 14 3e 78 08 84 be a6 6b 1e bf 00 45 95 3e
       0.14477687 -0.2578771 -0.6188301 0.29154205
0000f0 a9 fa db 3e ca 59 90 bd 7f a9 05 bf 00 8c a2 bc
       0.42964676 -0.07048376 -0.52211756 -0.019842148
000100 b5 c6 02 3e 23 e2 56 be a7 e1 29 3f 5b 4d 43 3e
       0.12771113 -0.20984702 0.66359943 0.19072478
000110 48 df 66 be df 51 9a be 80 49 9f be 3f a6 70 3c
       -0.22546113 -0.30140588 -0.31110764 0.014688074
000120 5e 8b dd 3e 0a c8 72 3e 2a 23 c4 3e 9f 98 92 3e
       0.4327039 0.23709121 0.38308078 0.28632066
000130 51 94 01 3f 5b 90 9f 3e d5 ab a2 3e 91 61 c7 3e
       0.5061694 0.31164822 0.31771722 0.38941625
000140 5b 61 b9 3e ba 7d f3 be af 59 3e bf 1b 86 88 3e
       0.3620709 -0.4755686 -0.74355596 0.26664814
000150 46 d8 9e be d2 bd b3 3e 5e 9c 1e 3d e7 19 1f be
       -0.3102438 0.3510576 0.038723342 -0.15537225
000160 6b ed 0b 3f 48 87 94 be 22 3a 31 bf 60 4b ff 3d
       0.54659146 -0.2900946 -0.6922933 0.124655485
000170 4d 40 99 3e 81 a6 c5 3b e7 d6 26 3f ec ac 0a 3f
       0.2993187 0.0060318117 0.65171665 0.5417011
000180 4b 31 4b 3e 7e d3 15 be 7b 2f 2a bf 3e 0c 58 be
       0.19843023 -0.14631459 -0.664787 -0.2109842
000190 6c f0 9b 3d 17 32 8f bd d4 a3 93 be d1 f2 c7 3e
       0.07614216 -0.06991976 -0.28835928 0.39052442
0001a0 d7 28 70 3e 00 f2 d7 3e d7 80 e4 3e d1 8f f1 3d
       0.23453079 0.4217682 0.44629547 0.11795009
0001b0 aa 12 99 3e e9 94 16 bd 73 1e 57 be 67 cb 6c 3e
       0.29897052 -0.036763106 -0.21007709 0.23124467
0001c0 a0 86 ab be 17 8b 41 3e a1 1d b0 3e 12 6d df bd
       -0.33501148 0.18900715 0.34397605 -0.109094754
0001d0 ef 96 e9 bd 66 69 f2 be 2d 66 fb 3c d5 31 93 3c
       -0.114057414 -0.47346038 0.03068837 0.017968098
0001e0 ca d2 ec 3e 27 86 37 be 48 ee e8 3d 8e 12 82 3d
       0.4625457 -0.17922269 0.113735735 0.06351195
0001f0 a1 8f 76 3d a4 ff d7 3e 5e a0 32 3f fd 54 8f 3e
       0.06019557 0.42187226 0.6977595 0.27994528
000200 34 7d ba bd 57 b2 a2 3e fa 3f 0f be a5 6f 54 be
       -0.09105912 0.31776688 -0.13989249 -0.20745714
000210 71 c6 10 3f 62 a0 f5 3e 90 5d fc 3e 39 4b 73 be
       0.565528 0.47973925 0.49290133 -0.23759164
000220 34 d1 bd bd e5 9f 07 be c9 62 fd be 4d d1 ea be
       -0.09268418 -0.13244589 -0.4948943 -0.4586281
000230 48 59 85 be 44 8e b2 bd 26 e9 b4 3e e4 99 4e 3e
       -0.2604468 -0.08718541 0.35334128 0.20175892
000240 6e a4 b9 3e 4b 81 0e 3e cb 2c 7c be ea a6 06 be
       0.36258262 0.13916509 -0.24626462 -0.1314961
000250 7f 7d 9d bd 42 d7 f3 bd 7f c3 29 be 50 6b 4a be
       -0.07689952 -0.119062915 -0.16578482 -0.19767499
000260 71 c0 29 3f 62 f4 10 3e 41 28 23 bd 18 49 82 3e
       0.6630927 0.14155725 -0.03983331 0.2544639
000270 61 fa 44 3d 9a d4 d6 3d 07 a0 67 be ef 23 62 be
       0.048090342 0.10489769 -0.2261964 -0.2208402
000280 b9 cb e8 bd 08 35 3b be 53 c8 26 bf 70 23 66 bc
       -0.11366982 -0.18281949 -0.6514942 -0.014046535
000290 39 ec c1 3e 36 e5 5a 3e 5d 34 b8 bc 8d 49 9c bd
       0.37875536 0.213765 -0.022485906 -0.07631216
0002a0 f1 e3 4b 3d 6c 97 d5 be 31 52 9c 3e b1 e0 74 3e
       0.04977793 -0.41717088 0.30531457 0.23913838
0002b0 93 12 0a 3f c6 c4 5b 3d 93 0d 80 be d8 8f 02 be
       0.5393459 0.053654455 -0.25010356 -0.12750185
0002c0 f3 3d 96 3e 2b 4e 14 be ea 2f 46 be bc f4 16 be
       0.29344139 -0.14482944 -0.19354215 -0.14741796
0002d0 e0 82 83 be 30 dc 0b 3e 7e 53 b7 be 42 e9 cb 3e
       -0.25685787 0.13658214 -0.35805887 0.398264
0002e0 74 47 dc be 64 a8 d3 be dd d0 a8 be 1d ab cb be
       -0.43023264 -0.4133941 -0.3297185 -0.39778987
0002f0 bb df ba 3e c3 65 c1 bb 38 c0 ee be f9 0d 8b be
       0.36498818 -0.0059020235 -0.46631026 -0.27159098
000300 7f d8 8a 3e 40 c6 42 3e a1 b4 07 3f f2 81 b6 be
       0.27118298 0.19020939 0.5300999 -0.35646015
000310 e1 f8 cc be 44 72 0e bd 96 c3 a3 3e c4 50 2a 3e
       -0.4003363 -0.03477694 0.31985158 0.16632372
000320 14 36 cf 3e 2e 80 54 be fe 97 5b bf 06 b2 c7 be
       0.40470946 -0.20752022 -0.85778797 -0.3900301
000330 7c 16 f5 be 3e f8 ed be 9f e0 59 be 3e 54 18 3e
       -0.47868717 -0.46478456 -0.21277092 0.14875886
000340 d4 ea 0f 3f 88 bc d1 3e 2a 24 36 bf e0 15 ca be
       0.56217694 0.4096415 -0.7114893 -0.39469814
000350 2e 96 f9 3c 8a 6c 8a be ca 3c f2 3d 6c 58 e0 3e
       0.030467119 -0.27035934 0.11828001 0.4381746
000360 ab ea c1 be 9a eb d7 3d 1a d4 83 be fb a3 98 be
       -0.3787435 0.10542984 -0.25747758 -0.29812607
000370 41 3e 06 3e 7c be 72 3e 93 b0 78 bd 36 ed e8 be
       0.13109685 0.23705477 -0.06071527 -0.45493478
000380 ef 13 95 be 8f 79 1e 3e 7c 6e e3 3e 1f 04 07 be
       -0.2911677 0.15476058 0.4442023 -0.13185166
000390 85 62 82 be 88 da 07 3f 6f 31 14 3e 32 dd e3 3d
       -0.2546579 0.5306783 0.14471982 0.11126174
0003a0 73 1f 56 3e d6 c9 03 be a0 3f e9 be 07 59 ce 3e
       0.20910434 -0.12869963 -0.45556355 0.40302297
0003b0 03 24 07 3f fd 38 86 3e e5 30 b9 be ab 0f 9b be
       0.52789325 0.26215354 -0.36170116 -0.3028539
0003c0 9b 5c 95 be 29 11 06 3f c0 55 52 3e 64 23 86 3e
       -0.29172215 0.52369934 0.20540524 0.26198876
0003d0 28 cd f8 be d7 df f8 3e 6d 7b 9f be 3d da 7c 3e
       -0.48594022 0.48608276 -0.31148854 0.24692626
0003e0 d3 69 b3 be df c9 77 be d8 1b 03 bf fa 63 f9 be
       -0.35041675 -0.24198101 -0.5121436 -0.4870909
0003f0 af 88 73 be 41 02 db 3e 3b 23 14 bf 74 8a b4 be
       -0.2378261 0.42775157 -0.5786626 -0.3526188

fc1.bias f4 [400]
000000 98 4a ac 3e 86 bb ce 3e 0f 24 03 3e 8e 56 d4 3e
       0.3365066 0.40377444 0.12806724 0.41472286
000010 b0 6e 8f bd 4b 9d 64 be 0b 99 2b be 40 3b 88 be
       -0.07003534 -0.22325628 -0.167576 -0.26607704
000020 30 2c c9 3d 2d d9 ba be d6 fe 97 3e 29 03 f0 be
       0.09822881 -0.36493817 0.29686612 -0.4687741
000030 03 a2 b5 be 73 e1 f0 3e b0 be c3 3e 77 6a 5d 3d
       -0.35475168 0.47047004 0.3823142 0.05405661
000040 2d 6a c0 be 65 72 12 3e e9 51 7c 3e ec 45 9b 3e
       -0.37581006 0.1430145 0.24640621 0.30326784
000050 ff 05 b4 3e 13 ed d7 3e ec bb e4 3d 02 ce 5f be
       0.35160825 0.4217306 0.11168656 -0.2185593
000060 cf 3f bb 3e b8 37 db 3e 0d 15 2e bd 4c d0 e7 be
       0.3657212 0.42815948 -0.042500544 -0.45276105
000070 35 d6 75 3e 54 54 a3 3e 36 26 fa be 00 cd c9 be
       0.24007495 0.31900275 -0.48857278 -0.39414215
000080 7e d4 ea 3e e0 1f 5f bd 14 a2 c0 be 13 d2 4e be
       0.45865244 -0.054473758 -0.37623656 -0.20197324
000090 8a 97 c1 be 49 2e 95 be 9b 18 a0 3d 13 e9 03 3f
       -0.37810928 -0.29136875 0.07817193 0.5152752
0000a0 84 49 9c 3e e9 25 c6 3e 66 30 95 3e 14 5b d7 3e
       0.30524838 0.38700798 0.29138488 0.42061675
0000b0 77 a6 2e 3e b0 ad ae 3e 94 1f 82 3e e9 97 96 be
       0.17055689 0.34116888 0.25414717 -0.29412773
0000c0 ce ea b7 3d d1 cd 04 be 1b 0e 86 be f3 53 b0 be
       0.08980332 -0.12969138 -0.26182637 -0.34439048
0000d0 a3 62 b5 be c6 91 1a bf 27 7d f0 3e cc 2a a0 be
       -0.35426816 -0.6037868 0.46970484 -0.3128265
0000e0 f7 66 6f 3e e7 0f a1 bd 80 d1 f9 3e 44 53 4b be
       0.23379122 -0.07864361 0.48792648 -0.19855982
0000f0 e0 4d a9 bb eb a0 99 3e d8 37 72 be 19 0f cb be
       -0.005166754 0.30005583 -0.23654115 -0.39659956
000100 70 c8 a8 3e 84 a1 97 be 40 7f d1 3d 95 6b d8 be
       0.32965422 -0.29615414 0.10229349 -0.4226958
000110 2f 05 21 3d 7d 50 0e 3e 6b 87 1c be 84 91 b6 be
       0.039311584 0.13897891 -0.15286033 -0.35657895
000120 4a 0b 85 be 1d fe f3 be e1 7d 88 3e 8c aa a9 be
       -0.25985175 -0.4765481 0.26658538 -0.3313793
000130 6b 23 58 be 75 be 4d 3e 04 84 e6 3e 40 f6 5a 3e
       -0.21107261 0.20092185 0.45022595 0.21383
000140 cc e8 be 3e 82 6b e9 be dc 30 b2 3e 88 ff 09 3f
       0.37286985 -0.45589834 0.34802902 0.53905535
000150 42 8e d3 be a1 82 c6 be fb 9a c9 bd 07 2a d0 be
       -0.41319472 -0.38771537 -0.09844013 -0.40657064
000160 1a db ba bc 97 5f 08 3d 2d b7 d8 be 3e c8 ea be
       -0.022809554 0.033294287 -0.42327252 -0.45855898
000170 f1 b6 e5 be 0f 67 4d 3e ea 70 d1 be 05 2f 0d 3c
       -0.44866136 0.20058845 -0.4090646 0.008617167
000180 35 42 aa be 52 26 b8 3e 89 c6 b3 3e e2 9a dc bd
       -0.33253637 0.35966736 0.35112408 -0.10771729
000190 30 c1 ca 3b 99 2f 87 be 44 70 96 3e 21 29 1d 3d
       0.0061875805 -0.26403502 0.29382527 0.0383693
0001a0 eb ae b7 3e cc a2 d2 3e 77 20 6c be f1 2c 12 3f
       0.3587564 0.4113983 -0.2305926 0.57099825
0001b0 6a 12 f2 be 70 a3 d1 3e c1 6e a8 3d 1a 49 fd 3e
       -0.47279674 0.40945005 0.0822425 0.49469835
0001c0 23 82 a0 3e a6 d4 9a be bf f6 a0 be cd 81 72 3e
       0.31349286 -0.30240363 -0.31438252 0.23682328
0001d0 5a 76 d2 3d c1 0e cf 3e 0c d3 16 3e ad d0 f1 3e
       0.1027648 0.40440944 0.14728945 0.4722952
0001e0 01 33 20 be 4b ae 32 bb e4 02 6a 3e 87 d0 cf 3e
       -0.15644456 -0.0027264531 0.22852665 0.4058878
0001f0 76 4f 85 be 96 cd d1 3e e3 22 83 bc 7e 31 36 be
       -0.26037186 0.40977162 -0.016007846 -0.17792317
000200 71 d4 f3 ba 56 42 a7 be 50 95 f0 3e 9e ff b0 3e
       -0.0018602741 -0.32667798 0.46988916 0.3457002
000210 d3 5d 0f be a6 5d b6 bd 15 99 0c 3e 57 0f 8b 3e
       -0.14000635 -0.08904581 0.13730271 0.2716014
000220 2e b2 03 3a 99 61 cb be cd f4 f2 be 54 41 4e 3d
       0.0005023804 -0.397229 -0.47452393 0.05035527
000230 2e f4 bf bd a0 9d af 3e 29 2d ac be 3d c5 a2 be
       -0.093727455 0.34299946 -0.33628204 -0.31791106
000240 48 15 75 be dc d0 5e bd b1 d0 77 be 72 5a 65 3e
       -0.239339 -0.054398403 -0.24200703 0.22397783
000250 d8 16 c0 be 87 d8 f4 3e 7d 1f 09 3f cb d0 88 3d
       -0.37517428 0.47821447 0.5356367 0.06680449
000260 b8 41 af 3e 7c 8d fb 3e 2a 92 58 3e bb e1 e4 3e
       0.34229827 0.49131382 0.21149507 0.4470347
000270 04 ed 4e be 77 b3 c3 3d 50 48 8b be 0a c0 d0 3e
       -0.20207602 0.095557146 -0.27203608 0.40771514
000280 1e c4 97 be 85 06 9b be da 7e f4 be 9e 08 89 be
       -0.29641813 -0.30278412 -0.4775303 -0.26764387
000290 0e d0 84 bd 84 42 84 3e 64 6b 1e be 18 38 01 be
       -0.06484996 0.25831997 -0.15470654 -0.12619054
0002a0 35 5a 4d be 47 43 cb 3e 6c 2b 62 be d3 32 0d 3e
       -0.20053943 0.39699766 -0.22086877 0.13788919
0002b0 6d ee 64 be 3a 2d 92 be 96 de 46 be f5 28 8c be
       -0.22356577 -0.2855013 -0.19420847 -0.27374998
0002c0 82 94 22 be 58 07 0c be e4 a3 10 3e 22 43 c2 be
       -0.15876964 -0.13674676 0.1412502 -0.37941843
0002d0 3c e8 c7 3d 17 51 c1 3e 94 9d 59 be 41 28 bf 3e
       0.09761092 0.3775718 -0.21251518 0.373354
0002e0 00 f6 75 be c5 a9 49 be af 9b d0 3e e6 91 78 be
       -0.24019623 -0.19693668 0.40743777 -0.24274406
0002f0 ba e5 fc 3e 69 e7 05 3e a2 d4 45 3c 7e d6 f8 3e
       0.49394017 0.13076557 0.012074621 0.48601145
000300 30 84 b1 3e 89 73 70 be 3f 0e 8f be 57 5e 08 3f
       0.34671164 -0.23481573 -0.27940556 0.5326895
000310 8e 33 68 3e 9b f3 cc 3e 63 a1 b6 3e 60 2a ad 3e
       0.22675917 0.40029606 0.35670003 0.33821392
000320 a4 28 a5 be 3f a7 cb 3d e7 2e a7 3e 50 06 55 be
       -0.3225757 0.09944009 0.3265297 -0.2080319
000330 76 6d 02 3f 69 40 8f 3e 6c e5 e1 be 62 76 4b be
       0.50948274 0.2797883 -0.44120347 -0.19869378
000340 6f a6 c1 be b5 d2 06 bf 42 7e c5 3d ef 8f da 3e
       -0.3782229 -0.52665263 0.096432224 0.42687938
000350 b5 c7 54 be c0 a6 c3 3e 8c 87 09 be f0 34 a8 be
       -0.20779307 0.38213158 -0.13430613 -0.32852888
000360 43 3e fc be ca d5 a0 3e 85 a7 87 bd fa 91 e9 3e
       -0.49266252 0.31413108 -0.06623749 0.45619184
000370 da f8 99 3d be b9 dc 3e 06 06 8a be 81 2c 09 be
       0.07518168 0.4311046 -0.2695772 -0.13395883
000380 70 cb 8b bd 58 ca 70 3e 05 c2 3f be a6 3e 9d be
       -0.06825912 0.23514688 -0.18726356 -0.3071186
000390 41 17 04 bf 2d c2 d2 3e 30 3f 9c 3e 88 5f c6 be
       -0.5159798 0.4116377 0.30516958 -0.3874476
0003a0 fa 11 a8 be 3e a3 5f 3e d2 56 75 be ef 7d c9 3c
       -0.32826215 0.21839616 -0.239589 0.024596183
0003b0 0f 6a 69 be b0 53 82 3d 35 18 c3 3d 52 8d c8 3e
       -0.22794364 0.063636184 0.095261015 0.3917032
0003c0 d3 64 95 be aa a3 c0 be f6 9b 69 3d 41 3f 95 bc
       -0.29178485 -0.37624866 0.0570335 -0.018218638
0003d0 79 c6 f0 3e da f1 f2 3e 39 c5 ae 3d ec 67 ee 3e
       0.47026423 0.47450143 0.08533711 0.4656366
0003e0 7b b5 9d 3e ec e1 d6 be 02 76 e5 3d 34 0c dd be
       0.3080252 -0.4196924 0.11204149 -0.43173373
0003f0 25 ff 30 be e9 d4 40 3d 36 1d 43 be 44 d9 8a be
       -0.1728483 0.047078047 -0.19054112 -0.27118886

fc2.weight f4 [400, 400]
000000 b7 95 56 3d 36 63 4d 3c 58 16 d7 bd a8 09 79 3d
       0.052388873 0.012535861 -0.105023086 0.060800225
000010 5b dd a2 3d 45 fa 2e bd 4f 1d 24 bd b0 df 8f bc
       0.079523765 -0.042719144 -0.040067013 -0.017562717
000020 2b 3a 39 bd 93 b6 b4 bd 37 f3 98 3c b2 b4 f3 bd
       -0.04522149 -0.08823886 0.018670661 -0.11899699
000030 fa d6 b5 bd e6 ec 13 3c b2 2d 17 3d f9 b3 fe 3c
       -0.08878894 0.009028649 0.036908813 0.031091677
000040 97 a3 68 be 57 19 09 bd a7 57 e3 3c 19 75 51 3d
       -0.22718655 -0.03347143 0.027751757 0.051137064
000050 39 c9 2d 3d 84 94 56 3d 88 1b b1 3d e4 a7 17 be
       0.04242823 0.05238773 0.08647829 -0.14810139
000060 17 96 85 3d 07 3e 1d 3d 0d c0 b0 3d 4f a2 c7 3c
       0.06522768 0.038389232 0.08630381 0.024369387
000070 b5 c6 a0 3d cd ad 8d bb 77 5d af bd 8d 90 4f be
       0.078504 -0.004323697 -0.08562749 -0.20269985
000080 7f ec 78 bc b2 8a b5 bc c7 d6 e4 bd 26 e3 2e bd
       -0.015193104 -0.022160862 -0.11173778 -0.042697094
000090 48 b8 86 3d 9a bf 23 be cb 7a 5f 3d 99 41 9a 3d
       0.065781176 -0.15991059 0.054560464 0.07532043
0000a0 e9 d8 95 bc 18 6b c3 3d 9d fb 5f 3d a1 b4 17 3d
       -0.018291907 0.09541911 0.054683316 0.037037496
0000b0 4c 7e 89 3d 54 21 d1 3c 6c b7 9e 3d 17 41 3e bd
       0.06713542 0.025528587 0.07749829 -0.046448793
0000c0 a9 9a 41 bd 97 5b bf bd 86 3b 29 3d 30 17 33 bd
       -0.047266636 -0.09343641 0.04131653 -0.043723285
0000d0 31 29 57 bb 59 ae 13 be 8e f1 61 3c 25 00 b2 3b
       -0.0032830948 -0.14421977 0.013790501 0.005432146
0000e0 6f 4f ad 3d 0e 2e 2a 3e a8 fa 05 3d ac fe 82 3c
       0.084624164 0.16619131 0.032709748 0.015990578
0000f0 24 89 6e 3d c1 ad 86 3d a0 91 8b bc 1a d2 be bd
       0.058236256 0.0657611 -0.017037213 -0.093174174
000100 cf 0e 97 3d 10 85 e4 bd f2 b5 b0 3c 5f 37 aa 3d
       0.073758714 -0.11158192 0.021571133 0.083113424
000110 30 f7 37 3e 79 e8 4a bc 4e 7d 45 3d 17 df c0 bc
       0.17965388 -0.012384527 0.048215203 -0.023543878
000120 19 70 b8 bd cd 72 58 bd de fa 87 bc 1d 6a da bd
       -0.09005756 -0.052843858 -0.016599115 -0.10664771
000130 f2 5a ad bd c0 24 07 bc a8 23 b2 3c a1 86 93 3d
       -0.08464612 -0.008248508 0.021745518 0.07203413
000140 5c 62 6b 3d 13 24 e4 bc 8a 95 54 bd bd 42 2a bc
       0.05746685 -0.027849233 -0.051900424 -0.010391888
000150 b6 45 5f bd 8f 67 82 3d 3c a1 06 3d b5 ee 87 bd
       -0.05450984 0.063674085 0.03286861 -0.06637327
000160 4a dc 20 bd fa fb 4f bb 0a 86 66 bd 7b ce d7 bd
       -0.039272584 -0.0031735883 -0.056280173 -0.1053743
000170 0d a7 b6 bd 10 98 5b 3c f4 8b a6 bd a7 cd d7 3d
       -0.08918581 0.013402954 -0.08132163 0.10537272
000180 32 16 20 be d7 95 0c 3b e8 ec 94 3d 23 ee c6 3c
       -0.15633467 0.0021451616 0.07271749 0.024283474
000190 6a e4 f4 bd 5b d8 5d 3c 9d 82 0c 3d 1f 21 ac bd
       -0.11957629 0.013540353 0.03430425 -0.08404755
0001a0 2a c5 a3 3c ee 27 0a bd 13 ef 5c bd b0 d8 91 ba
       0.019991476 -0.033729486 -0.053938936 -0.00111272
0001b0 81 91 5b 3d 3c eb 05 3d 63 51 22 3d ec 56 ed bb
       0.05360556 0.03269504 0.039628398 -0.007243028
0001c0 03 ec 83 3c 49 be 6c bc 29 d6 c6 bb 57 eb 31 3d
       0.01610375 -0.014449664 -0.0060680103 0.04343733
0001d0 4e 9d b2 3b 45 8a 29 bc bf 10 f8 3d c9 b8 a3 3d
       0.005450881 -0.010347907 0.12112569 0.07994229
0001e0 39 18 7e 3c 1b f2 9e bc 77 96 85 3d d9 5c 01 3d
       0.015508705 -0.019402554 0.065228395 0.031582687
0001f0 dd cc 5f bc 15 f4 8d 3d f2 94 a4 3b e0 b7 4f bd
       -0.013659683 0.069313206 0.0050226385 -0.050712466
000200 5e 22 62 bb 3d 7e 80 bd 2f 1d d1 bb ad d9 84 3c
       -0.0034505348 -0.06274078 -0.006381653 0.016217077
000210 93 63 c4 3c 7d 3a a9 b8 ea b0 0b bd cd b0 0a 3d
       0.023973262 -8.069442e-05 -0.034104265 0.033860017
000220 43 dd 7b 3d 3b 97 d0 bd 86 ac f8 bc 85 b7 f5 bb
       0.06149031 -0.10185095 -0.030355703 -0.007498684
000230 dc 3d 10 bd 31 7a b6 bc e6 bc 82 bb 99 21 12 bd
       -0.035215244 -0.022275062 -0.0039898036 -0.035676572
000240 38 eb cb bd af 38 19 be 48 70 fa bd 55 47 fc 3b
       -0.09956974 -0.1496303 -0.12228447 0.007698933
000250 14 fd 82 bc 47 37 a0 3d 7c 9c c1 3d a4 ff 8a 3d
       -0.015989818 0.07823043 0.09453675 0.06787041
000260 8b 69 9a 3d 13 c9 3d 3b f1 8e 3c 3d 86 60 63 3d
       0.07539662 0.002895896 0.046034757 0.055511974
000270 df 49 a5 bd 85 88 88 3c f3 d6 78 bd 45 6f 6c 3c
       -0.080707304 0.01666666 -0.060751867 0.014430826
000280 6d f3 89 3d cc 4d 31 be b1 73 ba bb fa 5e 9a be
       0.06735883 -0.17314833 -0.005690061 -0.30150586
000290 a4 0f 5e 3d c9 d6 eb 3c 80 f9 78 bc 5d 04 7f bd
       0.054214135 0.028788941 -0.015196204 -0.06226002
0002a0 43 d7 95 bc 5c 56 f6 3c ec 94 7c 3b 2e 20 ab 3d
       -0.018291121 0.030070476 0.0038540913 0.08355747
0002b0 b1 75 14 bd 6c b7 04 3c bf 01 4b bd cf d5 9a bd
       -0.03624505 0.008100372 -0.049562212 -0.07560312
0002c0 cd ae 13 3d 0d 04 06 be 55 ab 85 3d 89 78 ff bd
       0.036055375 -0.13087483 0.065268196 -0.12474162
0002d0 59 f8 b7 3d 85 e1 6a 3d 1a 95 0c bd 2b 2c dd 3b
       0.089829154 0.05734398 -0.03432188 0.00674965
0002e0 7f 27 0b be 75 11 de bc 0d 67 20 3d da 8e 4d bd
       -0.13589285 -0.027107934 0.039160777 -0.050185062
0002f0 1b 79 9a 3d f1 b8 39 3d 1b 47 13 3e 38 0d 2c 3d
       0.0754263 0.04534239 0.14382593 0.042004794
000300 df d5 05 3d 78 cf 07 bc 75 4c 19 bd 85 91 11 3d
       0.032674666 -0.0082892105 -0.03742643 0.03553917
000310 23 50 bb 3c ad d6 b1 3d 27 86 81 3d 50 55 6c 3d
       0.02286536 0.08683524 0.06324416 0.057698548
000320 d9 34 20 be 43 80 23 3d 98 3b cf bc 67 8d 3d bd
       -0.1564516 0.03991724 -0.025296971 -0.04627743
000330 14 c9 99 3d f8 e4 b5 3d a3 bb b9 bc 55 38 4c bd
       0.07509056 0.08881563 -0.02267248 -0.04985841
000340 fe cf 1f 3e a7 95 6a 3c e3 f5 d4 3c 9e 5e 1e 3b
       0.15606686 0.014317906 0.025996154 0.0024165283
000350 06 f2 35 3d 50 28 73 ba 23 f9 5b bd eb ba 9c bd
       0.044420265 -0.00092757214 -0.053704392 -0.07652839
000360 12 09 8f 3d ac 0b 92 3c 68 03 fa bd 85 97 c6 3c
       0.06984152 0.017827831 -0.12207681 0.024242172
000370 e2 7e 95 3d 5b c8 3a 3d be 60 7f be e8 aa 85 bd
       0.072995916 0.04560123 -0.24939248 -0.065267384
000380 ef e9 d7 ba 3b dd 5e 3c 13 1e 07 bd e0 20 09 bc
       -0.0016472916 0.01360255 -0.032987665 -0.008369654
000390 02 9b 07 be b0 ae 8f 3d 76 78 a3 3d 78 c6 aa 3b
       -0.13242725 0.07015741 0.079819605 0.0052116476
0003a0 c5 7a a2 bc 19 3b ea 3c 5f ce 39 bd b8 3b 57 3d
       -0.019833932 0.028592633 -0.045362826 0.052547187
0003b0 8c 6a cf bc ba bd eb bb 8a 3e 58 3d ce d7 53 3c
       -0.02531936 -0.007194248 0.052794017 0.01292987
0003c0 d4 9e 5e bd f8 a8 ec bc 28 13 f5 3c 85 15 ee bd
       -0.05435069 -0.028889164 0.029916361 -0.11625198
0003d0 56 a9 20 3d 10 8a 57 3d 86 b7 cf 3c 5f 54 2b bc
       0.03922399 0.0526219 0.025356065 -0.010457127
0003e0 d8 e8 f0 3c cb 97 93 be 86 56 fb 3c 35 a0 21 be
       0.029407904 -0.28826746 0.030680906 -0.1578377
0003f0 b1 f1 a1 bd 83 4b 1b bd 44 b4 66 bc 7b aa 2c bd
       -0.07907427 -0.03791381 -0.014081065 -0.04215477

fc2.bias f4 [400]
000000 d2 69 82 3b e6 27 5b 3b 98 f3 d8 bb 76 ba d1 bc
       0.0039799 0.003344053 -0.0066208355 -0.025601607
000010 3c 50 8f 3d e9 8c 99 3c 1d ba 23 3d 1c b9 89 3c
       0.06997725 0.018743949 0.039972413 0.0168119
000020 41 47 d3 3b fc 2e 20 3d 7b b2 92 3d 99 54 0f bd
       0.006447703 0.039107308 0.07162949 -0.034992788
000030 00 f3 2d bd d0 47 b5 3d 8d 9f ec 3c 7b 70 c5 3c
       -0.04246807 0.08851588 0.028884673 0.024101486
000040 88 d6 27 bd 54 fd eb 3c 3b 03 23 bc 68 f5 a6 bd
       -0.040976077 0.02880732 -0.009949501 -0.08152276
000050 5b ae 9c 3c f5 07 a1 3d ef 99 01 bd 4c 4b 56 3d
       0.019126108 0.07862846 -0.031640943 0.052317902
000060 b6 6c c0 3a e1 b7 2e bc 3e 06 b0 3d 79 03 9a 3d
       0.0014680836 -0.010663957 0.085949406 0.075201936
000070 4e c7 e9 bc 53 ca 2d 3c 30 bc a0 bc e1 36 6e 3d
       -0.028537419 0.01060732 -0.019620985 0.058157805
000080 24 b8 72 bc a9 3f 31 3d 2e ec 5c 3d 66 30 86 3b
       -0.01481441 0.0432736 0.053936176 0.004095125
000090 fd 54 e5 bc 84 78 99 bb 3d 46 7f 3d a7 ff b9 bb
       -0.027994627 -0.004683556 0.062322844 -0.005676228
0000a0 a5 12 c1 3c e1 81 b0 bc c1 78 02 3c b9 12 21 bc
       0.02356846 -0.021546306 0.00796336 -0.009831124
0000b0 46 ea 36 bd 58 ab 5c 3c b6 92 ae bc f1 f3 a2 3c
       -0.044657014 0.013468586 -0.021310192 0.019891711
0000c0 05 32 34 b8 4f 07 81 3b c5 b1 75 bc fa 32 44 3c
       -4.296193e-05 0.003937639 -0.014995997 0.011975044
0000d0 30 2a 3a ba 1c 95 b2 3b bf 32 91 3d 53 1c 7d bd
       -0.00071016233 0.005449904 0.07089757 -0.06179459
0000e0 1b df 22 bd 8a aa 87 3d d4 ed b3 bc f9 dc 13 bd
       -0.03976355 0.066243246 -0.021963991 -0.036099408
0000f0 cd 13 02 3d 72 e4 14 bd 8d 0b 19 3d ba 25 19 bc
       0.031757165 -0.036350675 0.03736453 -0.009347374
000100 a9 45 03 3d c3 1d bb bc 71 b9 47 bd 35 07 16 3d
       0.032048855 -0.02284134 -0.048760835 0.036627967
000110 e4 aa 8f 3d c2 98 0e bc 20 a3 3d 3d 74 26 5f 3d
       0.07015017 -0.0087034125 0.046298146 0.05448003
000120 b9 ec 72 3d a5 86 60 bb 50 81 19 3d 2a c5 c7 bc
       0.059307788 -0.0034259942 0.037476838 -0.024386007
000130 7e a3 ae 3b 45 8e 4f 3d 98 1e b8 3d 4c 22 77 3d
       0.0053295484 0.05067279 0.0899021 0.060335442
000140 64 b9 46 bd 1c ec 77 3b 4b a5 6d 3d 1c 82 f1 bb
       -0.048516646 0.003782994 0.058018964 -0.0073702466
000150 db b6 92 3d e2 38 46 3d 75 ff 90 3d 7d 6f c1 bc
       0.07163783 0.04839409 0.070799746 -0.023612732
000160 0b 41 1c b9 9a e3 e7 3c 59 98 0d 3d 53 4f 41 3d
       -0.0001490155 0.028306771 0.03456912 0.04719479
000170 ac 20 b4 bc 81 b2 50 bd 2b ab 7a 39 b4 d3 16 bd
       -0.021988235 -0.050951485 0.00023905623 -0.03682299
000180 e8 90 16 3d 26 8a 7e 3d bd 42 ba ba f5 21 2c 3d
       0.036759287 0.062143467 -0.0014210563 0.04202457
000190 e7 2e 47 3c 9a c7 9f 3d 09 84 1d 3c ae 1a 11 bc
       0.0121571785 0.07801743 0.009613999 -0.008856459
0001a0 ca 14 cc 3b 62 9f e5 3b b1 b6 1b 3d 39 ea 13 bd
       0.006228064 0.0070075253 0.038016025 -0.036112044
0001b0 30 00 96 3d c2 c4 05 3d 33 b6 8c bb 9c ee 2b 3c
       0.073242545 0.032658346 -0.004294181 0.010493901
0001c0 24 9d 49 bd b0 26 5b bc b6 cd b9 3c d2 af a8 bc
       -0.049222127 -0.013375923 0.022681098 -0.02059165
0001d0 75 88 5b 3c f3 e4 6a 3c 2f 4c 52 3d f8 1b c9 3c
       0.013399233 0.014336812 0.051342186 0.02454947
0001e0 82 45 19 bc 95 13 7a 3d c8 ae bd bc f4 7d b2 bc
       -0.009354951 0.06105383 -0.023154631 -0.021788575
0001f0 40 39 2a bd 0b 2f 22 3d 94 10 9e bb 2b a0 ef 3c
       -0.041558504 0.039595645 -0.0048237536 0.029251179
000200 b5 5e 11 3c 20 2d 1d 3d bb e2 db 3c 27 c6 a6 bb
       0.008872678 0.038373113 0.026841512 -0.0050895396
000210 dd be 5b bc bb 3d 42 bd 55 3e d4 3c 02 8e 9b 3c
       -0.013412205 -0.047422152 0.025908628 0.018988613
000220 82 1a 8c 3d 00 57 de 3c ae fd 1e 3d 36 e2 9b 3d
       0.068409935 0.027141094 0.038816147 0.07611506
000230 ed 64 2e 3b 30 11 90 3d b3 fe 4e 3c 32 c4 25 3d
       0.002661045 0.07034528 0.012633967 0.04047031
000240 74 f7 ba 3d 6a b6 e3 3c 09 24 9c 3c b5 14 a7 3d
       0.09129229 0.027796943 0.019060152 0.081582464
000250 a2 aa f8 bc 88 a1 68 bc 59 60 46 3d d9 10 08 bd
       -0.030354802 -0.014198668 0.048431728 -0.033219192
000260 7c 2f 40 3d 67 f3 c5 3c e6 44 ff bb 03 a5 8f 3d
       0.046920285 0.024163915 -0.0077901958 0.07013895
000270 29 b0 54 3d 7c 16 28 3d 62 5d 9c 3d 3c 33 83 3d
       0.051925812 0.041037068 0.07634999 0.064062566
000280 a2 42 bc 3c bb 05 b0 3c 2a b0 74 3d be b6 e7 3b
       0.022980992 0.021487108 0.059738316 0.007071345
000290 23 0f 73 3c 4a 60 55 bd 63 16 79 bc 73 2f 94 bc
       0.014835152 -0.05209378 -0.015203091 -0.018089032
0002a0 4c e7 16 3d 7c c7 04 bb e1 a9 7e bc e7 9a 7f bc
       0.036841676 -0.0020260504 -0.015543432 -0.015600896
0002b0 38 93 10 bd 0c ac 0b bc 2a e6 ac bc 08 c3 e7 bc
       -0.03529665 -0.008524906 -0.021105845 -0.02829124
0002c0 a1 46 0d 3c ea d2 8b 3d f5 af 25 3c 18 29 b0 bc
       0.008622796 0.06827338 0.010112752 -0.02150397
0002d0 fb 47 53 bc 8b ba 14 bd 3d 80 24 3d 4c 17 30 bd
       -0.012895579 -0.036310714 0.04016136 -0.042990968
0002e0 46 4c 97 3d a6 11 1b bd 22 c4 5d bd 8d 51 1f 3c
       0.07387595 -0.037858628 -0.054142125 0.009724033
0002f0 6f 30 57 bc 1c f1 96 ba 77 43 4a ba 3f 85 82 3d
       -0.013134106 -0.0011515948 -0.00077157415 0.06373071
000300 fd 01 9c 3c be 4d 0d bd eb b5 19 3d fa 5b 95 3d
       0.019043917 -0.03449797 0.037527006 0.07292934
000310 9e 37 89 3d 6f 04 73 3c 63 2d 38 3d 53 89 0b 3d
       0.06700061 0.0148326 0.04496516 0.03406651
000320 74 05 03 bd b8 77 88 bc 7a 2e 36 bd 66 1e 08 3d
       -0.031987622 -0.016658649 -0.044477917 0.033232115
000330 9a 11 a5 3c 34 d3 4d bd 77 7e 82 bc 9d fd e1 3c
       0.020149995 -0.050250247 -0.015929444 0.027586753
000340 1d d6 40 3d 27 a1 b6 3c 9a 9f 07 3a 73 e6 93 3b
       0.047079194 0.02229364 0.0005173624 0.0045135557
000350 63 53 1a 3d 47 64 98 3c 62 84 86 bc 47 4e 88 3d
       0.03767718 0.018602503 -0.016420547 0.06655555
000360 87 cd cd 3c f8 ac 46 bd 4b fe f7 3c 1c 7f 1e 3c
       0.025122417 -0.0485048 0.030272624 0.00967386
000370 c8 c1 a5 3b 42 cf 00 3d 6d 22 2d bc 0f 2f 84 3d
       0.005058501 0.031447656 -0.01056729 0.06454288
000380 fd c2 c6 bb 5a f3 20 3c eb 3b 5a bd 21 00 d8 3c
       -0.006065725 0.0098236445 -0.0532798 0.026367249
000390 fe f1 b7 3c 24 27 b4 3b 78 9c b3 3c 23 31 b8 bc
       0.022454258 0.00549783 0.021925196 -0.022484368
0003a0 af 61 b5 ba d3 e4 c4 3c c5 fc 1b bc 3d 83 0c 3d
       -0.0013838316 0.024034893 -0.009520714 0.034304846
0003b0 5d 90 2c bd dd 9a a2 3d ef 71 9d bc 4a d4 69 bd
       -0.042129863 0.07939694 -0.019219367 -0.05708722
0003c0 43 fa a5 bb 93 e9 33 bc c1 c9 43 3d a7 40 20 3b
       -0.005065234 -0.010980981 0.04779983 0.0024452598
0003d0 75 00 50 3b 26 aa 7e 3d 7a aa 67 3d 9c 6e a3 3c
       0.0031738554 0.062173985 0.056559063 0.019950204
0003e0 fe 86 c3 3c b6 b3 fb bc 29 5d dd 3c 21 dd b3 3b
       0.02386808 -0.030725341 0.027021961 0.005489007
0003f0 a4 ac 24 bc cc d4 12 3c b3 08 0a 3d a6 a7 b8 bc
       -0.010050926 0.008961868 0.033699702 -0.022540879

fc3.weight f4 [2, 400]
000000 18 3e 2c 3e f4 38 83 be 3d ee de bb 08 71 3f be
       0.16820562 -0.2562939 -0.0068033026 -0.18695462
000010 c6 6d 1a be 49 b5 16 3e 93 0d 41 bc f0 a9 18 bc
       -0.15080938 0.14717592 -0.0117830215 -0.00931786
000020 e9 84 09 3d 43 d3 38 3d 0f 4e 01 3e 53 2a 8a 3c
       0.03357402 0.04512335 0.12627433 0.016865885
000030 b1 2f b5 3b 5a 61 16 be 00 00 2a 3b f2 19 eb bd
       0.005529367 -0.14685574 0.0025939941 -0.11479558
000040 e2 21 1e 3e ba 5e 80 bc aa d6 0d bd 6a 95 60 be
       0.15442613 -0.01567017 -0.034628548 -0.21931997
000050 2a 05 cf 3d 7c 3b 8b be 1f a6 27 3e 53 98 23 3e
       0.10108407 -0.2719382 0.16371964 0.15976076
000060 d4 17 12 be 4e 41 01 be 5f 6a 47 3e 72 8e da 3d
       -0.14266902 -0.12622568 0.19474171 0.106717005
000070 9c d0 81 bd c8 fc 47 3d 47 34 11 bd 0e 68 ef 3d
       -0.06338617 0.048825055 -0.035450246 0.11689769
000080 44 a4 b7 3c 9f a7 33 bd 0d 50 48 be e0 3f 67 3c
       0.022417195 -0.043861028 -0.19561787 0.01411435
000090 2a 14 ff 3c 7e 18 3e be aa 44 af 3d ef 4f 3d 3d
       0.031137545 -0.1856403 0.085580185 0.04621881
0000a0 9c 84 ee 3d 41 c8 65 3d 81 cf 66 3d 9a 5f e5 3d
       0.11646387 0.05609918 0.056350235 0.11199875
0000b0 da a4 2a 3e c7 e7 75 3c 61 dc 4f 3d 7c a5 97 bc
       0.16664448 0.015008873 0.05074728 -0.018511526
0000c0 1e a2 31 3e bf 46 13 bd fe 08 55 be 9a 86 dc 3d
       0.17346999 -0.03595614 -0.20804211 0.10767861
0000d0 75 36 89 3d 40 cd d2 bc 04 0c ad 3d 2f af a1 be
       0.0669984 -0.025732636 0.084495574 -0.31578967
0000e0 3a f3 46 bd 4c d6 0f 3e 1f 35 09 bd 6d 5e f3 bb
       -0.048571803 0.14046592 -0.033497926 -0.007427028
0000f0 b8 60 09 bd e2 fc ab bd f9 d4 50 3e 2f 25 aa 3d
       -0.033539504 -0.08397843 0.20393743 0.083078735
000100 ed 1f a2 3d 67 34 86 3c c6 d6 1b be a4 92 c6 3d
       0.079162456 0.01638241 -0.15218648 0.09695938
000110 92 a2 ec 3d 12 a5 e7 3d ed 4f 9e 3d da 10 aa 3d
       0.11554445 0.113107815 0.077300884 0.083039954
000120 3c 68 cd bd cc aa 98 3d 09 e8 82 bb 8e fa b2 3c
       -0.10029647 0.07454452 -0.003994946 0.02184799
000130 30 3b 00 3e c9 0e 04 3e 60 c7 33 3e 9d f1 d5 3d
       0.12522578 0.12896265 0.17556524 0.10446475
000140 03 03 c3 bc 74 85 f2 3d 6e 94 15 3d 28 33 86 bc
       -0.023805147 0.118418604 0.036518507 -0.016381815
000150 a7 3a 02 3e 67 d0 4b 3e a1 10 31 3e 6f b7 69 be
       0.12717687 0.19903718 0.172915 -0.2282388
000160 b2 29 ed 3d 32 71 31 3d 45 c7 3a bd c7 5f 15 bc
       0.115802184 0.043320842 -0.045600194 -0.009117073
000170 e0 a7 92 bb a2 33 95 bd b2 91 f2 bd d0 d8 e8 bc
       -0.0044755787 -0.07285239 -0.118441954 -0.028423697
000180 a6 b1 4d 3e 60 b2 2b 3e 81 9e 98 be c2 4a 90 bc
       0.20087299 0.16767263 -0.2980843 -0.017613772
000190 1f 85 06 3e ca 1a 4c bd 6c b3 cc 3d 0b ea d8 bc
       0.13136719 -0.049830236 0.099951595 -0.026478788
0001a0 9f a9 20 3a e1 f2 98 bd 50 f9 7c 3d 50 b5 42 be
       0.0006128791 -0.074682005 0.0617612 -0.19014478
0001b0 aa 9a 60 3d 28 6a 05 3e 17 ef ec bc 98 41 9a be
       0.054835 0.13028777 -0.0289226 -0.3012817
0001c0 83 88 77 be 7e 2d 7e 3d a0 4d 02 be 85 fc 41 be
       -0.24173169 0.062055103 -0.12724924 -0.18943985
0001d0 87 f2 7a 3d 6c af a4 3d 25 84 05 3e 20 6d 99 3d
       0.06126645 0.080412716 0.1303869 0.07491517
0001e0 f0 06 6c be 49 95 02 3e 34 bc 9a be ca 5b 2e 3e
       -0.23049521 0.1275226 -0.30221713 0.17027202
0001f0 74 df e9 bc f6 cb 0f bd 80 33 dd bc fc 0e 9c 3d
       -0.028548934 -0.03510662 -0.027002096 0.076200455
000200 45 9f a7 be fb f8 1e be 93 e2 16 be db 54 c3 be
       -0.327387 -0.15524666 -0.14734869 -0.38150677
000210 53 aa 1f be eb f0 60 bd a6 35 d1 3d 4d a1 9f bc
       -0.15592317 -0.054917257 0.10215311 -0.019486094
000220 49 74 0f 3e 23 66 16 bd 43 49 8e 3d b7 2a 41 be
       0.14009203 -0.0367185 0.06947567 -0.1886395
000230 cf a0 26 be b3 8f 0b 3e 8d ca 91 3b 09 9e 52 bc
       -0.16272281 0.13629036 0.0044491948 -0.012855061
000240 79 95 85 3d f6 29 6e be 36 7d 06 3e 40 2b d0 3d
       0.0652265 -0.23258194 0.13133702 0.10164499
000250 0b 21 b7 be 54 1d 9b bb 1e 84 b8 3d 1c 80 df 3d
       -0.35767397 -0.004733721 0.09009574 0.10913107
000260 ca 47 a2 3d 37 d1 53 bc 36 cc 2f be bb 6c 53 3e
       0.07923849 -0.012928299 -0.17167744 0.20646946
000270 c7 45 8e 3d d6 91 08 be fd fc e9 3d 39 c3 b2 3d
       0.06946903 -0.13336882 0.11425207 0.08728642
000280 1b 5f 22 bd 69 b5 26 bd a6 a1 84 3d a7 e7 7c be
       -0.03964148 -0.04070035 0.064761445 -0.24697743
000290 ad 5b 13 be ca 53 8c be 05 a9 62 be c9 34 66 3d
       -0.1439044 -0.27407676 -0.22134788 0.056202684
0002a0 32 e0 c0 3d 5b 80 e1 3d 55 a0 08 3d 67 52 19 bc
       0.09417762 0.1101081 0.03335603 -0.009358025
0002b0 65 6b 71 be c0 2e 52 3d 63 f7 f1 3d a0 71 af 3d
       -0.23576124 0.051314116 0.118147634 0.08566594
0002c0 b9 94 26 3c 74 17 83 3d 56 ee 0d 3e 83 03 af bc
       0.010167294 0.06400958 0.13860449 -0.02136398
0002d0 05 6d cd bd 88 f3 9b bc e6 c0 95 3d a8 9a 3e be
       -0.100305595 -0.019037023 0.07312183 -0.18613684
0002e0 71 45 9c 3d 21 b1 9c 3d 30 38 0e 3c a4 9d 06 bd
       0.076304324 0.07650972 0.008680388 -0.03286518
0002f0 01 24 40 be 00 04 9b 3d 5f 17 b7 3c 68 4d 1a 3e
       -0.18763734 0.07569122 0.022350011 0.1506859
000300 26 9d aa bc 80 1d 5d bb f7 b4 e7 3d e5 92 ae 3d
       -0.020826887 -0.0033739507 0.11313813 0.08524112
000310 28 1a 1f 3e d9 4a 32 3e b2 9b 41 be 82 c3 11 bd
       0.15537322 0.17411365 -0.1890705 -0.03558684
000320 f2 4f 6b bb e6 5d 7a be c6 9b 51 be b4 15 e0 3d
       -0.0035905805 -0.24449882 -0.20469579 0.109416395
000330 5d 0d 11 3d 36 2a ee bc 97 70 84 bc a2 b0 6f bd
       0.035413135 -0.029072862 -0.016166968 -0.05851806
000340 ac b1 95 3d 42 8c 57 be e3 7f a7 3c 3a 74 0d 3d
       0.07309279 -0.21049598 0.020446723 0.03453467
000350 0a 80 81 3c bc fd c8 3d af 60 8e be f2 41 55 be
       0.015808124 0.09814021 -0.2780814 -0.20825937
000360 97 92 1d bd 87 24 c5 bc 68 1d 3a 3e 6e cc d7 3d
       -0.038469877 -0.02406527 0.1817528 0.10537039
000370 79 a8 2e 3e 3a 3a 1f 3d 22 bd 11 bd 44 84 24 3c
       0.17056455 0.03887389 -0.03558076 0.0100413
000380 72 e8 1c be cd 4d f2 3c e8 0e 8f 3c 5e c8 0c be
       -0.15323046 0.029578114 0.017463163 -0.13748309
000390 d7 dc 0e bd 35 0c 7d 3d 7f 23 c6 bc 0a 71 a5 3c
       -0.034878578 0.06177922 -0.024186848 0.020195503
0003a0 c5 99 48 bd 92 9e 03 3e ac f4 3b 3d af 63 0c be
       -0.04897477 0.12853459 0.045887634 -0.13709901
0003b0 b6 fe 5d bc b1 70 4b 3e 91 59 2b 3d 83 d8 05 bd
       -0.013549497 0.19867207 0.041833464 -0.032677185
0003c0 2d 19 03 3e b3 7f 05 bd 39 c8 fc 3d 41 88 85 3d
       0.12802573 -0.032592487 0.12342877 0.06520129
0003d0 bb 8f 79 be d5 86 ec 3c e6 ac e4 3d 87 ea c6 3d
       -0.24371235 0.028872887 0.1116579 0.09712701
0003e0 d2 20 95 be 2e a5 12 3a 14 a9 2a 3e 04 0f 3c 3d
       -0.29126602 0.00055940717 0.1666606 0.045912758
0003f0 63 cd a8 3d 02 11 b8 bc dd 43 c4 3c 50 44 11 bd
       0.082422994 -0.022469047 0.023958141 -0.03546554

fc3.bias f4 [2]
000000 9a 34 52 3d 0d c6 35 3d
       0.051319696 0.04437833
