reinforcement_learning/models_carracing/dqn_agent_HL_3_Ep_99_Reward_673.0318483673149.pt (torch, 962392 bytes, 10 tensors)

cnn_layers.0.weight f4 [24, 3, 5, 5]
00000000: aa88 283d 0c2a 4bbd 4344 0e3e acf6 0b3e
00000010: f005 6e3c 0d5f 3abd 080c ee38 ea4a c0bc
00000020: f586 393d 06b5 ed3d 3dac 093e 5fd8 8d3d
00000030: 9ade 123d a5d7 193d 2c60 0ebd b0a9 fc3d
00000040: 5049 0b3e 582b 823c 8184 913d 6936 023e
00000050: 3891 0f3c ec44 b93d ce16 1a3d 8311 043e
00000060: 910b d5bc 5d4e 42bd bb23 093e 1d41 a2bd
00000070: 3a9c 0c3e 0367 96bd a483 37bd 12c6 c63c
00000080: 949a f33c beeb 7a3c bb90 a33d d5c8 c73c
00000090: 96e2 183d a73e ad3d 6783 1f3d 1046 16bc
000000a0: 56b2 3239 797e 043e dde4 0f3d d18e 06bd
000000b0: a373 d83d 3899 d7bc 7000 b9bc 798b a1bc
000000c0: 53c7 c93d 2ff0 0a3d 069f bd3d 1b74 b13c
000000d0: e0cd e23d e3e4 873d e2f0 0c3d 193d 33bc
000000e0: 82c3 a03d c063 cb3d 4d61 a23d 36de 5fbd
000000f0: 61f7 56bc 34f1 be3d e27a f3bb ce73 803c
00000100: 60a2 d1bc 996f 87bd 1113 8c3d c8df 49bd
00000110: f9cc 5d3d af74 333d ca09 6ebd e92c 7abd
00000120: 506f c3bd e887 c93d 4f9c c03d 85a9 99bd
00000130: 2a7b b5bd 589f 6fbc 99c9 5b3d cfcb 333d
00000140: b5d9 683d f63c c7bd a878 c6bd 777b 513d
00000150: 4fe5 23bd 32c8 8b3d cbf2 b33d 45c5 ce3d
00000160: 45a2 4d3d aab1 fa3d 45da 7abb 098d 723d
00000170: 3394 edbc 796c b43d 0650 9abd aa03 cabd
00000180: 80cb bd3d 52d9 7a3d 6742 dc3d 0a3b 5abc
00000190: b9a5 57bd 4cb1 7ebd 0d0b e23d f19e 42bd
000001a0: 8b10 973c f488 123d ac21 c73d 9c68 e03d
000001b0: b018 903d 67d7 ac3d fdd9 6e3d 5e52 27bc
000001c0: 5532 133e 469b bc3c 3c36 9d3d 77be c6bc
000001d0: ca8f 6c3d 04f8 013e 9b5e 7b3d 207e 7fbd
000001e0: c207 9cbb 10f5 fd3d 1eed ca3d 6dea 763c
000001f0: 708a ac3d e406 a13d 5847 c23c 5ac4 07bc
00000200: d6d6 5bbd 03f3 d0bd 7f95 ae3c 319b 8ebd
00000210: debc 793d e37d cf3c 0f80 d33d 20c6 24bd
00000220: 2f5b b5bd 151f 093e 90e3 ab3d 56cb 6bbd
00000230: 7887 cd3d a1fb 40bd a011 0c3e 1357 ed3d
00000240: 5fef 77bd 3a37 02bc 7686 a2bd d782 5abd
00000250: bbaa a83c cfc6 f63d 594b a6bd 9008 c83d
00000260: 926a 34bb c065 2abd b257 0c3c 04d7 493d
00000270: 5a31 f43d 16dc bebb 4097 da3c ac4f a03d
00000280: a1ce 343d def3 d23c f211 0b3d f568 ec3d
00000290: 8fb4 83bd 5de6 af3b 3a45 103e 1683 4a3d
000002a0: 5816 a0bd 842b 093e b4dc 803c a4f9 ec3d
000002b0: 26f7 bc3d e91b 733d fb81 733d c4d6 2a3c
000002c0: 5b15 71bd 72a8 b7bd 3a99 983c 6b34 dd3d
000002d0: 1e9f 94bd a19a af3d 5f36 a8bd 1f6f 3c3d
000002e0: ff03 d23d 1fe7 84bd a227 cebd e0a7 e93d
000002f0: 9118 44bd 2e38 6dbd c385 903c 8281 85bc
00000300: cd1a c4bd d767 e13d bc84 b53d a1f6 20bd
00000310: 9df8 893d dd7a 033e ea57 52bd 2e0e 95bd
00000320: cc7b 863d c31f 223d 1c4d f83d ec8d 90bd
00000330: 0484 93bd 1547 533d 280c ab3d 1768 d3bd
00000340: 9390 b83d ba1f 023e c3eb c6bc 0bb1 7a3d
00000350: b55e 63bd 36d0 3cbd 19a9 9abc ec1c e13c
00000360: c47e 9cbd 9b1f 2a3b 5df5 a03d e1e6 073e
00000370: 6a45 863d 3539 59bc 3602 053e d70c 003e
00000380: 7090 4a3c 4e23 a7bd 6193 ba3d 78a6 95bd
00000390: 9abc 0dbd 8e72 c0bd 50b2 cebd d7ee be3d
000003a0: 4560 a43a 294c b6bc a91b 81bd d8b7 783d
000003b0: c18b 9cbc c40f 803d d6c2 2cbd 7813 3e3c
000003c0: 54bc fdbd 4e42 8dbd 96a3 9abd 54d2 a33d
000003d0: 2c45 0fbd ff32 07be 4d1e 443d 245e aa3d
000003e0: c983 4ebd 7705 cf3c 6f6c c43d 860c 383d
000003f0: bfee a33d f716 9d3d 1a8a 31bd d2e6 663d
0.041145958 -0.049600646 0.13893227 0.13668317 0.014527783 -0.045500804 0.00011350965 -0.023473222
0.04529472 0.11606793 0.1344461 0.06926035 0.03585682 0.03755917 -0.034759685 0.12337053
0.13602185 0.015889809 0.07105351 0.12716068 0.00876265 0.09046349 0.037619404 0.12897305
-0.026006492 -0.047438014 0.13392536 -0.079225756 0.1373147 -0.07343867 -0.044803277 0.02426437
0.029736795 0.015314994 0.079865895 0.024387756 0.037325464 0.084592156 0.038943674 -0.009171978
0.00017041838 0.1293887 0.03513037 -0.032851044 0.10568931 -0.026318178 -0.022583216 -0.019719826
0.09852471 0.033920463 0.09258847 0.021661809 0.11074424 0.066354536 0.03440941 -0.01093986
0.0784979 0.09931135 0.07928715 -0.054655276 -0.013120503 0.093233496 -0.0074304203 0.01568022
-0.025590122 -0.066130824 0.06839574 -0.04928568 0.054150555 0.04381245 -0.058114804 -0.061077986
-0.095427155 0.09840375 0.094048135 -0.075030364 -0.08861382 -0.014625393 0.053659055 0.04389554
0.056848247 -0.09728424 -0.09690982 0.051143136 -0.040013608 0.068252936 0.087865435 0.1009622
0.05020358 0.12240918 -0.0038277071 0.059216533 -0.029001331 0.08809752 -0.075347945 -0.0986398
0.0926733 0.06124241 0.10754853 -0.01331974 -0.05264828 -0.062180802 0.11037264 -0.04751486
0.018440505 0.03577514 0.09723219 0.10957453 0.07035959 0.08439522 0.05831336 -0.010212509
0.14374669 0.023023259 0.0767636 -0.024260743 0.057754315 0.12692267 0.06136952 -0.06237614
-0.004761667 0.124002576 0.09908508 0.01507054 0.08424842 0.078626424 0.02371566 -0.00828656
-0.05367168 -0.10202601 0.02131152 -0.06963194 0.060971133 0.025328582 0.103271596 -0.04022801
-0.088552825 0.13390763 0.083930135 -0.057566963 0.10035604 -0.047114972 0.13678598 0.11588874
-0.060531016 -0.007947737 -0.07935803 -0.053347435 0.020589223 0.120496385 -0.0811984 0.09767258
-0.0027529341 -0.041600943 0.00856583 0.04927732 0.119234756 -0.005824576 0.02668345 0.07827696
0.04414237 0.02575105 0.03395266 0.115434565 -0.06430923 0.0053680376 0.14088908 0.04944142
-0.07816762 0.13395506 0.01573024 0.11571053 0.09226827 0.05935279 0.05945013 0.010427181
-0.058858257 -0.08967675 0.018627752 0.108010136 -0.07256912 0.08574415 -0.082134955 0.04600441
0.102546684 -0.06489395 -0.10066153 0.11408973 -0.04787499 -0.057914905 0.017641908 -0.016297106
-0.09575424 0.11006134 0.08863208 -0.039297704 0.06736872 0.12839837 -0.051353373 -0.07278095
0.06566581 0.03958107 0.121240824 -0.070583194 -0.07202914 0.05158146 0.08351928 -0.10322588
0.0901195 0.12707415 -0.024282342 0.061203998 -0.05551024 -0.046097003 -0.01887946 0.027479611
-0.07641366 0.002595878 0.07859299 0.13271667 0.065562084 -0.013258268 0.12989125 0.12504898
0.012363538 -0.08161031 0.091101415 -0.07307142 -0.034603693 -0.093968496 -0.10092604 0.09322899
0.0012540898 -0.022253113 -0.06304104 0.060722202 -0.019109609 0.06253007 -0.042177998 0.011601321
-0.12389436 -0.06897412 -0.07550733 0.07999101 -0.034978077 -0.13203047 0.04788046 0.08318737
-0.05041865 0.02527116 0.095909946 0.04493382 0.080045216 0.07670396 -0.043344595 0.05637247

cnn_layers.0.bias f4 [24]
00000000: 03f1 91ba b1a8 59b7 e51e d13b 1f65 d03d
00000010: 631a 963d 608b c5bd c5b7 f1bc 744e 59bc
00000020: 2121 f4bc ffff d2bd 1af1 f53d 09b5 033c
00000030: c978 ebbd 44f7 18bd 77dc f83d df5f bd3d
00000040: b390 e839 ced1 213d 894c da3d a7a2 3eb8
00000050: 2105 8ab8 a54b e7bb 01af d73d 3120 4ebd
-0.0011134449 -1.2973484e-05 0.0063818567 0.10175537 0.073292516 -0.09645724 -0.029506573 -0.013263334
-0.029800953 -0.10302734 0.12008877 0.008038768 -0.11497647 -0.037345186 0.12151425 0.092468016
0.00044358298 0.039506726 0.10659129 -4.5451012e-05 -6.581308e-05 -0.007058578 0.10531426 -0.05032367

cnn_layers.3.weight f4 [36, 24, 5, 5]
00000000: 7aab 8d3c 17a2 0a3c 0111 463c a7d6 6e3d
00000010: 8aa6 733d 7e47 e5bc a5d6 3a3d b328 373d
00000020: 484e b53c 50db 943d e926 7abc 95f1 2d3d
00000030: ddd1 313d 7484 ac3c 3156 a53d 8982 b73c
00000040: a636 27bc 966e 7b3d 64d7 9c3d e09f 233d
00000050: 8921 ee3c 0ede 133d ce9f 76bc 0031 8a3c
00000060: a616 753b 9770 24bc 13ba e2bc 6ac3 dd3b
00000070: 72fe 663d 982e aa3d c640 71ba a207 5c3b
00000080: 6c56 dc3c 7ed9 a53c 7186 bd3d 4681 1c3d
00000090: ed3d 303c be8c 123d 0891 073d 7d1e 553d
000000a0: 163d 15bc e251 4c3d 2d68 493c 2f42 94bb
000000b0: 42ad 123d cc28 183d ee4b b13b 44ba 1e3d
000000c0: 5360 37bc 06b9 933d 0a93 31bd 3dd8 86bb
000000d0: 5053 1d3d 436d 353d c007 fa3c 5620 c03b
000000e0: fe42 393d bb39 e03c 515f 2d3d 3e67 803d
000000f0: 21b5 55bc d88e 9fbc 9921 4d3c 8bec a63d
00000100: 5b9a b43d ce99 ecbc 7dc9 51bc 6f08 5e3d
00000110: 4b66 613c ca44 843d 9074 61bc a4fc 043c
00000120: 9144 163c 5236 8b3d 09d1 303d 893d bdbc
00000130: 0a2f 2bbc ebc5 0f3c d373 203c 56a6 de3c
00000140: d754 7cbd 784e 02bd b678 063d 9973 633d
00000150: d2e2 e43c 019d 82bc acea 3f3c db65 513d
00000160: 3834 4d3c 1f3f 3f3d 71f2 26bd 6ef4 613b
00000170: 8019 3cbc b702 803d 2b0d a53d 85a8 26bd
00000180: eac0 143c 2379 db3b bf91 d63c 97b2 223d
00000190: 6ef9 b8bc a4e7 37bd 3c10 693a 94b4 533d
000001a0: f6ac 19bc fa3f 90bb af52 963c 8ded 303d
000001b0: d381 3b3d 664a b63c 5074 fdbc 2183 3f3d
000001c0: 9ea7 8bbc 16aa a2bb 4fe4 943d 37db dcbc
000001d0: e8ac 393d 11e1 943c 6eff 883d 39b3 203c
000001e0: c740 f0bb 6fc3 783a 517e 0e3d b09c f0bb
000001f0: 6aa8 8b3d ea76 fcbc 165b f5bc a3c3 863b
00000200: ab43 063d cd17 9a3d 0f1e 7a3b 5b57 e2bb
00000210: a097 233d d217 9b3d 1786 103d ed28 033c
00000220: 8298 803c 459d c83c 77b7 a93d 8216 b53c
00000230: b6fb a83c fc25 81bc 852c b43c 5f46 5b3d
00000240: 0a37 633d 2403 f63b 96bf 3c3d 8b25 4a3d
00000250: 355e 5f3d 1a71 e23c 0b96 96bc cd07 8ebc
00000260: aa0a 963d 875b 563d 1f5b 033d dce9 ccbc
00000270: 015d 3bbc b3ed 9b3c 7364 a23c 62a3 7e3d
00000280: 6adf bdbb d3d9 433d 3663 953d 2651 9d3d
00000290: fc94 af3d 4c62 163d 4f62 d8bb d838 743d
000002a0: 7ccc 903d 152b 823c cf5a aebc 0b6b 2ebc
000002b0: 730b 243d 06da 593c 93cb 873d 44ff 853b
000002c0: c434 233d 787e 893d 7782 8a3d 2f1a 9f3d
000002d0: 7c86 b13b 5515 8a3c 6159 693d 7746 803d
000002e0: d575 1e3d 2efa 013a 85c5 9c3d 8b30 a43d
000002f0: 3015 9a3d b451 663d 6edb fbbc c856 eb3b
00000300: c900 9e3d 35a2 513d 783b d53d 1976 72bb
00000310: cc2a 723d 135f 4a3c 7918 7e3d c200 8d3d
00000320: d627 dd3d b84f 0d3e c038 2a3e 7c66 3d3e
00000330: 95b9 6c3e 1508 b03d 1b5d 0e3e abc5 3e3e
00000340: f0ae 1d3e 0333 653e 81e3 bd3d 3c59 393e
00000350: ff71 303e 1591 523e 57a5 363e 6a02 743d
00000360: 8dd7 363e 84b9 1c3e 8073 5b3e 3774 4f3e
00000370: 1cbd ea3d 6ccc 213e 69e1 2f3e 930f 223e
00000380: d774 073e 3a92 42bd 0d75 d43b 97ee b33b
00000390: 023a 3b3d 375d c83c 16d6 70bc 79be 89bc
000003a0: a432 04bc 860e 2c3d 69ff 163d effb f2bc
000003b0: bfa3 503b fea2 573d 05c3 cf3d 6edf 1e3d
000003c0: 1b61 843b 06e5 733c c2ce 613d bf3e 943d
000003d0: 5061 2b3d 73ea 76bc 8b3e e73c c52b e93c
000003e0: 65c5 b73c baa0 2d3d 7c7f 943d 65cf ae3d
000003f0: d48b e33d 10ab ba3d ad20 9c3d f483 093d
0.01729368 0.008461497 0.012089015 0.058310177 0.059484996 -0.027988192 0.045614857 0.04471655
0.022132054 0.07268393 -0.015268066 0.04246672 0.04341303 0.021059252 0.0807308 0.022401111
-0.0102059 0.06138476 0.0765827 0.03994739 0.029068725 0.03610044 -0.015052749 0.016869068
0.0037397533 -0.010036609 -0.027676618 0.00676768 0.056395 0.08309668 -0.00092030724 0.0033573885
0.026896678 0.02024531 0.09254158 0.038209222 0.010756952 0.035778753 0.033097297 0.05203103
-0.009108802 0.049882777 0.012292904 -0.0045244913 0.035809763 0.037148282 0.005410663 0.038751855
-0.011192399 0.07213025 -0.043353118 -0.004115133 0.03840953 0.044293653 0.030521274 0.0058632297
0.045229904 0.027371278 0.04232723 0.06269692 -0.013043673 -0.019477293 0.012520217 0.08150586
0.088185035 -0.028881934 -0.012804386 0.05420726 0.013757299 0.06458433 -0.013760701 0.008116875
0.009171621 0.0679747 0.0431681 -0.023100631 -0.010448227 0.008775215 0.00979324 0.027178925
-0.061604347 -0.031813115 0.032829963 0.055530164 0.027940188 -0.015944006 0.011713665 0.051122528
0.012524657 0.046691056 -0.040758554 0.0034477967 -0.011480689 0.06250518 0.08059152 -0.040688056
0.009079197 0.00669779 0.026192544 0.039721098 -0.022579875 -0.044898644 0.0008890664 0.051685885
-0.009379616 -0.004402158 0.018349973 0.043195296 0.045778107 0.022252273 -0.030939251 0.046755914
-0.0170477 -0.0049641235 0.07270109 -0.026959999 0.045330912 0.018173726 0.06689344 0.009808355
-0.007331941 0.0009489571 0.034788433 -0.0073428974 0.06819232 -0.030818421 -0.02995066 0.004112677
0.032779377 0.07524071 0.003816489 -0.0069073862 0.039939523 0.07572903 0.035284128 0.008005363
0.015697721 0.024489054 0.08286946 0.02210546 0.020627838 -0.015765183 0.021993885 0.053533908
0.05547241 0.0075076986 0.046081148 0.04935221 0.054533202 0.027641822 -0.018382093 -0.017337704
0.07326253 0.05233338 0.03206932 -0.025013857 -0.011435748 0.019034242 0.019823289 0.062167533
-0.0057944553 0.047815155 0.072943136 0.076814935 0.085733384 0.036714837 -0.006603516 0.059624523
0.07070252 0.015889684 -0.021283535 -0.010645638 0.04004998 0.01329661 0.066306256 0.004089268
0.039845243 0.06713575 0.067631654 0.07768666 0.005417643 0.016855875 0.056970004 0.0626344
0.038686592 0.0004958239 0.07654861 0.08017071 0.075235724 0.056230262 -0.03074428 0.007181976
0.077149935 0.051180083 0.104117334 -0.0036996661 0.059122846 0.012351769 0.062035058 0.0688491
0.10798614 0.13799942 0.16623211 0.18496126 0.23117669 0.085952915 0.13902704 0.18630092
0.15398765 0.2238274 0.092719086 0.18100446 0.17230986 0.20563157 0.1783651 0.059572615
0.17855664 0.15305144 0.21430779 0.20259176 0.11461851 0.15800637 0.17175831 0.15826254
0.13228165 -0.047502734 0.00648368 0.0054910886 0.045709617 0.02445851 -0.01469948 -0.016814457
-0.008068714 0.042006038 0.03686467 -0.029661147 0.0031835882 0.052645676 0.10144619 0.038787298
0.004039896 0.014886146 0.05512882 0.0723853 0.04184085 -0.0150705455 0.028228065 0.028463254
0.022432992 0.04238961 0.07250878 0.08535651 0.111106545 0.09114659 0.0762342 0.033573106

cnn_layers.3.bias f4 [36]
00000000: 6d0e 8bbd 9864 113d 5867 debc dde0 0f3d
00000010: 687e 0dbc df99 05bd 6c44 39bd 77d1 8cbb
00000020: c5d0 523d d031 f03b ba68 c63b 1a84 77bd
00000030: 2c2f 53bd 0290 d33c 1099 103d c089 4bbd
00000040: 47b9 15b9 422f 91bc 5fd3 38bc 3114 80bd
00000050: 5c57 7c3c aada f43c 7d13 6abd 1493 a4bc
00000060: 4088 22bd 3f72 613d 064f 9ebd bcdf f2bc
00000070: 51b0 bfbc a2be 853d de81 8abd d0f1 48bd
00000080: 5888 5cbd e1d5 143d fd3f eabc ba74 1cbd
-0.06789861 0.035496324 -0.027148888 0.035126556 -0.008636095 -0.032617446 -0.045231268 -0.004297431
0.05146863 0.007330157 0.006054965 -0.060428716 -0.05155866 0.025825504 0.03530222 -0.049691916
-0.00014278769 -0.01772273 -0.011280864 -0.06253851 0.0154016875 0.029889423 -0.05714749 -0.020089664
-0.03968072 0.055040594 -0.07729916 -0.0296477 -0.023399504 0.06530501 -0.067630515 -0.049058735
-0.053840965 0.036336783 -0.028594965 -0.038197257

cnn_layers.6.weight f4 [48, 36, 5, 5]
00000000: 873a e13c ff21 143c 00da cb3c fa21 603d
00000010: 7a25 5eba 44ca c5bc 8de7 e5bc 2572 073c
00000020: e7d3 0c3d 5fc9 763d af23 023c 4cc6 bdbc
00000030: 7cfd 673a 034f c13c eb05 083d 79b2 123d
00000040: d2a9 0e3d a3bb a43c 513d 2b3d 8122 063c
00000050: c9f6 d03c 4bc7 093d 1324 fabc 6c63 a9bc
00000060: 040d 13bc af25 063c 812f 293d 92d5 6b3c
00000070: 41d0 4b3d 39ae 9e3d bf7b a5bb e0d2 a13c
00000080: b45e d93b accb 8b3d 6328 a43d c006 a13b
00000090: 43c6 9a3c 07d9 e43c ec1b ad3c 9f7b 833d
000000a0: a9ef 403d 46bb 923b 48f7 ec3a 231b eb3c
000000b0: d147 d43c 7039 373d f122 273c 3bff 143d
000000c0: 5d4b b5bc 88a5 243c c77f 1abd 49b9 39ba
000000d0: 7fbb f33c c9c2 e33c 7755 983d a3a8 fbbb
000000e0: 0a76 3c3c 57fe 453d d52d e13c ab62 2b3d
000000f0: 8e50 733c 1cd1 343b 7128 c73c 1d0e 3d3d
00000100: aa89 283d e2bc 64b9 eb06 f83c 60c5 0f3d
00000110: 8189 523b 86e5 633d 4acb 6b3c 39bd d4bb
00000120: e9d2 0a3d 4129 ff3c 3e84 073d c262 e33b
00000130: 0fcf f63c 36cf 303d a7c0 d53d 4d8e a03d
00000140: e957 443c d8be e03c 9f52 003d 480d a83d
00000150: a326 c73d c091 be3c 5947 2d3d 8260 7e3d
00000160: 6b33 2c3d 1cf2 1f3d d3b8 a83b 428d 423d
00000170: 0c84 743c 1f3e f43b 0541 4c3c cb9f 803c
00000180: b91a b13c 85cd c7bb 0451 0f3d ed42 8d3c
00000190: a57b 4fbc a8bb 05bd 45f0 b23c 8b40 d83b
000001a0: 1b9d 823c 0a50 dbbb 421e d73c 6361 0bbb
000001b0: bbd3 053c f883 c63c 5279 43bc dd32 a4bb
000001c0: d1de 7c3c 8c24 e83c ce52 653a 8673 ca3c
000001d0: 7887 1cbc 4968 833b 105b 633c 54f0 8d3b
000001e0: d3cb 673c d485 94bc 2759 0eb9 17ab 13bd
000001f0: bc2d 9abc 93ba 9e3c 8c1b 50bd 7fbc 92bb
00000200: 913b 29bd 2620 31bc b450 f63c 8861 96bc
00000210: 8939 283c 9d60 e8bc 0224 4fbb e16b 013d
00000220: b634 053d bd2e 66bc 0108 e83c e94d 343c
00000230: 1738 a23c ad8e e43b 8480 afbc 12cb bdbc
00000240: 6c0c 77ba 0d72 333d ae75 803c 8ef4 d1bc
00000250: 7f71 07ba ca72 b7bb f6e5 f5bb 22ed d7bb
00000260: 71aa 163a 9aa3 1f3d 98a4 273d 67a7 85bc
00000270: 6979 083d ec72 1d3d 8cc2 a33c 01a8 fa3c
00000280: 8e52 b83c 99ff ed3c 24b0 cd3c 5157 093c
00000290: a608 413c c4e1 283d c44c 0b3d a4b9 653c
000002a0: 0368 133d 23bc 073d 17c9 e63c f57e 0a3d
000002b0: bf74 4d3b 1b2e ee3c 1055 dfbc 0fb7 7e3c
000002c0: 16c4 07bd d5b5 65bb 6b26 5b3d 375e 823d
000002d0: 794e a83c 5d84 cf3c eb2e 833a 1244 aa3d
000002e0: 7780 023d 9ecd d13c 47e4 dc3c 94c1 d03c
000002f0: ad02 6e3d 14eb b53c 7f53 acba e30b 0c3d
00000300: c26e c9bc 4b81 d73c 7442 4cbc 7129 253d
00000310: 8dee 90bc 2e28 1bbc 3537 183d e469 d83c
00000320: d918 4e3c 081e 8e3c a3d7 893d 58f6 923d
00000330: 44c5 853d ac2e 333d 3065 e93b 1758 253d
00000340: 3758 a73d a821 723d 8f9c 953a 4bc6 623c
00000350: 1541 1c3d 77ee 023d 7461 1a3d a8fe 3b3d
00000360: 8e45 343c 16ea 03bc 44cc 873c 4519 3e3c
00000370: 650b e23b da60 d03c e5b3 313d b92e 693c
00000380: cdb1 b6bb 5ec4 66bc 8e4d cb3c dfd3 7e3d
00000390: 1b67 033d 3ab6 c23d 18e6 a03c ef68 0e3d
000003a0: 5dd4 ce3c db13 a13d 735e c63d 0072 a03c
000003b0: 7a81 0a3c 7128 113d b895 1a3d 962b 953d
000003c0: 3fee e73c 003a c03b ed74 2a3b 98e3 273d
000003d0: 56c5 563d 8392 8c3d 63ac 4b3d e171 34bb
000003e0: 6eaa 08b9 be06 c73c cb38 ae3c 15f0 37bc
000003f0: 35e5 c4bb 36ad 843b c54d ee3c fdfa 863c
0.027493728 0.009041308 0.024884224 0.054719903 -0.00084742124 -0.0241443 -0.028064514 0.00826696
0.034381773 0.060250636 0.007943078 -0.023165844 0.0008849723 0.023597246 0.03320877 0.035814736
0.034829922 0.020109003 0.041806523 0.008186937 0.025508301 0.033637326 -0.03053478 -0.02067729
-0.008975271 0.008187695 0.04130507 0.014394181 0.049759153 0.07748074 -0.005050152 0.019753873
0.006633604 0.06825957 0.08015516 0.0049141347 0.018893367 0.027935518 0.021131478 0.06420063
0.047103558 0.004477891 0.0018079067 0.028699463 0.025913151 0.04473251 0.010201202 0.03637622
-0.022130663 0.010049231 -0.037719514 -0.00070847996 0.029752491 0.027802842 0.07438176 -0.007680015
0.011502752 0.04833826 0.027487675 0.041842144 0.014850749 0.002759046 0.024311276 0.046156038
0.04114691 -0.00021814139 0.030276736 0.03510034 0.0032125416 0.055638812 0.01439173 -0.0064922837
0.033892546 0.031147601 0.0330851 0.006939263 0.03012803 0.04316636 0.10437136 0.07839642
0.01198385 0.027434751 0.031328794 0.08205658 0.09724166 0.023262858 0.04230437 0.062103756
0.042041223 0.039049253 0.005148986 0.047497995 0.014924061 0.0074536945 0.012466674 0.015701195
0.021619188 -0.006097498 0.034989372 0.017243827 -0.0126637565 -0.032649666 0.021843085 0.006599491
0.015944054 -0.006692891 0.026259545 -0.0021267764 0.008168156 0.02423285 -0.0119307805 -0.005010946
0.015433983 0.02833774 0.00087479956 0.024713289 -0.009553783 0.0040102345 0.013876691 0.004331628
0.014147717 -0.01813022 -0.00013575387 -0.036051836 -0.018820636 0.019376075 -0.05080752 -0.004478037
-0.041316573 -0.010810887 0.03006778 -0.018357053 0.010267624 -0.028366381 -0.0031607156 0.031597022
0.032520972 -0.014049229 0.028324129 0.011004903 0.019802136 0.006975016 -0.021423586 -0.02316812
-0.0009424153 0.04380994 0.015681114 -0.025629308 -0.00051667535 -0.0055984007 -0.00750422 -0.0065895477
0.00057474436 0.038974382 0.040928453 -0.016315175 0.03331891 0.038439676 0.019990228 0.030597689
0.022500303 0.029052543 0.025108404 0.008382634 0.011781847 0.041230932 0.034008756 0.014021311
0.035987865 0.033138406 0.028172059 0.033812482 0.0031350104 0.02907472 -0.02726224 0.015546574
-0.033145986 -0.0035051007 0.053503435 0.06365626 0.020545231 0.02533167 0.001000849 0.08313765
0.031860795 0.025610741 0.02696432 0.02548293 0.05810802 0.02220682 -0.0013147442 0.034191024
-0.024588946 0.026306769 -0.012467016 0.040322725 -0.017691875 -0.009470029 0.037162025 0.02641768
0.012579166 0.017348304 0.067305826 0.071758926 0.06531766 0.04374568 0.007122658 0.040367212
0.081711225 0.05911413 0.0011414456 0.013841222 0.038148005 0.0319657 0.037690595 0.045897156
0.011002911 -0.008051416 0.016576894 0.011602704 0.006898331 0.025436807 0.04338445 0.014232331
-0.0055753947 -0.0140849035 0.024817254 0.062213775 0.03208075 0.09507413 0.019640967 0.03476804
0.025247747 0.07865115 0.096859835 0.01958561 0.008453721 0.03543896 0.03774044 0.07283704
0.028311847 0.005866289 0.0026009635 0.040988535 0.052434288 0.068638824 0.049724948 -0.0027533697
-0.0001303346 0.024295207 0.021267315 -0.011226674 -0.006008769 0.0040489687 0.029089818 0.016477102

cnn_layers.6.bias f4 [48]
00000000: 43d0 893c 5b3d 8c3c 03d9 c5bc 44ee 32bd
00000010: a842 8fbc 0d5d 36bb e69a 2c3c 7801 a93c
00000020: 9824 613d 3776 143d c4c3 87bc 2ec0 663d
00000030: 2fdb bbbc a785 1bbd efe2 fb3c 1b4d 40bb
00000040: 364c 64bc 9f83 05bd 823b 0d3d 7e86 62bc
00000050: 9b67 843d da55 4c3d e523 93bc e455 093d
00000060: 6895 723b f2ca 65bc 3d33 9a3b 0ffe 5a3d
00000070: bd5b bbbc 7ebf 9ebc 361c f5bc 32d8 903b
00000080: 1bf1 993d 28f8 623c 345d a03c 2ab7 d9bc
00000090: c0fd ee3c 5c96 a2bb c8ad c03c 43d7 b63b
000000a0: 67b1 d8bc af72 2d3d f33f 9abc d4fb 5b3c
000000b0: 7ddf 8fbc 3107 edbb 7322 3639 485c 9d3b
0.01682294 0.0171191 -0.02415133 -0.04368426 -0.017487839 -0.0027826459 0.010534978 0.020630583
0.05496654 0.03624555 -0.01657284 0.05633562 -0.022931663 -0.037969258 0.030747859 -0.0029342833
-0.013934186 -0.032596227 0.03448058 -0.013826011 0.06465074 0.049886562 -0.017961452 0.033529177
0.0037015323 -0.014025437 0.004705815 0.053464945 -0.022870893 -0.01937842 -0.029920679 0.0044203037
0.0751669 0.01385311 0.019575693 -0.026576597 0.029173732 -0.004961772 0.023520365 0.0055798604
-0.02645178 0.0423457 -0.018829321 0.01342674 -0.017562622 -0.0072335233 0.00017369706 0.0048022605

linear_layers.0.weight f4 [25, 6912]
00000000: fe08 8e3a add6 c03b 6b89 5bbb 7157 aebb
00000010: f8ca 0b3b 635b b5bb ab5f b93a 088a aaba
00000020: 4807 b8bb 087e 86bc 7ebb adbb aa91 eabb
00000030: dcb6 c73b 06fa f5bb c070 cb3b 23ba bebb
00000040: 59a8 9d3b 6d6e 89bc 752e ddbb cc6f cf3a
00000050: bf08 9fbb 9d47 a03b 407a 80bb f706 4dbc
00000060: e771 7ebb 8ea5 483a 07d5 ed3b 63e0 1f3c
00000070: 91f2 ac3b d16e 1b3b a34d 5dbc 3ac3 1abb
00000080: 40b7 97ba a220 ff3b 30e2 e13b a73f 45bc
00000090: 6a0f 8abb f481 37bb 5717 45bc d2b8 833b
000000a0: 494f f23a cdf3 5cbb 90dc 3fbc cfee a4bb
000000b0: 7f42 cf3b 3d86 51bc be6c f93b a7ae b83b
000000c0: 90b0 e7bb 0b79 63bc eb3e 23bc 2d47 563b
000000d0: 91c9 c1bb ac73 cf39 15af 19bc a997 dcbb
000000e0: f4e9 803a 4ef2 e8bb bfa5 f83b 3824 e739
000000f0: da78 223c 1d51 15bc 2647 a9bb 06ef be3b
00000100: 0774 31ba c89f 873b 72c2 23bb 144f ccba
00000110: c4b8 193c a1f3 acba bdb4 0a3b f683 12bc
00000120: 1ae3 1abb 1414 03bc e2b3 47bb c942 69bb
00000130: 213d 443c fad1 3ebb 177b 6cbb 6cb5 c33b
00000140: 95f0 45bb a4a8 3c3b 7e02 aa3a ed10 91ba
00000150: f1b2 453c fc6d 263c a401 f03b 66e5 84ba
00000160: 4962 28bb d291 3dbc a579 eebb f552 12bc
00000170: c1d4 18bc acb4 1ebc 7d99 9f3a 9f55 5dbc
00000180: ca6f f5ba b806 d63b a695 8abb 928e 943b
00000190: 547f 173c 9d5e e3bb fb0e 15bc 2396 e93b
000001a0: 70eb 29ba 8650 64bc 37b6 febb 3e39 0ebc
000001b0: 48b8 4a3a 0c8b 2bbc b683 513b 0e32 20bc
000001c0: 06a5 e73b b90b 493c 0c9a 7a3b 6017 d3bb
000001d0: e728 20bc f400 12bc 92ae 853a a484 11ba
000001e0: 9e3e d73b 1f6c 3fbc a461 94bb e11c f8bb
000001f0: eb09 22bb 9950 b63b d3e7 d2bb faac db3a
00000200: 0095 40bc ee19 3abc 52b9 36bc 500b 2dbc
00000210: 7f6c 9ebb 55bf aebb fbc8 223c 5a8f ac3b
00000220: 214e 053c f04c 38bc 5759 ebbb f74d a0bb
00000230: 4b56 6abc 167e 88bb dd81 5bbc a8d9 6ebc
00000240: 3b18 07bc 16e3 7ebc e89e 22bc 5e6a b2bb
00000250: 9179 6dbc 7474 84bc f332 fcbb 7568 8abc
00000260: 1456 8bbc 3896 1abc 3d0a 48ba 7e2e 41bc
00000270: 9fa3 13bb b21f 093a 4ef2 8bbb 82c3 18bb
00000280: 5886 40bc dcd1 4cbc 0ba7 5dbc 80a0 7dbb
00000290: 53d9 efb9 0162 f2ba 5e5e 013b 85a3 963b
000002a0: 6074 8abb a810 a6bb 0055 09bc 55d0 80b9
000002b0: 6f82 0ebc daf8 3bbc 5ce6 683b a188 0f3c
000002c0: 644a cc3b dcaf aabb 95b5 ac3b e638 1f3c
000002d0: 176f 17bb 3575 253c 33d0 973b 2457 f53b
000002e0: da4e bc3b 109b e83a 2fd8 2cbc 234e b5ba
000002f0: 92df ae3b 16c7 253c c260 8b3a 3dc7 0e3c
00000300: e958 ad39 e9df 4cbc e711 86bc a94f 91bc
00000310: 2430 373b 6ca4 6bbc ccc9 a1bb c26d a5ba
00000320: 2bea a23b c6bb 9a3b 6acd 1dbc 16db 0fbc
00000330: 431c e63b 67f9 ac3a e9ea 30bc 04f6 50bb
00000340: ac7a 2fbc f935 d03b 339e 0d3c 48b6 113c
00000350: 86ac 08bb 65d7 34bc 5811 57bc b237 733b
00000360: 7086 13bb 4b5b ceb8 0559 1e3b fc49 4fbb
00000370: 3c70 4bbb ca6e 29bc 8224 b3bb e2d8 cabb
00000380: 59f4 e4bb 24e0 053b 94c5 e8bb 852c beba
00000390: f55c ab3b e8e6 2a3c ebb5 eabb ccfb d03b
000003a0: 6937 d4ba 8cbe 233b c7e3 19bc fc46 08bb
000003b0: faaa 32bc 2c0c 3abc bd71 ffbb 739d 9cbc
000003c0: 9abb 2bbb fa3d c1bb 4d90 003c f23b 003b
000003d0: 48d1 c3bb 64e4 6c3a 6d7d d6bb 7883 173b
000003e0: decd fb3a 39b0 12bb f5f0 203c 92d7 b5bb
000003f0: 17a2 f9bb 13fa 02bc cf54 e1bb 5258 11bc
0.001083642 0.0058849663 -0.0033498656 -0.0053204824 0.0021330696 -0.005534576 0.0014142891 -0.0013011107
-0.0056161024 -0.016417518 -0.005301892 -0.007158478 0.0060947966 -0.0075066118 0.006208509 -0.005820529
0.0048113284 -0.016776288 -0.006749923 0.0015826165 -0.0048533375 0.0048913495 -0.0039208233 -0.012513868
-0.0038825215 0.0007654064 0.007258061 0.009758088 0.0052779396 0.0023717175 -0.01350728 -0.00236149
-0.0011574998 0.0077858726 0.0068934187 -0.012039102 -0.0042132633 -0.0028001042 -0.01202949 0.004019835
0.0018486764 -0.0033714653 -0.011710301 -0.005033351 0.0063250656 -0.012788353 0.00761184 0.0056360546
-0.0070706084 -0.013883839 -0.009963731 0.0032696233 -0.005913921 0.000395683 -0.009380122 -0.0067319465
0.0009835348 -0.007108963 0.007588118 0.00044086738 0.009916509 -0.009113577 -0.0051659523 0.0058268337
-0.00067693036 0.0041389205 -0.0024987725 -0.0015587532 0.00938243 -0.0013195166 0.0021164857 -0.008942595
-0.0023633898 -0.0080003925 -0.0030472209 -0.0035592786 0.011977465 -0.0029116855 -0.003608411 0.005972555
-0.0030203213 0.002878704 0.0012970713 -0.0011067666 0.012066589 0.010158058 0.0073244143 -0.0010139167
-0.0025693348 -0.011570411 -0.0072776848 -0.008930911 -0.009328068 -0.00968663 0.001217648 -0.013509183
-0.0018725332 0.0065315627 -0.0042292653 0.0045335973 0.009246666 -0.006938769 -0.00909781 0.0071284934
-0.00064819213 -0.013935214 -0.0077731865 -0.00868064 0.00077331485 -0.010470163 0.0031969375 -0.009777559
0.007069233 0.012270861 0.0038238792 -0.0064419955 -0.009775377 -0.00891136 0.0010199121 -0.0005551076
0.006568744 -0.011683493 -0.004528241 -0.007571802 -0.002472515 0.005563807 -0.006436327 0.0016759925
-0.011754274 -0.011358721 -0.011152582 -0.010561779 -0.004834711 -0.005332867 0.009935613 0.0052661123
0.008136303 -0.011248812 -0.007182281 -0.0048921066 -0.0143028 -0.0041654212 -0.013397661 -0.0145782605
-0.008245523 -0.015557071 -0.0099255815 -0.005444809 -0.014494316 -0.01616881 -0.0076965033 -0.016895512
-0.017008819 -0.009435229 -0.000763092 -0.01179087 -0.0022527946 0.0005230858 -0.0042708283 -0.002330989
-0.01175078 -0.012501206 -0.013528596 -0.0038700402 -0.00045747551 -0.0018492342 0.0019740085 0.0045971298
-0.0042252988 -0.0050679035 -0.008382082 -0.00024569282 -0.00869809 -0.011472905 0.0035537696 0.008760602
0.006234454 -0.0052089524 0.0052706697 0.0097181555 -0.0023106986 0.010098745 0.0046329736 0.0074871946
0.0057467045 0.0017746408 -0.010549589 -0.0013832491 0.0053367103 0.010118267 0.0010633694 0.008714494
0.00033063375 -0.012504556 -0.016365958 -0.01773818 0.0027952278 -0.014382463 -0.004937386 -0.0012621211
0.0049717627 0.0047220914 -0.009631494 -0.0087802615 0.007022412 0.0013196886 -0.010798194 -0.0031884918
-0.0107104 0.0063540903 0.008643675 0.008893557 -0.0020854785 -0.011037682 -0.013126694 0.0037112054
-0.002251055 -9.83985e-05 0.0024161946 -0.0031629791 -0.0031042239 -0.010341356 -0.0054669986 -0.006190405
-0.0069871363 0.0020427788 -0.0071036313 -0.0014509117 0.005229587 0.010431029 -0.0071627996 0.006377673
-0.001619083 0.00249854 -0.009392685 -0.0020794263 -0.010905022 -0.011355441 -0.007795541 -0.019118046
-0.0026204349 -0.0058972808 0.007846904 0.001956698 -0.005975876 0.00090367184 -0.0065457136 0.0023119133
0.0019211133 -0.002238287 0.009823074 -0.0055493796 -0.0076181996 -0.007994193 -0.006876565 -0.008871155

linear_layers.0.bias f4 [25]
00000000: f5f8 03bc 759c 1fbc f6b1 97bb b29a ee3b
00000010: ce1e 193c c41f 5a3c b690 04bc 2d54 a53c
00000020: bacc 0ebc acc1 503b 12f4 113c 64e9 1c3c
00000030: fac1 0e3c ef61 3dbb 39f6 f7bb 7426 2a3c
00000040: f889 0b3c 6f59 5a3c 2b77 f8bb ef39 cb3a
00000050: f55f 1cbc 5a26 663c b59f 6fbc 719b bcbb
00000060: 4c21 653c
-0.008054961 -0.009741892 -0.004629369 0.0072816247 0.009345723 0.013313238 -0.008091142 0.02018174
-0.008715803 0.0031853719 0.008908289 0.009577129 0.00871324 -0.0028897484 -0.007567194 0.0103851445
0.008516781 0.013326987 -0.0075825653 0.0015504936 -0.009544362 0.01404723 -0.0146254795 -0.0057558347
0.013984989

linear_layers.2.weight f4 [5, 25]
00000000: d0ae 353e 0336 9fbd d5a2 393e 53df 6f3d
00000010: 431d de3d fcbd 213e 71e4 4abe 6b75 a83b
00000020: 6030 0e3e 819f 2ebe 0fef b3bd 037f 3abe
00000030: 71f6 d53d 8c57 e3bd bc9e d43d 636a c03d
00000040: e203 18be 0906 3c3e 5379 9c3d fc28 b13d
00000050: 8cf4 2a3e d592 4abd 8d9e 82bb ebfb df3c
00000060: 8d19 043e 0f78 03be 3a6e b3bd f410 36be
00000070: 47ed 21be 24c0 28be 0b4d 3dbd 57f5 35be
00000080: 4c5e 353e c4fd 0d3c fecf 44be 5a80 1f3d
00000090: c3be 06be c2ba f83d 874a 20be 6bb6 1fbd
000000a0: 79a9 ae3c d1f8 6cbd b1ed 403e 1d70 aabd
000000b0: 9fe6 ccbb 8bb3 25be c27e d73c e54a 463e
000000c0: 6817 c23d 9840 eb3d 3ce1 95bd 2f85 193e
000000d0: f632 11be 40e9 88bd fb13 193d f6dc 2d3e
000000e0: ebb5 b1bd 183a 1e3d a708 073d d814 2dbe
000000f0: 8340 e9bc b686 0e3d cc31 96bd f3ba 253e
00000100: 1d05 a13c da2a 1fbe 5862 1dbe 5088 2b3e
00000110: fb04 02be 0bbf 0b3e c416 18be 6ade 2cbd
00000120: aaf5 c5bd ee66 3d3e c7b9 d13d cfcc e83d
00000130: b501 45be 010e a5bd cd44 3a3e d255 25be
00000140: bab9 d93d 8521 6d3c 8315 26be b3bb 9d3d
00000150: cddd cebd 5527 ae3d 3715 44be 4d6f fb3d
00000160: 282b 1b3e 17f8 2b3e 93c8 9f3d 1d52 03be
00000170: 6717 4a3e e7af 4fbc c8fd 10be e193 babd
00000180: 33e2 7d3d 7af0 1c3d 7bec 8b3d c64e 053e
00000190: 421d 353e 81fc 003e e471 91bd bdc7 4abe
000001a0: a8bc c3bd 2aa0 60be 6fca b53c 2b28 d53d
000001b0: 8577 243e 42b5 133d 21e3 6f3d 0ef5 ecbd
000001c0: 85d4 bfbd 3974 383e 5e49 283e ce81 30bc
000001d0: 5328 d83c af98 4b3e e079 123d 7832 25bc
000001e0: a7c3 9f3d ff6b 403e 48d5 a03d 4d55 b63d
000001f0: 9879 c03d
0.17742467 -0.07773974 0.18128522 0.058562588 0.10845425 0.1579513 -0.19813706 0.0051409504
0.13885641 -0.17053033 -0.08785831 -0.18212514 0.104473956 -0.111006826 0.10381839 0.09395292
-0.14845231 0.18361677 0.07640328 0.08650395 0.1669485 -0.049456436 -0.003986186 0.027341804
0.12900372 -0.12838767 -0.087612584 -0.17779905 -0.1581317 -0.16479546 -0.046216052 -0.17769371
0.17711753 0.0086664595 -0.19219968 0.038940765 -0.13158707 0.12144996 -0.1565343 -0.038992327
0.021321045 -0.057854477 0.18840672 -0.08322165 -0.006253078 -0.16181771 0.02630556 0.19364507
0.09477121 0.1148693 -0.07318351 0.14992212 -0.14179596 -0.06685114 0.03737257 0.16978821
-0.08677276 0.03862962 0.032967236 -0.16902483 -0.028473144 0.03479644 -0.07333717 0.16184597
0.019655759 -0.1554369 -0.15369546 0.16751218 -0.12697212 0.13647096 -0.14852434 -0.042204298
-0.09665997 0.18496296 0.10240512 0.11367189 -0.19238932 -0.08059312 0.18190308 -0.16146019
0.10631128 0.014473324 -0.16219144 0.077018164 -0.10100899 0.08503596 -0.19148718 0.12277088
0.15153182 0.16793858 0.07801928 -0.12824292 0.1973549 -0.012676216 -0.1415931 -0.09110237
0.0619833 0.038315274 0.068322144 0.13018331 0.17686942 0.12596323 -0.07101801 -0.19802757
-0.09557468 -0.21936098 0.022191254 0.10408052 0.16061218 0.036061533 0.058566216 -0.11570178
-0.09366707 0.18013085 0.16434237 -0.010773135 0.026386416 0.19882463 0.03576076 -0.0100828335
0.078009896 0.18791197 0.0785318 0.089029886 0.09398192

linear_layers.2.bias f4 [5]
00000000: fb8c b0bc fc61 483d e44d 273d 07ed 02be
00000010: b4de dbbc
-0.0215516 0.04892157 0.040845767 -0.12785731 -0.026839592
