reinforcement_learning/models_carracing/dqn_agent_HL_5_Ep_259_Reward_687.7807674582701.pt (torch, 967191 bytes, 10 tensors)

cnn_layers.0.weight f4 [24, 5, 5, 5]
0	0x3c8f6895	0.017505923
1	0xbd252267	-0.04031601
2	0xbd3722df	-0.04471099
3	0x3db4e46e	0.08832632
4	0x3dc40d1d	0.09572814
5	0xbd0473dd	-0.03233706
6	0x3d5346ba	0.051581122
7	0x3de401d1	0.11133159
8	0x3d856198	0.06512755
9	0xbcda6fa5	-0.026664564
10	0xbc8755d2	-0.016520415
11	0x3da30444	0.07959798
12	0x3debf712	0.11521734
13	0x3d8286d6	0.06373374
14	0xbc6b7e8b	-0.014373432
15	0xbd288316	-0.04114064
16	0xbdc8a646	-0.09797339
17	0xbd45f3ad	-0.04832809
18	0x3da37247	0.07980781
19	0xbd503ea7	-0.050841
20	0xbd169d0b	-0.03677086
21	0x3d6fdbe5	0.058559317
22	0xbc3c423d	-0.011490402
23	0xbd950c65	-0.07277755
24	0x3d152ff5	0.03642269
25	0xbd02fcf3	-0.031979512
26	0xbd14edbc	-0.036359534
27	0x3de7e278	0.11322492
28	0x3d9bd7b1	0.07609499
29	0xbd37373a	-0.044730403
30	0xbce965ac	-0.028490864
31	0x3d1f6a49	0.03891972
32	0x3d36c198	0.04461822
33	0x3cd600bb	0.026123395
34	0x3d22a8ba	0.03971169
35	0x3c0b2a54	0.0084939785
36	0xbcbcb663	-0.023036188
37	0xbd1552fd	-0.036456097
38	0xbcbbd12f	-0.022926895
39	0x3cea27ba	0.028583396
40	0xbd9cd1d7	-0.07657211
41	0x3d00032a	0.031253017
42	0xbdc34477	-0.09534543
43	0x3ce16716	0.027514976
44	0xbbbfb3ed	-0.0058503062
45	0xbcc2d5af	-0.023783533
46	0x3d30b804	0.04314424
47	0x3d84ed19	0.06490535
48	0xbd92fce7	-0.071771435
49	0x3d52559d	0.05135118
50	0x3ddf2945	0.108965434
51	0xbde61899	-0.112351604
52	0x3dcb94d9	0.099405
53	0x3b4c71bc	0.003119572
54	0xbd465fca	-0.048431195
55	0x3d571049	0.052505765
56	0x3cf7bf33	0.030242538
57	0x3d3a0f50	0.04542476
58	0x3dc28335	0.09497682
59	0x3d9294a5	0.07157258
60	0x3d0cc009	0.034362826
61	0xbd47bf29	-0.04876629
62	0xbc2743e0	-0.010209054
63	0x3d861249	0.06546456
64	0x3da9773c	0.08274695
65	0xbc40212f	-0.011726662
66	0xbd2a09db	-0.041513305
67	0xbd89ceea	-0.06728919
68	0xbd2da458	-0.04239306
69	0xbc3c46d6	-0.011491498
70	0xbd8c800c	-0.068603605
71	0xbc84e923	-0.01622445
72	0xbd2e2865	-0.042518992
73	0xbd241678	-0.04006049
74	0x3cb27aa5	0.021786997
75	0xbce3f463	-0.027826494
76	0x3d6828a8	0.056679398
77	0xbc97e60f	-0.018542318
78	0x3da7526c	0.081700176
79	0x3dad5177	0.08462804
80	0xbae68f54	-0.0017590323
81	0x3dda7c8c	0.10668287
82	0x3e29c9b6	0.16580853
83	0x3ddc3011	0.107513554
84	0x3d04a815	0.032386858
85	0xbd1fd561	-0.039021853
86	0xbd19ef59	-0.037581775
87	0x3e2aaa52	0.16666535
88	0xbc214cf9	-0.009845012
89	0x3d084e63	0.03327788
90	0xbc15e895	-0.00914969
91	0x3d924c86	0.07143502
92	0x3d9c95b7	0.07645743
93	0xbdc5513c	-0.09634635
94	0xbd4742f6	-0.048647843
95	0xbc6dbb11	-0.014509932
96	0xbd53fcf3	-0.051754903
97	0xbd6bcde6	-0.057569407
98	0x3db3bf0d	0.087766744
99	0xbd1acb8d	-0.037791777
100	0xbe01cd28	-0.12675917
101	0xbdf36d93	-0.11886134
102	0xbdf2330c	-0.11826143
103	0x3d0c777f	0.034293648
104	0x3d8f10bc	0.06985614
105	0xbd86fed3	-0.065915726
106	0xbe00ffcb	-0.12597577
107	0x3cec814e	0.028870251
108	0x3dacc492	0.0843593
109	0x3c79b906	0.015241867
110	0xbe577fb5	-0.2104481
111	0xbe5ea4f7	-0.21742617
112	0xbe076388	-0.13221562
113	0xbd9a7674	-0.075421244
114	0xbbe7401a	-0.007057202
115	0xbe148378	-0.14503276
116	0xbdf6fe3a	-0.120602086
117	0xbd8a0af2	-0.06740369
118	0xbe241c22	-0.16026357
119	0xbdcb80c0	-0.099366665
120	0xbd81aa1a	-0.063312724
121	0xbe643826	-0.22287044
122	0xbdbd43c6	-0.092414424
123	0x3bad51c8	0.00528929
124	0x3dbcd6a8	0.0922063
125	0xbc7577b0	-0.014982149
126	0x3d0edd15	0.03487881
127	0xbd2be5f8	-0.041967362
128	0x3dcf2cdd	0.10115979
129	0xbd79cd11	-0.060986582
130	0x3db98f8f	0.09060585
131	0xbd22065a	-0.03955684
132	0x3dc9883c	0.09840438
133	0x3dd379e9	0.10325987
134	0xbca43e5c	-0.020049267
135	0x3d696418	0.056980222
136	0x3d8779ba	0.066150144
137	0x3dbdde79	0.09270949
138	0x3d80bdd5	0.062862076
139	0x3d3f19b0	0.046655357
140	0x3d80d919	0.06291408
141	0xbc92d401	-0.017923357
142	0x3d69d336	0.057086192
143	0xbd18f7f9	-0.03734586
144	0x3d82f83d	0.06395004
145	0xbb753891	-0.003741775
146	0x3e183b59	0.1486639
147	0xbd39dbb2	-0.045375533
148	0x3ced3f26	0.028960776
149	0xbced73db	-0.028985908
150	0x3d0a00d0	0.03369218
151	0xbdc01d33	-0.09380569
152	0x3d41fecb	0.04736213
153	0x3d800d26	0.06252508
154	0x3c23129a	0.009953165
155	0xbb6adc6d	-0.003583695
156	0x3d3aeaa3	0.045633923
157	0x3de57a2e	0.112049446
158	0xbb8b7ddc	-0.004256947
159	0xbc3547b9	-0.011064463
160	0xbd257e0e	-0.04040342
161	0xbd9f906e	-0.0779122
162	0xbd68673d	-0.05673908
163	0x3d95ec76	0.07320492
164	0x3d1cda0f	0.038293894
165	0xbd4ab32e	-0.049487285
166	0x3d8b753e	0.068094715
167	0x3ca91185	0.020638237
168	0x3da137ac	0.07871947
169	0xbcb4981d	-0.02204519
170	0x3d79ee4c	0.061018273
171	0x3e121db4	0.14269143
172	0xbdb7a7f4	-0.089675814
173	0x3c302e51	0.01075323
174	0x3d40f39e	0.04710733
175	0x3d91ca9f	0.07118725
176	0x3d2970d6	0.041367374
177	0xbbcfb5fb	-0.0063388324
178	0x3cb79537	0.022410018
179	0xbdaa580c	-0.08317575
180	0x3bc01299	0.005861592
181	0x3d792e49	0.060835157
182	0x3dacfcc1	0.084466465
183	0x3d5a9968	0.053368956
184	0xbd0258eb	-0.03182308
185	0xbc5020ef	-0.0127031645
186	0x3cece4d8	0.028917715
187	0xbd5c0655	-0.053716976
188	0xbd92fa81	-0.07176686
189	0x3cc0c606	0.023531925
190	0x3b753382	0.0037414734
191	0x3c97641f	0.018480359
192	0xbd9ef446	-0.07761435
193	0x3d6c130c	0.057635352
194	0xbd9f9e88	-0.07793909
195	0xbd654e6f	-0.055983003
196	0x3da6f9aa	0.081530884
197	0xbd7d0cc0	-0.061779737
198	0x3dc66ca9	0.09688694
199	0x3d049a8c	0.03237395
200	0x3e327332	0.17426756
201	0x3e19bf33	0.15014343
202	0x3e1d52b5	0.15363581
203	0x3dddb81f	0.10826134
204	0x3cf1444a	0.029451508
205	0x3e0f40a6	0.13989505
206	0x3d49ddc8	0.049283773
207	0x3d3589f0	0.044321
208	0x3e43af03	0.1910973
209	0x3dabbc48	0.08385521
210	0xbbebc4c8	-0.007195089
211	0x3c8dc0fb	0.017303934
212	0x3c96f587	0.018427623
213	0x3e056508	0.13026822
214	0x3d61dbe8	0.05514136
215	0x3cda44fc	0.026644222
216	0xbc6cd3de	-0.01445481
217	0x3c2e4c4c	0.010638308
218	0x3d9d3010	0.07675183
219	0x3d565bcd	0.05233364
220	0x3d422d81	0.047406677
221	0x3e3ade0c	0.18248767
222	0xbc645eed	-0.013938648
223	0x3d2b21db	0.041780334
224	0xbc6a2dc3	-0.014293137
225	0xbcfe02cf	-0.031007199
226	0xbd19a286	-0.03750851
227	0xbc4bc17b	-0.012436266
228	0x3d2d6865	0.042335887
229	0xbdd49d83	-0.103816055
230	0xbc9354de	-0.017984804
231	0xbb99bb78	-0.0046915375
232	0x3ce2def7	0.027694209
233	0xbbcc238e	-0.0062298244
234	0xbd63087d	-0.055428017
235	0xbd04ac0b	-0.032390635
236	0xbc0c615e	-0.008568136
237	0x3d4a2b51	0.049357716
238	0x3c3ffd11	0.011718051
239	0x3cbbc2e9	0.022920089
240	0xbdbd139e	-0.09232257
241	0x3b2f5a60	0.0026756749
242	0xbd8ff34f	-0.07028829
243	0xbd970259	-0.07373495
244	0x3baf1061	0.0053425287
245	0x3d008bfc	0.0313835
246	0x3d7eedac	0.06223838
247	0x3cbc87b1	0.023013921
248	0x3d55190c	0.05202584
249	0x3ce1418c	0.027497075
250	0xbceae69f	-0.028674422
251	0x3d8fbee9	0.07018835
252	0xbd51db5c	-0.051234588
253	0x3cbb5052	0.022865448
254	0xbd574d93	-0.052564215
255	0xbd64b82f	-0.055839714

cnn_layers.0.bias f4 [24]
0	0xb928d781	-0.0001610201
1	0xbdb54389	-0.08850772
2	0x3cd78af3	0.026311373
3	0x3ca50208	0.02014257
4	0x3dfbdd4c	0.122980684
5	0x3ccffb82	0.025388483
6	0x3cef4d4d	0.029211665
7	0x3b155220	0.0022784546
8	0xbca26eb0	-0.01982817
9	0xbdb51358	-0.0884158
10	0xb9b9cb61	-0.0003543748
11	0xbc23f63d	-0.010007438
12	0xbd7a7100	-0.06114292
13	0x3d0daa4a	0.03458623
14	0xbc19a261	-0.009377093
15	0xbe0e72eb	-0.13911025
16	0xbde736f0	-0.11289775
17	0xbc1cb7af	-0.009565278
18	0x3ccd6275	0.025071362
19	0x3dd9ab4d	0.10628376
20	0xbc2c93d8	-0.010533296
21	0x3d8f49ba	0.06996484
22	0xbbe2c3ca	-0.0069203125
23	0xbc87d903	-0.016582971

cnn_layers.3.weight f4 [36, 24, 5, 5]
0	0xbc5f8dcb	-0.013644646
1	0xbd4035b3	-0.04692621
2	0xbd519b95	-0.051173765
3	0xbd9b1ab0	-0.075734496
4	0xbcecba17	-0.028897328
5	0xbce914f9	-0.028452383
6	0xbd861135	-0.06546251
7	0xbd90758b	-0.070536695
8	0xbd317b80	-0.04333067
9	0xbd98fe7f	-0.07470416
10	0xbd822c73	-0.06356134
11	0xbd77f0b2	-0.06053228
12	0xbd9e66be	-0.0773444
13	0xbd1c907f	-0.03822374
14	0xbc8955c5	-0.01676453
15	0xbd507b5a	-0.050898887
16	0xbb017ec8	-0.0019759405
17	0xbdb0b76f	-0.08628737
18	0xbc5c6a7c	-0.013453122
19	0xbc363dda	-0.011123145
20	0xbcaec56e	-0.021334376
21	0xbc587d71	-0.013213501
22	0xb8376082	-4.372048e-05
23	0xbcad0479	-0.021120297
24	0x3cc30c31	0.023809524
25	0xbd3c5108	-0.045975715
26	0xbc6befbd	-0.01440042
27	0xbcb230f7	-0.021751864
28	0xbbc56d46	-0.0060249893
29	0x3cd05bd7	0.025434418
30	0xbcd95e93	-0.026534354
31	0x3cab9f35	0.02094994
32	0xbcb1da88	-0.02171065
33	0x3d258b85	0.04041626
34	0xbb2f1d14	-0.0026720213
35	0xbbf6525b	-0.0075171418
36	0x3cf8f5d9	0.030390667
37	0x3d12562d	0.035726715
38	0xbb89c735	-0.0042046555
39	0x3d05710c	0.032578513
40	0x3d061268	0.032732397
41	0xbc7388f9	-0.0148642
42	0x3cc31c29	0.023817139
43	0x3cecbdf2	0.028899167
44	0x3d501287	0.05079892
45	0xbcc21118	-0.023689792
46	0x3cddce9a	0.027076054
47	0x3cf8c417	0.03036694
48	0x3d770ab7	0.060312953
49	0xbc1e5f20	-0.009666234
50	0xbd155231	-0.036455337
51	0xbd8700b6	-0.065919325
52	0xbd9a1be5	-0.07524852
53	0xbdd54182	-0.10412885
54	0xbd9014a0	-0.07035184
55	0xbb1f75d7	-0.0024331713
56	0xbb60b5ed	-0.0034288124
57	0xbe06bb60	-0.13157415
58	0xbe09b65e	-0.13448474
59	0xbdbb79fe	-0.091541275
60	0xbd8df4ad	-0.06931434
61	0x3c2f4b41	0.010699094
62	0xbdd7607b	-0.10516449
63	0xbdf495e5	-0.119426526
64	0xbd6f066d	-0.058355737
65	0xbcc0b4bb	-0.023523679
66	0xbd3b4e48	-0.04572895
67	0xbd4d3703	-0.05010129
68	0xbd7be924	-0.061501637
69	0xbc8bf7d9	-0.017085956
70	0xbc1774fd	-0.009244201
71	0x3ca522a4	0.02015812
72	0xbd972ae3	-0.07381227
73	0xbd883f32	-0.066526785
74	0x3cad311d	0.021141583
75	0x3d07d452	0.03316147
76	0x3dceab0e	0.1009122
77	0x3d02b6df	0.03191268
78	0x3d5e554c	0.054280564
79	0x3cc3edae	0.023917045
80	0x3e0c298b	0.13687722
81	0x3e0873f3	0.13325481
82	0x3ddedf27	0.10882407
83	0x3d88b3c5	0.06674913
84	0x3da14782	0.07874967
85	0x3d28b592	0.041188784
86	0x3d5d5a41	0.05404115
87	0x3cfb435c	0.030671768
88	0x3db79b06	0.08965115
89	0x3bf76d54	0.0075508747
90	0x3cbcba58	0.023038074
91	0x3d992fae	0.07479797
92	0x3d42451d	0.047429193
93	0x3db723f4	0.089424044
94	0x3d9e36e8	0.07725316
95	0xbcb5f974	-0.022213675
96	0xbbfea854	-0.007771531
97	0x3cf0eacc	0.029408835
98	0xbb883d8c	-0.0041577276
99	0x3c0ce9cd	0.008600664
100	0x3ccf3d53	0.025297796
101	0x3d48f8ed	0.04906552
102	0x3d32bd12	0.043637343
103	0x3d9398da	0.072068885
104	0x3d6ac078	0.05731246
105	0x3deb3fd6	0.11486785
106	0x3dba5b2b	0.0909942
107	0x3db4341a	0.08799
108	0x3d61af46	0.055098794
109	0x3d96b06b	0.07357868
110	0x3d8b5bd0	0.06804621
111	0x3d94a2df	0.07257628
112	0x3d4e5de6	0.050382517
113	0x3d8ac00b	0.067749105
114	0x3db02356	0.0860049
115	0x3d326e98	0.0435625
116	0x3d5ae735	0.053443152
117	0x3d854bb1	0.065085776
118	0x3d3407d3	0.043952774
119	0x3d05d14e	0.03267031
120	0x3dd0aed6	0.10189597
121	0x3da08b9d	0.07839129
122	0x3d37584c	0.04476194
123	0x3da0b03c	0.07846114
124	0x3d29c6ec	0.041449472
125	0x3d41245c	0.047153816
126	0x3c7e06ba	0.015504533
127	0xbd0fbd20	-0.035092473
128	0x3d6f9a0a	0.058496512
129	0x3a2d2678	0.00066051586
130	0x3d2632ba	0.04057572
131	0x3d756f71	0.059920732
132	0x3caa9a25	0.020825455
133	0xbc317afb	-0.0108325435
134	0xbcd3f2a9	-0.025872545
135	0x3b59e2d4	0.0033246772
136	0xbb2bc14a	-0.0026207739
137	0xbbc3ca2a	-0.0059750276
138	0x3d473bb3	0.048640918
139	0xbd02e9ed	-0.03196137
140	0x3d4864f5	0.048924405
141	0x3d472596	0.04861983
142	0xbd0a8d4f	-0.03382617
143	0x3bd805ae	0.006592474
144	0x3c912cfb	0.017721644
145	0x3cd24be1	0.025670948
146	0x3d29bff3	0.041442823
147	0x3d3d15cd	0.04616337
148	0x3ca711c8	0.020394221
149	0x3d5d492f	0.05402487
150	0x3b45f559	0.0030206053
151	0xba3cae9b	-0.0007197649
152	0x3d745529	0.059651528
153	0x3d33e796	0.04392203
154	0xbc262ab5	-0.010142018
155	0x3d87e8fc	0.06636235
156	0x3da68f4c	0.081328005
157	0x3d93b6aa	0.07212575
158	0x3d532db1	0.051557247
159	0x3d84021b	0.06445714
160	0x3d92adb6	0.07162039
161	0x3d1c2e0d	0.038129855
162	0x3d87fa81	0.06639577
163	0x3d94dc16	0.072685406
164	0x3d533924	0.051568165
165	0x3d312fc5	0.043258447
166	0x3d0eaec9	0.034834657
167	0x3c307eae	0.01077239
168	0x3d9454ab	0.07242712
169	0x3c4d5f9f	0.012535005
170	0xbbc6d998	-0.0060684197
171	0x3cef2286	0.029191267
172	0x3a98c1d5	0.0011654446
173	0x3cb7bddf	0.022429405
174	0xbb401bdd	-0.0029313483
175	0x3bbd1146	0.0057698814
176	0x3d76d3bf	0.06026053
177	0x3d0babfc	0.034099564
178	0x3d003087	0.03129628
179	0x3dbccd99	0.09218902
180	0xbb877844	-0.00413421
181	0x3ddd63bc	0.108100384
182	0x3d652d1e	0.05595123
183	0x3d028581	0.0318656
184	0x3dfcd1ba	0.1234469
185	0x3d573ece	0.05255013
186	0x3cfdc68b	0.030978462
187	0x3da985ed	0.082774974
188	0x3d03e4f9	0.032200787
189	0x3d5c5978	0.05379626
190	0x3c3fdf06	0.011710888
191	0xbcb61fc0	-0.022231936
192	0x3cdb3bc6	0.0267619
193	0x3d2e043b	0.042484503
194	0x3d5f195f	0.054467555
195	0x3a617e4d	0.0008601889
196	0x3b9bb93d	0.0047523067
197	0x3d001046	0.03126552
198	0x39246d7c	0.00015681045
199	0x3d723c94	0.059139803
200	0x3c5e64ec	0.013573866
201	0x3cb56c54	0.022146381
202	0x3c7b4ee3	0.015338632
203	0xbbffabde	-0.0078024706
204	0x3bc539af	0.0060188393
205	0xbce96747	-0.02849163
206	0xbc858f2c	-0.016303621
207	0xbd8048d4	-0.06263891
208	0xbd5d30af	-0.054001506
209	0x3d04c435	0.03241368
210	0xbc9815b0	-0.018565029
211	0xbdb0d0a4	-0.08633545
212	0x3b241102	0.0025034552
213	0xbd86c745	-0.065809764
214	0xbd50958d	-0.050923873
215	0xbd092cb2	-0.03348989
216	0xbd04006b	-0.03222696
217	0xbc63912e	-0.013889594
218	0xbd533b3e	-0.05157017
219	0xbd11216b	-0.03543226
220	0x3cb5e457	0.022203607
221	0x3c984c2f	0.018591015
222	0x3b8ab18b	0.0042325906
223	0xbcc3f5de	-0.02392095
224	0x3c36d7fa	0.011159891
225	0xbc5f1576	-0.0136159565
226	0xbcdc3233	-0.026879406
227	0x3ce02a24	0.027363844
228	0x3c89dd96	0.016829293
229	0x3bbf2626	0.005833405
230	0x3d1b3c69	0.03789941
231	0x3d135afb	0.035975438
232	0x3bd90dfe	0.0066239825
233	0x3d1a1ba2	0.03762401
234	0x3d263a5b	0.040582996
235	0x3b7fd42a	0.0039036372
236	0x3d62bd7b	0.055356484
237	0x3d38e20a	0.045137443
238	0x3d6a9168	0.057267576
239	0xbcad7113	-0.021172082
240	0x3d2e47ac	0.04254882
241	0x3c795891	0.01521887
242	0x3c169d6f	0.0091928085
243	0x3d28e8ce	0.041237645
244	0x3cc6ad6a	0.024252612
245	0x3d034d70	0.032056272
246	0xbb0ba5c2	-0.0021308516
247	0x3d4e4ffd	0.05036925
248	0xbb37beec	-0.0028037382
249	0xbab46320	-0.0013762452
250	0x3b54a336	0.0032445914
251	0xbc86c4a3	-0.016451186
252	0xbd09e338	-0.03366396
253	0xbd93f7e5	-0.072250165
254	0xbc88d07f	-0.016700981
255	0xbd01755c	-0.031606063

cnn_layers.3.bias f4 [36]
0	0x3d3eca97	0.046579923
1	0xbd79db62	-0.061000235
2	0xbcb4428d	-0.02200439
3	0xbb922869	-0.0044603837
4	0xbe102b83	-0.14079098
5	0x3c4fb996	0.0126785245
6	0x3d85c02d	0.06530795
7	0xbd5cbcaa	-0.05389086
8	0x3dccc7ed	0.0999907
9	0x3c333c0b	0.010939608
10	0x3ca66fd9	0.020317005
11	0xba80edd4	-0.0009836503
12	0x3cfba94d	0.030720377
13	0x3c5440f9	0.012954944
14	0x3d106e8d	0.03526168
15	0xbc3b3f1f	-0.011428623
16	0xbdeb7068	-0.11496049
17	0x3d562906	0.052285217
18	0x3d66ef5f	0.056380626
19	0xbbf8b4bd	-0.007589905
20	0xbc5f2aa6	-0.013621008
21	0xbd8cae4d	-0.06869183
22	0xbc8d03a5	-0.017213652
23	0x3da5e985	0.08101181
24	0xbd7c1c6e	-0.06155055
25	0xbddd08d0	-0.107926965
26	0xbbc963bb	-0.006145922
27	0x3d981d08	0.07427412
28	0xbdb256be	-0.08707951
29	0x3c5b62be	0.013390241
30	0x3b39c9b3	0.0028348982
31	0xbd0380d3	-0.03210528
32	0xbd5ea6cd	-0.054358292
33	0xbc0b3040	-0.00849539
34	0x3d8de7be	0.06928967
35	0xbdd25e59	-0.10271902

cnn_layers.6.weight f4 [48, 36, 5, 5]
0	0x3c3ca27c	0.011513349
1	0xbbac3730	-0.0052556023
2	0x3c19daff	0.009390592
3	0x3c1a0123	0.009399685
4	0xbb86ed9e	-0.0041176816
5	0x3c51326d	0.01276837
6	0x3c4db065	0.012554263
7	0xbbe63ae8	-0.007026065
8	0x3cb3b169	0.021935182
9	0xbcc7b5d9	-0.024378704
10	0x3c837c7e	0.016050573
11	0x3baf2b66	0.0053457497
12	0xbd08ace5	-0.03336801
13	0xbbb72aae	-0.0055898046
14	0x3b4727ae	0.0030388641
15	0xbc8ffb30	-0.01757583
16	0x3caab31d	0.020837361
17	0xbc2dbac7	-0.010603613
18	0x3cd5d12c	0.026100717
19	0xbc0fe02a	-0.008781472
20	0x3ce8dce0	0.028425634
21	0xbcc3d680	-0.023905993
22	0xbbfdd652	-0.0077464962
23	0x3b89da24	0.0042069126
24	0xbd519fbe	-0.051177733
25	0xbbf556d1	-0.007487156
26	0xbc292af8	-0.010325186
27	0xbb414b51	-0.0029494355
28	0xbc899d6e	-0.016798701
29	0x3c657f16	0.01400735
30	0x3c633f1b	0.013870026
31	0x3cab4835	0.020908454
32	0xbc360292	-0.011109011
33	0x3c28af4e	0.010295702
34	0xbd09ebbe	-0.033672087
35	0x3c47adeb	0.012187461
36	0x3c90dbe4	0.017682977
37	0x3d07283d	0.03299736
38	0xbd7f5844	-0.062340036
39	0xbc6203f3	-0.013794887
40	0x3ad1b607	0.0015999683
41	0x3c54d27a	0.012989635
42	0x3cefd73b	0.029277435
43	0xbcee5427	-0.029092861
44	0x3bafdf18	0.005367171
45	0xbc8ec9ac	-0.017430149
46	0x3c0703e9	0.008240678
47	0x3d2cdc35	0.042202193
48	0xbce94173	-0.028473591
49	0xbd14460b	-0.03619961
50	0xbd346d6e	-0.044049673
51	0x3ca23626	0.01980121
52	0xbd3ac8df	-0.04560172
53	0xbd00f8e8	-0.031487375
54	0xbb3fb72d	-0.0029253468
55	0xbd3d673c	-0.04624103
56	0xbd1bd7ae	-0.038047485
57	0xbd964e39	-0.073391385
58	0xbdd2c8dd	-0.10292218
59	0xbd4f5619	-0.05061922
60	0xbb704db8	-0.0036667418
61	0xbcba1c8f	-0.022718696
62	0xbcf10a4b	-0.029423853
63	0xbdbff327	-0.093725495
64	0xbdc08e05	-0.09402088
65	0x3d284c21	0.041088227
66	0x3ca08a9e	0.019597348
67	0x3bb36a9a	0.0054753544
68	0xbc989c61	-0.018629255
69	0xbc4c16f9	-0.012456649
70	0xbc4494b1	-0.011998341
71	0xbc80c11a	-0.015717078
72	0x3b929d08	0.004474286
73	0xbd3a3922	-0.045464642
74	0xbd2ee5f2	-0.04269976
75	0x3caf495d	0.021397287
76	0x3d18fea4	0.03735222
77	0x3d615238	0.05501005
78	0x3d42ba6b	0.047541063
79	0xbc1519e2	-0.009100409
80	0x3dca4d64	0.09878042
81	0x3e0cd5bc	0.13753408
82	0x3dc92911	0.09822286
83	0x3d58bbd5	0.052913506
84	0x3d2a9bef	0.041652616
85	0x3e112bbd	0.14176841
86	0x3de833bd	0.11337993
87	0x3dac3aa0	0.08409619
88	0x3d7905a0	0.06079638
89	0x3c81a562	0.015825931
90	0x3db38f17	0.087675266
91	0x3dfc91cf	0.12332498
92	0x3df39670	0.11893928
93	0x3d5a8fdf	0.053359862
94	0xbd1c03d2	-0.03808958
95	0x3c7369f8	0.014856808
96	0x3c27fd1b	0.010253216
97	0x3cd54b35	0.026036838
98	0xbca4eae0	-0.020131528
99	0xbd225997	-0.03963622
100	0xbcb24afc	-0.021764271
101	0x3bca7e60	0.006179616
102	0xbd097a64	-0.033563986
103	0x3c8d01c4	0.017212756
104	0x3ce08929	0.027409153
105	0xbc99fbfe	-0.018796917
106	0x3c517c35	0.012785961
107	0xbc5ef12d	-0.0136073055
108	0xbc263d24	-0.010146413
109	0xbc9aa3c6	-0.018876921
110	0xbb4ddb11	-0.0031411091
111	0x3c228beb	0.009921054
112	0xbbcf8a8c	-0.0063336547
113	0x3b01b856	0.001979371
114	0xbcb13868	-0.021633342
115	0x3cd047bb	0.025424829
116	0x3c5e5016	0.013568899
117	0xbd2eb058	-0.042648643
118	0xbbf8ab26	-0.007588762
119	0xbce16c52	-0.027517471
120	0x3d05844c	0.03259687
121	0x3aa453b5	0.0012537154
122	0x3c49877f	0.012300371
123	0x3be3292a	0.0069323974
124	0xbd5cdf4a	-0.053923883
125	0x3c1b4fb5	0.009479453
126	0x3c8ec468	0.017427638
127	0xbced27f4	-0.028949715
128	0xbd67c41a	-0.0565835
129	0xbd71fbef	-0.059078153
130	0x3c78bfe5	0.01518247
131	0x3cdc117d	0.026863808
132	0x3cf197b5	0.029491285
133	0x3cb44141	0.022003772
134	0xbd8da5b5	-0.06916372
135	0x3d7922b4	0.06082411
136	0x3e019888	0.12655842
137	0x3daa5c5e	0.08318399
138	0x3c394dd8	0.011310063
139	0xbd95b83f	-0.07310533
140	0x3df368ea	0.11885245
141	0x3dca88ca	0.09889372
142	0x3dbf66b2	0.093457595
143	0x3d1f00b2	0.038819022
144	0xbcae1cef	-0.021254031
145	0x3d1ee742	0.038794763
146	0x3d582773	0.052771997
147	0x3cd9d8db	0.026592663
148	0x3ca72c77	0.020406945
149	0xbdb22b72	-0.08699693
150	0xbd7f1d66	-0.062283896
151	0xbccea64c	-0.02522578
152	0xbbc9be5d	-0.0061567263
153	0xbd0e5038	-0.03474447
154	0xbd9fe7eb	-0.07807907
155	0xbd8dc61f	-0.06922554
156	0xbd2d9072	-0.042374082
157	0xbbd05963	-0.006358312
158	0xbd883792	-0.06651224
159	0xbd5580ff	-0.052124973
160	0x3c597132	0.013271617
161	0xbc02dc89	-0.00798715
162	0x3d211cf3	0.03933425
163	0xbcf97287	-0.030450119
164	0xbc979aa8	-0.018506363
165	0x3d2ea060	0.042633414
166	0x3c647d49	0.013945886
167	0x3d23d6c4	0.03999974
168	0xbb32212b	-0.0027180414
169	0xbc5aabdf	-0.013346641
170	0x3bec8965	0.007218527
171	0x3d167736	0.036734782
172	0x3ba3ddfd	0.0050008283
173	0xbd11dfd3	-0.035613846
174	0xbd3df275	-0.046373803
175	0xbc4aa870	-0.01236926
176	0xbc8e3106	-0.01735736
177	0x3c2859de	0.010275332
178	0x3cbadd3c	0.02281057
179	0x3c2be509	0.010491618
180	0x3c9ac672	0.018893454
181	0xbcb4d76e	-0.022075381
182	0xbd4076e4	-0.046988383
183	0xbccbfd2f	-0.024901
184	0xbc59aea7	-0.013286269
185	0xbc6bd2d2	-0.014393525
186	0xbcc899e8	-0.02448745
187	0xbcacc2ec	-0.02108904
188	0xbb1fb781	-0.0024370851
189	0xbd1b7de2	-0.037961848
190	0x3d942318	0.07233256
191	0x3d79cf3f	0.06098866
192	0x3d3b213c	0.04568599
193	0xbbcc8a5c	-0.0062420797
194	0x39d1b616	0.0003999925
195	0x3d40789d	0.046990026
196	0x3d346eac	0.044050857
197	0x3bc760d6	0.006084542
198	0x3c3fdfdc	0.011711087
199	0xbc392fed	-0.01130293
200	0x3cc1cbf3	0.02365682
201	0xbca866ce	-0.020556834
202	0x3ce982b3	0.028504705
203	0x3c9add2e	0.018904295
204	0x3d63e16e	0.05563491
205	0xbd5d3960	-0.054009795
206	0xbd4dbe54	-0.05023034
207	0xbc840da9	-0.016119795
208	0xbd462752	-0.048377343
209	0x3ba926b0	0.0051620826
210	0xbdff8129	-0.12475807
211	0xbdece8f3	-0.11567869
212	0xbd4b58e8	-0.049645334
213	0xbd89a29f	-0.06720471
214	0xbd00d841	-0.031456236
215	0xbd6e03f2	-0.05810923
216	0xbe0a1ce8	-0.1348759
217	0xbde31915	-0.110887684
218	0xbe2458e5	-0.16049536
219	0xbd982a88	-0.07429987
220	0xbdbd79d0	-0.092517495
221	0xbdd1910e	-0.10232745
222	0xbd67982e	-0.056541614
223	0xbe10c545	-0.14137752
224	0xbdcb6043	-0.0993047
225	0xbc2d7f66	-0.010589456
226	0xbd12c212	-0.03582961
227	0x3bcaf34e	0.006193555
228	0xbd029bc6	-0.03188684
229	0x3be7e735	0.0070771226
230	0x3d39dc45	0.04537608
231	0x3ce4cbbf	0.027929185
232	0x3c8882ae	0.016663875
233	0xbbd3ceea	-0.006463875
234	0xbc15424e	-0.009110047
235	0x3dba7b30	0.091055274
236	0x3d3dd222	0.046342976
237	0x3c4b5f0d	0.012412799
238	0x3cdea69f	0.02717906
239	0xbd433712	-0.04765994
240	0x3d894165	0.06701926
241	0x3de0f7a4	0.10984734
242	0x3d894545	0.06702665
243	0x3cf7bd84	0.030241735
244	0x3bf70614	0.0075385664
245	0x3cc6af62	0.02425355
246	0x3c70fb7b	0.014708395
247	0x3cb28e48	0.02179636
248	0x3d379815	0.04482277
249	0xbd22706c	-0.039657995
250	0xbbb2cb24	-0.005456345
251	0xbc0d253c	-0.008614834
252	0xbd741f04	-0.05959989
253	0xbda628dc	-0.08113262
254	0xbce55074	-0.027992465
255	0xbd0deadf	-0.03464782

cnn_layers.6.bias f4 [48]
0	0x3caf7442	0.02141774
1	0xbce1ad43	-0.027548438
2	0x3c251c68	0.010077573
3	0xba8fbf9c	-0.0010967138
4	0x3cb82325	0.022477696
5	0xbd4d968d	-0.050192405
6	0xbd14700e	-0.036239676
7	0x3d029eaa	0.031889595
8	0x3c5bfc43	0.013426843
9	0x3d87cc5b	0.066307746
10	0xbd060cc9	-0.032727037
11	0x3d00c46a	0.031437315
12	0xbc8afc95	-0.016966144
13	0x3d56c7ec	0.052436754
14	0x3be79f91	0.0070685823
15	0xbc4fc4b1	-0.012681172
16	0x3d1c0dbc	0.038099036
17	0x3c4f0c65	0.012637232
18	0xbcfccfc3	-0.030860787
19	0xbba0ccbd	-0.004907219
20	0x3d00c529	0.031438027
21	0xbc9eb0d4	-0.019371428
22	0x3c893582	0.016749147
23	0xbc0671fc	-0.008205887
24	0x3aeadc8e	0.0017918514
25	0x38d2a0b3	0.00010043513
26	0x3d97367f	0.07383441
27	0xbd565d03	-0.052334797
28	0xbbc22152	-0.0059243822
29	0xbcea4cc5	-0.02860106
30	0x3da5d095	0.080964245
31	0x3d205de3	0.039152037
32	0x3d7e76f1	0.06212515
33	0x3c92db3b	0.017926803
34	0x3d9a13f6	0.075233385
35	0x3ba5250c	0.0050398167
36	0xbd0dcd64	-0.034619704
37	0x3c09b82b	0.0084057255
38	0xbba52ce8	-0.0050407536
39	0x3cb9077c	0.022586577
40	0xbaac92bd	-0.001316629
41	0x3caf1edd	0.021377021
42	0xbd800354	-0.06250635
43	0xbc7ff9a3	-0.015623483
44	0xbd2a68a2	-0.041603692
45	0x3d2f29ac	0.04276435
46	0x3d903bf4	0.07042685
47	0x3cd2756a	0.025690753

linear_layers.0.weight f4 [25, 6912]
0	0xbca528cc	-0.020161055
1	0xbc1124e5	-0.008858894
2	0x3baf1911	0.0053435643
3	0xbbc13caa	-0.0058971243
4	0xbc4d6515	-0.012536307
5	0x3c11cf06	0.008899456
6	0xbbb33744	-0.0054692347
7	0x3c01cff4	0.007923115
8	0xba0e2ccc	-0.00054235454
9	0xbbbc4c29	-0.0057463837
10	0xbb9b9ad6	-0.0047486825
11	0x3c91708b	0.01775386
12	0xbd4c45e2	-0.049871333
13	0xbca3a029	-0.019973831
14	0xbcaffa71	-0.021481724
15	0xbca4e3db	-0.020128181
16	0xbb56d6e8	-0.0032781903
17	0xbc55d574	-0.0130513795
18	0x3b802ffc	0.00391197
19	0x3c8b9509	0.017038839
20	0x3c08d614	0.008351821
21	0x3babad15	0.005239139
22	0x3bbf98ff	0.005847096
23	0x3ccceb8d	0.025014663
24	0xbd1adff7	-0.037811246
25	0xbcf3fd2c	-0.029783808
26	0xbd05a24e	-0.03262549
27	0xbd0131c5	-0.031541605
28	0xbbd2f19a	-0.0064374926
29	0xbc3fbcc5	-0.011702721
30	0x3bb46f7c	0.005506454
31	0x3cb06610	0.021533042
32	0x3c4b4285	0.012405996
33	0xbbe20749	-0.006897841
34	0x3c90dba1	0.017682852
35	0x3ce4767f	0.027888535
36	0x3c08e80c	0.008356106
37	0xbc3deb48	-0.01159174
38	0xbcfaa1b4	-0.030594684
39	0xbc409616	-0.011754533
40	0x3c3104ae	0.010804338
41	0xbc437c23	-0.011931452
42	0xbbc9f2be	-0.0061629703
43	0x3aba6baa	0.001422276
44	0x3bed52e8	0.007242549
45	0x3c6527e8	0.013986565
46	0x3c368a58	0.011141382
47	0x38b679d5	8.701129e-05
48	0x3c730060	0.014831632
49	0x39c8f7d4	0.0003833162
50	0x3d4f9e4e	0.05068808
51	0x3d0c9297	0.034319486
52	0x3c554ab2	0.013018297
53	0x3bf6b2fd	0.0075286613
54	0xbb53999a	-0.0032287599
55	0xbc181d18	-0.00928428
56	0x3c01c5da	0.007920707
57	0xbbd926ed	-0.006626955
58	0xbbef9aad	-0.00731214
59	0xbc063dac	-0.008193415
60	0x394eaea2	0.00019710747
61	0x3bee01ce	0.0072633987
62	0x3d8489e6	0.064716145
63	0x3da020d4	0.078187615
64	0x3ca94bce	0.02066603
65	0x3cfeb1aa	0.031090576
66	0x3ca57e05	0.020201692
67	0x3c00e927	0.007868088
68	0x3b67edbe	0.0035389508
69	0x3caae8e7	0.02086301
70	0x3cd693d0	0.02619353
71	0xbb90043f	-0.0043950374
72	0xbbfda999	-0.007741165
73	0xbc32bde4	-0.010909531
74	0x3d4791e3	0.048723113
75	0x3d981b7a	0.07427116
76	0x3d4b3d6e	0.04961913
77	0x3cd6b15b	0.026207617
78	0x3ce2a8f4	0.027668454
79	0xbc035d8e	-0.008017911
80	0xbcbca5b0	-0.023028225
81	0xbc5f61f6	-0.013634196
82	0x3c53ba03	0.012922767
83	0xbba20532	-0.004944467
84	0xbc2f41d9	-0.010696852
85	0x3c761d25	0.015021597
86	0x3d629fdc	0.055328235
87	0x3d8ca5c6	0.06867556
88	0x3d3a888f	0.04554039
89	0xbb319d8f	-0.002710197
90	0xbc161552	-0.009160357
91	0x3bfefa9b	0.0077813393
92	0xbcd7c5c8	-0.026339427
93	0xbcc00c2c	-0.023443304
94	0x3c83c316	0.016084235
95	0x3b0cd87b	0.0021491337
96	0xba216a51	-0.0006157505
97	0xbb29791a	-0.0025859536
98	0x3c4140a4	0.011795197
99	0x3d0d3186	0.034471057
100	0x397fa4f0	0.00024380139
101	0xbce71179	-0.028206574
102	0xbc2b6372	-0.010460721
103	0xbce45154	-0.027870812
104	0xbbe3ce97	-0.0069521177
105	0x3a3783d5	0.00070005405
106	0x3c0660e0	0.008201808
107	0x3a06f3da	0.0005148031
108	0x3c92b9ec	0.01791092
109	0xbb60794f	-0.0034251993
110	0xbaca5b4c	-0.0015438586
111	0x3d06402e	0.03277605
112	0x3a44b006	0.0007503036
113	0x3bae19a6	0.005313116
114	0x3c0b4515	0.008500357
115	0xbb8e7609	-0.004347567
116	0xbbb95c1d	-0.0056567327
117	0x3bc4ccf9	0.00600588
118	0x3b5ee4fa	0.0034010992
119	0xba1a08b2	-0.00058759295
120	0x3c6c2580	0.014413238
121	0x3cd30a73	0.025761819
122	0x3ccc14c2	0.024912242
123	0x3d09ff6a	0.033690847
124	0xbd072df3	-0.033002805
125	0x3cd33d76	0.025786143
126	0x3bce4a76	0.0062954975
127	0x3c79a99e	0.015238194
128	0xbce8f86d	-0.028438771
129	0xbcd66d64	-0.026175208
130	0x3c21143d	0.009831485
131	0x3d0d23cf	0.034457978
132	0x3dad3ca7	0.08458834
133	0x3caa2b9e	0.020772751
134	0x3d21e3d6	0.039523922
135	0x3dbc0591	0.09180749
136	0xbd8347fc	-0.06410214
137	0xbc21efa0	-0.009883791
138	0x398394e5	0.00025097202
139	0x3d349d0b	0.04409508
140	0x3ce266e2	0.027636949
141	0x3d438448	0.047733575
142	0x3d749775	0.059714753
143	0x3c1285d3	0.008943039
144	0xbc211b2d	-0.009833139
145	0x3becca5b	0.007226271
146	0x3c66407f	0.014053463
147	0x3c19d5e4	0.009389374
148	0xbb105a5c	-0.0022026515
149	0xbd0b4c07	-0.034008052
150	0xbd124ee7	-0.03571978
151	0xbd0920a8	-0.03347841
152	0xbbfac6e9	-0.0076531065
153	0xbc51f742	-0.0128152985
154	0x3c7b3262	0.015331836
155	0xbd55c9b2	-0.052194305
156	0x3cce44a6	0.025179219
157	0xbc36c8f5	-0.01115631
158	0xbb433681	-0.0029787126
159	0x3c84af89	0.016196983
160	0x3d0b6b89	0.0340381
161	0xbcdfe6d5	-0.027331749
162	0xbd0131e9	-0.03154174
163	0x3b462d73	0.0030239492
164	0xbb94bacd	-0.00453887
165	0x3c539e94	0.012916226
166	0x3cb36885	0.021900425
167	0xbc16afdc	-0.009197202
168	0xbce132eb	-0.0274901
169	0x3a8c9c2a	0.0010727693
170	0xba9cc0d2	-0.001195932
171	0xbcd67b23	-0.026181763
172	0x3d196b97	0.03745612
173	0x3a3b7429	0.0007150793
174	0x3c5c9efb	0.013465638
175	0x3d0201d5	0.03174003
176	0xbd6ddf11	-0.05807406
177	0x3a64f0f3	0.0008733414
178	0x3bda7801	0.0066671376
179	0xbd0dd062	-0.034622557
180	0xbbf7028b	-0.007538145
181	0x3c733d52	0.014846163
182	0xbc9abd5c	-0.018889122
183	0x3ceebbc6	0.029142272
184	0x3aa34b40	0.0012458339
185	0xbbe38a42	-0.006943972
186	0x398661c0	0.000256313
187	0x3cf90bc4	0.030401118
188	0xbcae2037	-0.021255596
189	0x3c0aa705	0.008462672
190	0x3b99c825	0.0046930485
191	0x3d61329f	0.054979917
192	0x3c0ee293	0.008721012
193	0x3c5ae909	0.013361224
194	0x3bc6fe8c	0.006072825
195	0x3acc8282	0.0015602859
196	0x3d0d86d9	0.03455243
197	0xbd2930e8	-0.041306406
198	0xbcfd9856	-0.030956428
199	0x3c844904	0.016148098
200	0xbc90de95	-0.01768426
201	0xba47d925	-0.00076236046
202	0x3cc3d570	0.023905486
203	0x3d6bdb42	0.057582147
204	0xbc7b999b	-0.015356447
205	0x3ce640a2	0.028106991
206	0xbcae16e7	-0.021251155
207	0xbc767e4f	-0.015044763
208	0xbcc7bf06	-0.02438308
209	0xbc946a26	-0.018117022
210	0xbd14fab2	-0.036371894
211	0x3c8199e8	0.015820459
212	0xbbc6d661	-0.0060680364
213	0xbd4b389d	-0.049614538
214	0x3d416b13	0.047221255
215	0x3d9a5f0c	0.0753766
216	0x3a09be05	0.00052544504
217	0xbd8ce38e	-0.0687934
218	0xbd66ee82	-0.056379803
219	0xba57b852	-0.0008229065
220	0xbc84bfe9	-0.016204791
221	0xbd2483f2	-0.040164895
222	0xbc1d5ac4	-0.00960416
223	0xbcafb4c8	-0.021448508
224	0x3d0fda2a	0.035120167
225	0x3c10ea3e	0.00884491
226	0x3d3b064d	0.045660306
227	0x3d844d62	0.06460072
228	0xbc321a66	-0.010870552
229	0xbbbf008e	-0.0058289235
230	0x3c8420b6	0.016128879
231	0x3c0bda60	0.008535951
232	0xba7eb0c6	-0.00097156723
233	0xbcd1213a	-0.025528539
234	0x3ca0e49e	0.019640263
235	0xbd199c8d	-0.037502814
236	0xbc36f368	-0.011166431
237	0xbb2721ea	-0.0025502392
238	0x3c34d8d5	0.011038025
239	0xbd1e58d3	-0.038658928
240	0x3be163a7	0.0068783346
241	0x3c9e971f	0.01935917
242	0x3c7eb651	0.015546397
243	0xbd827af7	-0.0637111
244	0xbd85e4b4	-0.06537762
245	0xbc7a7a86	-0.015288001
246	0xbc1575ed	-0.009122354
247	0x3a36d8d1	0.0006975057
248	0xbd058a78	-0.032602757
249	0x39ef38ae	0.00045627862
250	0xbcb0f342	-0.02160037
251	0xbdbe2dac	-0.09286055
252	0x3cc443d7	0.02395813
253	0xbd191d52	-0.037381478
254	0x3d15cf41	0.036574606
255	0xbd09e656	-0.03366693

linear_layers.0.bias f4 [25]
0	0x3ce66a29	0.028126793
1	0xbae42de1	-0.0017408693
2	0x3bb0e172	0.005397969
3	0xbc83a24e	-0.016068604
4	0x3b9bfe0b	0.004760509
5	0xbb610e4f	-0.0034340804
6	0x3bcfa1b7	0.0063364166
7	0x3cf903ec	0.030397378
8	0xbc18a9c5	-0.00931782
9	0x3ba752c1	0.0051063006
10	0xbc0ee6f9	-0.00872206
11	0xbb22b1cc	-0.0024825213
12	0xbc6a4318	-0.014298223
13	0x3b12e196	0.0022412292
14	0x39ce1070	0.0003930363
15	0x3cab58a2	0.020916287
16	0x3bf6886a	0.007523586
17	0xbc61c52a	-0.013779918
18	0xbbfccb4f	-0.007714666
19	0x3b90321f	0.004400506
20	0xbc0a496b	-0.008440356
21	0xbc1ba5cb	-0.009499977
22	0xbbfe96ad	-0.007769427
23	0xbc0a6bf1	-0.008448587
24	0xba5a2428	-0.0008321428

linear_layers.2.weight f4 [5, 25]
0	0x3e1e26cf	0.15444492
1	0x3e84b383	0.25918207
2	0xbc857af6	-0.016293984
3	0xbe0713f7	-0.1319121
4	0x3dc1296c	0.09431729
5	0xbd665347	-0.056231763
6	0x3e2b0eaf	0.1670482
7	0xbc48e8c1	-0.012262524
8	0xbe2dbc75	-0.16966422
9	0x3e380323	0.17969947
10	0x3e0b6ff4	0.13616925
11	0xbba89c00	-0.00514555
12	0xbd450807	-0.04810336
13	0xbdfb82a7	-0.12280779
14	0xbdc5498d	-0.09633169
15	0x3e3e5421	0.1858678
16	0x3e3caf23	0.18426184
17	0x3d7c8c6d	0.061657358
18	0xbce29e4c	-0.027663372
19	0xbe13aa85	-0.14420517
20	0xbdae5d8d	-0.08513937
21	0xbd68cc33	-0.056835365
22	0xbda502e1	-0.0805719
23	0xbdfed397	-0.12442701
24	0xbbecef9a	-0.007230711
25	0xbe143764	-0.14474255
26	0x3e77d71f	0.24203156
27	0xbe30448b	-0.17213647
28	0xbd0edc37	-0.034877982
29	0xbdcbf575	-0.099589266
30	0xbc6e651a	-0.014550472
31	0xbe4308b5	-0.1904629
32	0x3e2a8978	0.16654003
33	0x3e1186f8	0.14211643
34	0xbd4e1893	-0.050316405
35	0x3c0e1e17	0.008674166
36	0xbe01b298	-0.12665784
37	0x3dd1a640	0.10236788
38	0x3d799340	0.060931444
39	0xbdf3066a	-0.11866458
40	0x3e53d66e	0.20687267
41	0x3e4f196c	0.20224541
42	0xbd27feb3	-0.041014384
43	0xbce6e345	-0.028184542
44	0xbe427ff5	-0.18994124
45	0x3de0945a	0.10965796
46	0x3db39171	0.08767975
47	0x3df61f51	0.12017692
48	0xbda56ee0	-0.08077788
49	0x3d915f2a	0.07098229
50	0x3e18b4d3	0.14912729
51	0x3e8d2d96	0.27573842
52	0xbda9c06f	-0.08288657
53	0xbda8f2a3	-0.08249404
54	0xbdb41e24	-0.08794811
55	0x3e1e2d56	0.15446982
56	0x3df67316	0.1203367
57	0x3e41efc8	0.18939126
58	0xbdcf9f2b	-0.10137781
59	0x3d782860	0.06058538
60	0x3dbfd90e	0.09367572
61	0xbc0f3100	-0.00873971
62	0x3e217a9e	0.15769431
63	0x3e3a8351	0.18214156
64	0x3de60bdd	0.112327315
65	0xbd65ad6b	-0.056073587
66	0x3e3faf5a	0.18719235
67	0x3ccf9683	0.025340324
68	0xbdb3c5e4	-0.08777979
69	0xbe3f98fa	-0.187107
70	0xbda9c0fd	-0.08288763
71	0xbde349c2	-0.110980526
72	0x3d3e73cd	0.046497155
73	0xbe046ad0	-0.1293137
74	0x3e028605	0.12746437
75	0x3e182303	0.14857106
76	0x3e7dad7a	0.24773207
77	0x3ddb32a2	0.10703017
78	0xbe5d3650	-0.2160275
79	0x3caebe67	0.021331025
80	0xbe0cb147	-0.13739501
81	0x3d9461bf	0.07245206
82	0x3d9b5776	0.07585041
83	0xbda86cc8	-0.082238734
84	0xbe0e0d35	-0.13872226
85	0x3d722235	0.059114654
86	0x3dd060da	0.10174723
87	0x3d208da7	0.03919759
88	0xbbb5878d	-0.0055398406
89	0xbe3570f2	-0.17718866
90	0x3dafb7e0	0.08579993
91	0x3e2d26f1	0.16909386
92	0x3ccad1b3	0.024758196
93	0x3e299b0b	0.1656305
94	0xbd332fa0	-0.04374659
95	0x3dd77c03	0.105217
96	0xbe53a63d	-0.20668884
97	0xbc960aef	-0.01831576
98	0xbe2512aa	-0.16120401
99	0x3c858433	0.016298389
100	0xbac59a8a	-0.0015075963
101	0x3e815b58	0.25265002
102	0xbe211128	-0.15729201
103	0xbd046d4c	-0.032330796
104	0x3dfa91d2	0.12234844
105	0xbdae5f92	-0.08514322
106	0xbd323338	-0.043505877
107	0x3dc8e0d9	0.09808511
108	0x3df36af7	0.11885636
109	0xbd012779	-0.031531785
110	0x3e118e9e	0.1421456
111	0xbdcfb036	-0.101410314
112	0x3d50ba87	0.050959136
113	0xbd898f78	-0.067168176
114	0x3db0b77d	0.086287476
115	0x3e2e901f	0.17047165
116	0x3e5bf586	0.21480379
117	0xbd8c5d47	-0.06853729
118	0x3c7631da	0.015026534
119	0xbd3a2b99	-0.045451734
120	0xbd5db5f5	-0.054128606
121	0x3e18d272	0.14924029
122	0xbce0d370	-0.027444571
123	0x3b6bd76e	0.003598656
124	0xbe44a736	-0.19204411

linear_layers.2.bias f4 [5]
0	0xbd90a6af	-0.07063042
1	0xbcf02fb5	-0.029319623
2	0xbe10cb59	-0.14140071
3	0x3dbc36c1	0.09190131
4	0xbc071ca2	-0.008246573
