reinforcement_learning/models_carracing/dqn_agent_HL_1_Ep_299_Reward_662.3021331200374.pt (torch, 957591 bytes, 10 tensors)

cnn_layers.0.weight f4 [24, 1, 5, 5]
00000000: 9d9d 3cbe 95a8 35be 361b 0d3e af89 393e
00000010: e135 8fbe 1119 08bd 7bdf aa3c 9be8 153d
00000020: 7912 f0bd daa8 87be 6ace ea3d 91d4 8c3e
00000030: 1409 94bd 25d5 39be 8b12 dfbd 1d81 db3b
00000040: d8fa f23d ead0 163e 1b7c 5a3e a869 80bd
00000050: e2a9 49bd 36a1 0c3e 58e3 5a3e 834f 313d
00000060: 6964 ccbd cb5a 35be b9bd b23d a031 5cbd
00000070: b435 7ebd 0ee4 323d 7120 543d 899a 143d
00000080: 0206 1a3e ef9b 2a3e c41b ae3c e493 fdbd
00000090: 35ae bb3c fa0f ec3c e079 37bd cb9a 3e3e
000000a0: 7b3c fe3d 619e a8bd 8d3e d9bd 4047 773e
000000b0: 9a02 dc3d 58fa 25bd a5b7 263e 7b64 123d
000000c0: 69db 253e 607f 473d d49e ebbd f22c 2f3c
000000d0: 5216 e73d e2a7 46bd 7171 50be 5bb2 d43d
000000e0: 4f88 5abb 1544 eabd 631f c03d a2f3 2abe
000000f0: 234c 423e 4ad4 18be 6395 063e 9b37 bfbd
00000100: 62fe 32be 5bac 4b3e fb2e 2abe 32de 22be
00000110: c3c3 c8bc 3678 8fbc 2a82 b83d a2c6 493e
00000120: 3f07 883d d29d f23d bce4 2abd 8af6 303d
00000130: 815f 11bd dea5 b9bd 15ce 48be 92e2 053e
00000140: de30 fabd 80c9 4f3e c788 37bb 4a2b 4e3d
00000150: 0059 4b3e b536 c23d 93da 643e 2838 cc3d
00000160: b6b8 28be 1d4c 0abd 60eb 293e da8f 11be
00000170: ec63 303e 98b0 c9bd cd60 f53d 47ac 2a3e
00000180: 4aa0 79bc 4797 5c3d 718c 8a3d 8695 8dbd
00000190: 638e 4e3e bd1d cabc 017a b83c bd89 30be
000001a0: 0806 40bd cc3c 41bc 3a65 4abd 87c9 cd3c
000001b0: 4342 0bbd 778a 88bd babb 873c 3baa 293e
000001c0: 48e1 d9bd d78a 29bd 320a 813c b524 87bd
000001d0: 7444 ba3d 45b1 f2bc a410 fb3d 935d c13d
000001e0: 31a1 543e 7ebd 08be f8f1 323e 637b 1bbd
000001f0: a489 9d3c f4e8 ff3d 630b 243e c1e1 10be
00000200: 3663 c9bd f260 9f3d ab2a 8a3d 2dad 7d3d
00000210: bb08 663d dcfe 003e 6b56 803d 3c73 08be
00000220: 46d7 43be 3d6a 0fbe 5b66 163d 2d80 90b9
00000230: c050 8bbc 5cbc 31be 8a65 ea3c a7c7 153b
00000240: 3871 cdbc 6523 27be 565f 05be bcab a33c
00000250: e5cd 063e f23a a63d 4011 463e fed6 5d3e
00000260: eb17 ea3d aca0 463d 9fa9 8fbc 4651 793d
00000270: 271e 2e3e 442b 15bd f5be 0b3d 59cf 56be
00000280: 6c6b 073d 288c fb3b b430 c5bd bf77 a1bd
00000290: d5e3 1e3c 058b fa3d 2bf6 a9bd d85b 82bd
000002a0: d952 f4bd 2f8f 11be 25d7 2c3e 9c43 fd3c
000002b0: 5987 9cbb 394c 3abe c91f 49be 1b8f 7bbe
000002c0: ce15 69be fba9 4fbe 1a6e 38be d6d4 90bc
000002d0: 6821 bc3c 3d64 5cbe 7310 4ebe b37f 7d3d
000002e0: 674b 26be 99a6 5fbc c483 acbc ea27 133e
000002f0: c00f 5a3e 9fa2 873c 2002 1c3e 1829 4b3e
00000300: 44ca 643d c136 3abd a808 a13d 2192 b7bc
00000310: 1b67 063d 5431 093e 882c 4a3e 6ff8 d63d
00000320: 0531 1fbe c80e cf3d 2ec9 cf3d 7bfb 3e3e
00000330: 1b00 7fbd 53f1 9abd c5f3 a2bd 26c7 d1bc
00000340: 0be9 d93d 5d65 513e 8be9 da3d 0193 04bc
00000350: e38e e83d 2117 113b ae94 85bd 62d5 803d
00000360: a102 0bbe 6f82 473e 3ce4 103d 4a4a ee3d
00000370: 3617 f73d d846 aebd 0db7 313e 1e9e 083d
00000380: eb83 573d 2a1b 17bd d589 c9bd 126d ffbd
00000390: 418d 6ebb 35fd f1bd 4459 6fbc 2020 983d
000003a0: 4c52 35be fbcd 09be 1749 093e 03b5 023e
000003b0: 0439 203e 535a 00be 02db 9abd 1111 2a3e
000003c0: 4772 b63c df4f 673d 3e06 44be 6029 993d
000003d0: 2c83 2c3e a9de e7bd 31fb 823d c3e4 c13c
000003e0: e72e 2f3e 4a41 963b 9059 b4bc 1014 99bb
000003f0: 0ee4 1a3e 0beb 263c 9517 87be 7ecf 20be
-0.184195 -0.1774009 0.13779911 0.18118928 -0.27970794 -0.03322703 0.020858517 0.036598783
-0.117222734 -0.2649601 0.114651516 0.27505925 -0.07228294 -0.18147714 -0.10892209 0.006698741
0.11864251 0.14728132 0.21336405 -0.06270152 -0.04923428 0.13733372 0.21375787 0.04328872
-0.09980089 -0.17710416 0.08727593 -0.053758264 -0.062062934 0.04367452 0.05178875 0.03628019
0.15041354 0.16661046 0.021253474 -0.123817235 0.022910217 0.028816212 -0.044793963 0.18613736
0.124138795 -0.082333334 -0.10607634 0.24148273 0.10742684 -0.04052195 0.16280992 0.035740357
0.1619698 0.04870546 -0.115049034 0.010691868 0.11283554 -0.04849995 -0.20355774 0.10385581
-0.0033345406 -0.11438767 0.093809865 -0.16694501 0.18974356 -0.14924732 0.13142924 -0.09336778
-0.17479852 0.19889967 -0.16619484 -0.15905073 -0.024507409 -0.017513376 0.09009202 0.19704679
0.06642007 0.11846508 -0.041722044 0.043203868 -0.03549147 -0.0906484 -0.19609864 0.13074711
-0.12216352 0.2029171 -0.002800511 0.050334252 0.1985817 0.09483091 0.22349004 0.099716485
-0.16476712 -0.033763994 0.16593695 -0.14215031 0.17225617 -0.09848136 0.11981354 0.16667281
-0.01523597 0.053855207 0.06765068 -0.06913285 0.20171504 -0.024672383 0.022519113 -0.17240043
-0.04688075 -0.01179428 -0.049412943 0.02512051 -0.03399874 -0.06667035 0.016569007 0.16568844
-0.10638672 -0.041392174 0.015751932 -0.06598798 0.09095088 -0.029625544 0.12259033 0.09441676
0.20764615 -0.13353536 0.17475116 -0.037959468 0.019230671 0.12495604 0.16019969 -0.14148618
-0.09833376 0.07782163 0.067464195 0.06193273 0.05616067 0.12597221 0.06266483 -0.13325208
-0.19125089 -0.1400537 0.036718708 -0.0002756132 -0.017006278 -0.1735701 0.02861287 0.0022854598
-0.025078401 -0.16322096 -0.13024649 0.01997935 0.1316448 0.08116712 0.19342518 0.21664044
0.11430343 0.048493072 -0.017536936 0.060868524 0.1700369 -0.036418214 0.034117658 -0.20977534
0.03306143 0.00767662 -0.0962843 -0.07884168 0.009697874 0.12233547 -0.08298906 -0.06365174
-0.119298644 -0.14214776 0.16878946 0.030916028 -0.004776877 -0.18193139 -0.19641031 -0.24566309
-0.22762224 -0.20279686 -0.1801075 -0.017679613 0.022965148 -0.21522613 -0.20123462 0.06188936
-0.16239701 -0.01365056 -0.021058924 0.14370695 0.2129507 0.016557036 0.15235186 0.19839895
0.055856958 -0.045462374 0.07862979 -0.022408547 0.032813173 0.13397723 0.1974355 0.10496604
-0.15546043 0.10110241 0.10145794 0.1865062 -0.06225596 -0.0756556 -0.079566516 -0.025607657
0.106401525 0.20448823 0.10689076 -0.008091689 0.113553785 0.002213903 -0.06522499 0.062906995
-0.13575222 0.1948335 0.03537391 0.11635263 0.12064974 -0.08509606 0.17354985 0.033353917
0.05261604 -0.03689114 -0.098407425 -0.124719754 -0.0036400112 -0.118158735 -0.014608685 0.07428002
-0.17707175 -0.13457482 0.13406788 0.12764363 0.1564675 -0.12534456 -0.07561304 0.16608073
0.022271289 0.056472655 -0.19143006 0.07478595 0.16846913 -0.11321766 0.06395567 0.023668652
0.17107736 0.00458542 -0.022015363 -0.004671581 0.15126058 0.010187875 -0.2638518 -0.15704152

cnn_layers.0.bias f4 [24]
00000000: 13ed 98bc 0a66 b8bd a899 e13d 773c 163e
00000010: 8efa 183c 6125 803e b006 0d3c 3239 613d
00000020: 71e1 36bd 83cb a13d 7cb0 653e 0b7d e1bd
00000030: 0e1c 88bd aeb4 2f3e e7a4 913c 96b2 16bd
00000040: d5bf 7b3c 18da c2bc 2a40 553e 4bcd 793c
00000050: 4c55 abbc d663 da3c a978 a7bc f4fa 8f3c
-0.018667733 -0.090038374 0.11015636 0.14671503 0.009337081 0.25028518 0.008607551 0.054986186
-0.04464859 0.07900145 0.22430605 -0.11010178 -0.06645976 0.17158768 0.017778827 -0.036791407
0.015365561 -0.023785636 0.20825258 0.0152467 -0.020914696 0.026658934 -0.020443277 0.017575718

cnn_layers.3.weight f4 [36, 24, 5, 5]
00000000: bdd0 973d 28c2 f63c 377e 893d 38b1 9d3d
00000010: cfd3 ce3d d9c1 f33a 33c9 d1bd 008c d73c
00000020: f56f ce3d e892 173e 7591 e43a a4b9 1ebe
00000030: 957e d5bc 3b8b f5bc f203 f23c a12b 2abd
00000040: 45e6 55be 699b b1bd 5109 00be d6ed af3d
00000050: 9a2a 3cbd 5f45 dbbd 5182 cabd 1b91 5cbe
00000060: 019e 6f3d 35c3 973d 482b 953b 7207 803c
00000070: e13f 083d 9b4d f73c e7ea 473d c4cb 563d
00000080: 06d9 783d 3428 2d3d d69d 1c3d da9e 793c
00000090: b977 403d 96b2 393d ac38 973c 06cc 913c
000000a0: 9e11 0439 1c19 8e3d badd 163d cf57 813d
000000b0: 2442 a839 823c 863c 5e4f 803d a733 133d
000000c0: c963 093d 7598 f73c 8258 a9bd 29b8 cabd
000000d0: 42f7 aebd 46a6 abbd 9aca 693b 3096 aabd
000000e0: 0e0e 30be 1a66 44be 6645 abbd 0636 d1bd
000000f0: 7d71 c9bd 555d 48be e2c2 98be c803 1dbe
00000100: 6f0a 4dbe ee74 20be 9234 1ebe e448 4dbe
00000110: f4a3 32be e0ef 41bd bf3d f3bd 1ec9 35be
00000120: f11c 8dbe 66f9 33be 6cf0 abbd d2de 023c
00000130: b6b9 4a3d 238c d0bc f9da 1aba ec2d 0e3d
00000140: 7ed1 ae3c e504 a23b 8db4 023c 4502 793d
00000150: 6f6c a1bc 58de 513c 3fde 5ebb 17d8 313d
00000160: 7efb 613d 369e 5a3c 98d8 ccba e28c 393d
00000170: 5c5b b23b 5a74 533d 2cb3 103c 832b e0ba
00000180: 5588 14bd c87f e53c 7aa7 ffbc 64cb 9ebc
00000190: 3e69 92bc cf32 423c eb05 d63b 81af 1a3d
000001a0: 5823 d73c 6cf2 513d 58f1 e13c 7fc8 8b3d
000001b0: 02a5 963d 77df a93d 7776 753c 25cd 4fbc
000001c0: 8607 62bc 869e d63c 60c3 3cbc b89b c2bc
000001d0: 318a f1bc 3c93 2fbc 3806 263d ba21 f2bc
000001e0: 9bae d53c f385 cdbc 9714 9a3c 9c0e a73c
000001f0: 2bc9 94bc 76c0 a6bd 4924 cebd f088 0fbe
00000200: e580 2bbe e8d9 08be b2e5 c9bd e569 d7bd
00000210: eb15 21be 9317 4ebe d14a 4fbe c6ef f5bc
00000220: 1e66 86bd ad24 26be c03e 03be 262c 01be
00000230: d96d a0bd 646c 55bd f8ad f1bd 129b 07bd
00000240: 328d 2bbe 6693 16bd 9e36 c7bc dabe 04be
00000250: 86ec a6bd 8e02 dabd 7986 66bc 464e d4bd
00000260: 1b26 40be 4951 f9bc 0356 733d f2c3 c0bd
00000270: 59a5 2dbe 860c 88be 937b 5bbd 234c 3a3c
00000280: 9077 cdbd e1a9 b4bd 78cb 4dbe 5b7b 27bc
00000290: 405b 713c 4123 a23d 933a 0cbd db06 a53d
000002a0: 3225 ac3d f1fd 043e cef7 8a3c 371e 993c
000002b0: f775 92bd 4cd6 a6bc 6c6f 023e 7a96 b93d
000002c0: 8c7c ba3d 8e32 003e 0dec 283e 8831 473e
000002d0: c2ee ba3d 8869 043d 596a eb3d 1cdc a53d
000002e0: 1d5b 0e3e ed67 b1bd f23a efbd e7a1 81bd
000002f0: 7cf9 d5bd 1707 36bc a8bd b9bd 876e eabd
00000300: 87b1 22be 8c95 8ebe b795 30be 3e47 89bd
00000310: 8014 25be cfe4 7dbe b5fe 4fbe 2a30 02be
00000320: 71c0 92bc 1c91 a43c 0251 223d b151 663d
00000330: 521b 5e3d 3858 063c d52d 6c3d ef83 123d
00000340: 9740 303d 176b 913d a1f9 8cbc a5ac 8b3d
00000350: 3f42 963d f00b 5a3d e600 f23c a02b 5d3d
00000360: ae77 803d 41f9 3f3d fab6 4a3d 89b9 1c3d
00000370: beb5 703b 8ba5 2e3d f05e 973c 30a2 72bb
00000380: 214e 423d 5a06 e239 2d67 80bc 23ea c4bb
00000390: d09d 363c fcf2 25bc 9cb1 debc 1cc0 ae3c
000003a0: cdd6 92bd c482 9c3d 6329 95bd 8e1f 44bd
000003b0: bfb7 b43c 33e2 f1bd b671 463d 2f60 f2bd
000003c0: bf1e 66bc d101 21bd e1a1 a6bd 6923 27bd
000003d0: 7632 23be 1d78 1fbd aa31 78bc 5ad2 1dbd
000003e0: 381d 43bd 159a dfbd 9f7b 443e 735f 9d3d
000003f0: 5361 debc c696 003e 809e ca3d 01d0 b43c
0.074128605 0.030121878 0.06713527 0.076998174 0.10098993 0.00185972 -0.10243454 0.026311874
0.10079948 0.14802134 0.0017438369 -0.15500504 -0.026061336 -0.029973617 0.029542897 -0.041545514
-0.20888622 -0.0867222 -0.12503554 0.085902855 -0.045939066 -0.10706591 -0.09888137 -0.21539728
0.058500294 0.0741028 0.0045522787 0.01562855 0.033264045 0.030188372 0.048808005 0.05244042
0.060753845 0.04227467 0.03823646 0.015235627 0.046989176 0.04533633 0.01845964 0.017797481
0.00012595064 0.06938383 0.03683255 0.06315576 0.00032092736 0.016386274 0.06265138 0.03593793
0.03354243 0.030224064 -0.08268835 -0.09898407 -0.085432544 -0.083813235 0.0035673738 -0.08329427
-0.17192861 -0.19179574 -0.08362846 -0.10215382 -0.09836099 -0.19566853 -0.29836184 -0.15333474
-0.20023511 -0.15669605 -0.15449741 -0.20047337 -0.17445356 -0.047347903 -0.118770115 -0.17752501
-0.27561143 -0.17575607 -0.08395466 0.007987695 0.049493514 -0.025457447 -0.0005907263 0.034711763
0.021340128 0.004944431 0.007977617 0.06079318 -0.019705025 0.012809359 -0.003400698 0.04341897
0.055171482 0.0133433845 -0.0015628515 0.045300372 0.00544302 0.051624633 0.00883178 -0.0017102811
-0.03626283 0.028015032 -0.031207789 -0.019384094 -0.017872449 0.011852934 0.006531467 0.03776503
0.02626197 0.051256582 0.027580902 0.06825351 0.073556915 0.08294576 0.0149818575 -0.012683188
-0.013795739 0.026198637 -0.01152119 -0.023755893 -0.02948484 -0.010716256 0.040533274 -0.029557098
0.026084235 -0.025088286 0.018808646 0.020392708 -0.01816233 -0.08142178 -0.100655146 -0.14017081
-0.16748388 -0.13364375 -0.09858264 -0.10518245 -0.15731017 -0.2012618 -0.20243384 -0.03002156
-0.06562446 -0.16224928 -0.12816906 -0.12614498 -0.07833452 -0.052105322 -0.1180076 -0.03310687
-0.1675308 -0.036761664 -0.024318036 -0.12963429 -0.08150582 -0.106450185 -0.014070147 -0.10366492
-0.18764536 -0.030434268 0.0594082 -0.094123736 -0.16957606 -0.26572055 -0.053584646 0.0113706915
-0.1003257 -0.08821464 -0.20097148 -0.010222281 0.014731228 0.079168804 -0.03423555 0.08057948
0.08405532 0.12987496 0.016963866 0.018691165 -0.07151406 -0.020365857 0.12737817 0.09061904
0.09105787 0.12519285 0.16496296 0.19452488 0.09127571 0.032327205 0.114948936 0.08098623
0.13901944 -0.086624004 -0.11681165 -0.063297085 -0.10447976 -0.011110089 -0.09069377 -0.11446863
-0.15888034 -0.2784847 -0.17244612 -0.067030415 -0.16121101 -0.24794315 -0.20312007 -0.12713686
-0.017914029 0.020088725 0.039628036 0.05623025 0.054225273 0.008199744 0.057660896 0.035770353
0.043030348 0.07100504 -0.017208876 0.06820039 0.07336854 0.05323404 0.029541444 0.053996682
0.06272827 0.046868566 0.049490906 0.038262878 0.003672942 0.042638343 0.018477887 -0.003702294
0.04743779 0.0004311081 -0.015674198 -0.0060093566 0.011146024 -0.010128733 -0.0271843 0.02133184
-0.07169876 0.07642129 -0.072832845 -0.047881655 0.022060273 -0.11810722 0.048448287 -0.11834752
-0.014045416 -0.039308373 -0.08136345 -0.040805254 -0.15937218 -0.03893291 -0.01514856 -0.038530685
-0.047635287 -0.10918061 0.19187783 0.07684221 -0.027146017 0.12557516 0.09893513 0.02207184

cnn_layers.3.bias f4 [36]
00000000: 4a2a aebd 0fbe febb fd8b 583d ed5f 51bd
00000010: ab8d 16bd 7ec7 343c c254 8d3c 8c37 bebd
00000020: 34a1 99bd 0040 ae3d 2677 0d3c 0e64 c2bd
00000030: e5c4 9f3d bf3c 583c 3a1e ed3c a872 06bd
00000040: ac14 97bd 08a0 ddbd 2428 7bbc ef02 7fbd
00000050: a861 ae3d 3857 51bd 2899 57ba 8dd2 653c
00000060: c29d 5cbd 85c1 4abd e8d0 533b 48f7 893d
00000070: b343 d2ba fe04 5fbd 5bc1 f1bc 78d8 bebd
00000080: 7d95 03bb cb6b 16bd 7d5d a13c c1c3 78bb
-0.0850416 -0.0077741216 0.05286788 -0.051116873 -0.0367562 0.011033891 0.01725233 -0.092879385
-0.0750145 0.08508301 0.008634364 -0.0949174 0.078012265 0.013198077 0.028945077 -0.03282419
-0.0737699 -0.10821539 -0.0153293945 -0.062258657 0.0851472 -0.05110857 -0.0008224421 0.01402725
-0.053861387 -0.04950096 0.0032320563 0.06736618 -0.0016041904 -0.05444812 -0.029511144 -0.09318632
-0.0020078116 -0.036723893 0.019697899 -0.0037958475

cnn_layers.6.weight f4 [48, 36, 5, 5]
00000000: 316d 243d 5df0 23ba d654 e53b 426f af3c
00000010: b49e 11bd 0383 ecbc 2194 5e3d ebcc 443c
00000020: 1a95 d3bc 1c35 a9bb 26fb c3bc 0d91 923c
00000030: dc17 eb3c d2c8 b2bc e34a 8ebd c571 f0bc
00000040: 6a9e 02bb 2e93 cbba 09aa c7bc 4217 3dbc
00000050: 4742 87bd 66be a23c 6d74 5a3d 418d 253d
00000060: 2b8c 8cbc 777a 8c3c 199b 553d 2855 523c
00000070: 085f b7bc 944f 153d 392c 973d 5729 c33d
00000080: 8134 413d c06f acbd aeeb 82bd f054 783d
00000090: 723b 043d 6872 473d 6005 18bd d9f9 17be
000000a0: 1888 75bd 8a56 8abc 2400 edbb c023 f2bc
000000b0: 74b6 46bc 0994 27bd 66e2 30bd a4ad df3c
000000c0: ac02 963c b93c bfbc 7f21 8c3d c236 ad3d
000000d0: bbd3 c23c b8b4 7f3d 3512 13bd e018 863d
000000e0: bb1e 4a3c 5dd5 be3c 29c5 9bb8 7537 f8bd
000000f0: 9189 303c a250 44bd 42a7 0d3d f948 063d
00000100: 1f89 1fbc 9443 8dbd ade7 cbbd 79ca bf3b
00000110: 0c1e d53d fd47 823d 9771 043d b62c 653c
00000120: a4c1 21bd 814f 653d ebab d13d 1bbb e1bc
00000130: 46d6 71bc df22 173d c77f ee3c f84c 6f3c
00000140: ce84 21bd e700 043b 4148 8a3b 80e9 14bd
00000150: b388 6ebd 8397 04bd cf24 4a3d 1895 583d
00000160: de7a bbba 81b9 0ebd 5e66 4fbd 026e 6ebd
00000170: 0cdb a5bc 871f 0f3d 118f a83a 1666 ccbc
00000180: 1161 59bb 0a95 383d 5ce5 ec3c 2115 5b3c
00000190: 11f6 0c3d d2ec 3c3d 7399 123d d975 d7bc
000001a0: 3229 463c 3dd1 293c 3e67 533d f934 453c
000001b0: 0798 cbbc a30b 58bd 51cd 5ebb a0bb bd3c
000001c0: c298 463d 74b4 2f3c 19b2 2dbd d111 bbbd
000001d0: 33a5 a8bb f588 42bc 5098 eb3c f13a 70bc
000001e0: ad71 3dbd 4ba5 82bd d9a8 0c3d 3183 ca3c
000001f0: 404a 9c3c e972 5c3b 032f 8fbb 28a8 a73c
00000200: 1013 55bc 59bd abbb 1b4c d03b ff4e 7e3d
00000210: f524 ee3c 39a9 16bd 9f7c 1ebd fb36 5ebb
00000220: 6457 4b3d 777c 533d 5db2 d5ba 57b9 cebd
00000230: 25cc e7bc bedc 29bd 18b1 3abc e444 213c
00000240: 4273 45bd b732 a3bc 3a83 8b3c 6560 313d
00000250: 907c 2c3c 7625 bb3c 71d1 553c e53d 553d
00000260: 55e0 123d b43b 49bc ac4f 273d 4936 50bc
00000270: 8bc0 513c fb26 7c3d 8b10 75bd d3ae 92bd
00000280: bfa4 7bbc 83db 633d d88f b63d 20ba 053d
00000290: e0c3 5fbd c0a9 50bd 33f8 0bbd 6dd1 c13b
000002a0: 053b 143d 388a 493c 7322 0abd d873 54bd
000002b0: 740a 5a3c ab5c f93c abd6 363d fe6e 593a
000002c0: c176 fd3c b4ed e9bb 1c5e 933c 515f 823c
000002d0: 07b6 053d 052f 383d 5147 aabc 14c3 12bb
000002e0: 5026 6cbc 0ee1 36bc 5e05 883b 0f6d ec3c
000002f0: 77cf d5bc a705 aabd 1679 9cbb 1365 d43b
00000300: 31d8 123d b509 8d3c eeb1 9dbd 90ff 15bd
00000310: 4e61 fdbc 4da9 f33c 9c9c f63b 2dbb dcbc
00000320: 32dd a23c 0d75 4dbc d700 a33c 8abf f03c
00000330: b9fd 60bc 7812 853b bc84 553d a296 353d
00000340: 3823 c6bc 4473 eabb d709 e9bb d9da 533d
00000350: 4441 663c 76ed a6bc 1cc8 8dbd a0a0 3fbd
00000360: cf5d 10bd 660a 923c de08 04bd 2903 82bd
00000370: dbfb 50bd 7cc8 20bd 7d61 4a3d 1574 1f3d
00000380: db11 e63c 4a05 c53c 9762 ac3c e505 b23c
00000390: d2bb 2f3d c736 053d 88ae 0f3d 5435 5dbb
000003a0: 210e 163d 208a 38bb 466d abbd 6951 1c3c
000003b0: 4da8 7bbc ce71 57ba cfbe df3c afc5 ac3c
000003c0: f813 78bc c475 dbbd 57b0 51bb 93d1 e73c
000003d0: 1921 193c 9e50 9ebc a0fd 7dbd 3bad debc
000003e0: 065d 93bc c0c4 103d fa43 d038 b8cb 493d
000003f0: 4322 ec3c de79 f1bb d6ac b73c f579 c73c
0.040143196 -0.00062537735 0.0069986386 0.021415357 -0.03555174 -0.028871065 0.054340485 0.012011747
-0.025827933 -0.005163802 -0.023923468 0.017891431 0.0286979 -0.021824274 -0.06947877 -0.029351125
-0.0019930848 -0.0015531534 -0.024373071 -0.01154119 -0.06604438 0.01986618 0.05333369 0.040417913
-0.017156681 0.01714824 0.052149866 0.012837686 -0.022384182 0.036452845 0.07381482 0.09529369
0.047169212 -0.08419752 -0.063926086 0.060627878 0.032283254 0.04869309 -0.0371145 -0.14841403
-0.059944242 -0.016886968 -0.007232683 -0.029558063 -0.012128461 -0.04091266 -0.04318466 0.027304478
0.01831182 -0.023344385 0.068423264 0.0845771 0.023782602 0.062428206 -0.035906035 0.06547713
0.012336428 0.023295099 -7.4277e-05 -0.121199526 0.010774986 -0.04792846 0.034583338 0.032784436
-0.009737282 -0.06897655 -0.09956298 0.005852994 0.104061216 0.06361387 0.03233489 0.013987711
-0.03949131 0.055984024 0.10237869 -0.02755504 -0.014760559 0.03689849 0.029113663 0.014605753
-0.039433293 0.002014214 0.004220039 -0.036355495 -0.058235835 -0.032371055 0.04935151 0.052876562
-0.0014303585 -0.03484488 -0.050634734 -0.05821038 -0.020246051 0.034942176 0.001286002 -0.024951022
-0.0033169428 0.04506401 0.02891796 0.013371737 0.034414355 0.046124287 0.03579087 -0.026301311
0.012094783 0.010364828 0.05161213 0.012036555 -0.024852766 -0.052745473 -0.003399689 0.023160756
0.048485525 0.010724176 -0.042406175 -0.091342576 -0.0051466464 -0.011873473 0.028759152 -0.01466249
-0.046250988 -0.063791834 0.034340713 0.02472076 0.019078374 0.0033637828 -0.004369618 0.020465925
-0.013005033 -0.005241078 0.0063567287 0.062087055 0.029070357 -0.036782477 -0.038693067 -0.0033907283
0.04964389 0.05163237 -0.0016303767 -0.100939445 -0.028295586 -0.04147028 -0.0113947615 0.009843085
-0.04820562 -0.019921644 0.017030347 0.04330482 0.010527745 0.022845011 0.013050423 0.05206098
0.03585847 -0.012282301 0.040847465 -0.012708255 0.0128022535 0.061560612 -0.05983023 -0.07162251
-0.015359103 0.055629265 0.08914155 0.032648206 -0.05463016 -0.050943136 -0.034172248 0.005914858
0.036189098 0.01230102 -0.03372426 -0.05186829 0.013308156 0.030439695 0.044638317 0.0008294432
0.030940415 -0.007138932 0.01798921 0.015914591 0.032644298 0.044966716 -0.02078596 -0.0022394108
-0.014413431 -0.011162056 0.0041510304 0.028860597 -0.026099904 -0.08301859 -0.0047751768 0.0064817755
0.035850707 0.017216543 -0.07699953 -0.036620677 -0.030930188 0.029743815 0.0075259935 -0.026944721
0.019880865 -0.012540114 0.019897861 0.029388208 -0.013732367 0.0040610395 0.05212854 0.044333108
-0.024186715 -0.007154854 -0.0071117687 0.05172238 0.0140536465 -0.020376902 -0.069229335 -0.046784043
-0.035245713 0.017827224 -0.03223502 -0.06348259 -0.051021438 -0.039253697 0.04940938 0.038929064
0.028084686 0.024050374 0.021043105 0.021731326 0.04290373 0.032522943 0.035078555 -0.003375371
0.036634568 -0.00281585 -0.08370452 0.009540894 -0.01535995 -0.00082185573 0.027312664 0.021090357
-0.01514148 -0.107158214 -0.0031995976 0.028298175 0.00934627 -0.01932555 -0.062009454 -0.027182212
-0.017988693 0.035343885 9.9308745e-05 0.049266547 0.028824931 -0.007369264 0.022421282 0.024350146

cnn_layers.6.bias f4 [48]
00000000: 0985 5ebd e507 1c3e 7fa0 58bc c3c8 813d
00000010: f5d2 ac3c 35d7 a93b dbe5 963d 9c52 e8bc
00000020: a6b3 5abc 2bcf 28bc aeaa d3bb dbd1 63bd
00000030: eeba 713d fe24 ecbc 09cc abbc 306e 503d
00000040: 12e1 61bd 19af a2bc 3b6d 72bd e896 9c3c
00000050: 1804 d9bc c94c ab3c c868 723d 246f 013d
00000060: 66aa babc 7655 473d 5357 34bd 397e 09bd
00000070: 8492 003d 9784 b4bc ce7d 02bd 609a 343d
00000080: ddae 1bbd 2733 503d dbd3 e33c d40d 44bd
00000090: 0586 97bc 31f3 35bd bac0 3cbd b0f9 30ba
000000a0: e6fa 27bd 324d 093d dd84 2dbc 0cfa d53c
000000b0: 0ae9 26bd 1210 fcbc 4cd8 e1bb 00d4 29bd
-0.05432609 0.15237387 -0.013221859 0.063371204 0.021096686 0.0051831254 0.0736806 -0.028359704
-0.013348496 -0.010303299 -0.0064595556 -0.055620056 0.05901616 -0.028826233 -0.020971315 0.050886333
-0.055146284 -0.019858884 -0.0591862 0.019114926 -0.02649121 0.020910637 0.05918196 0.031600133
-0.02278633 0.048665486 -0.04402859 -0.03356764 0.03138973 -0.02203588 -0.031858258 0.044092536
-0.03800856 0.050830033 0.027810981 -0.04786475 -0.018496523 -0.04442138 -0.046082236 -0.00067510735
-0.04101076 0.033520885 -0.010590759 0.026120208 -0.040749587 -0.030769382 -0.0068922397 -0.041461945

linear_layers.0.weight f4 [25, 6912]
00000000: c2fb 24bc 0429 8bbb 9629 ebbb f496 3dba
00000010: f305 69bc def3 59bc 591f db3b 623f 113b
00000020: e365 8d3b ec0a 5bbb 8b5e bc3b 846f aa3b
00000030: 67d3 28ba 8ed0 853b a894 77bb 3101 903b
00000040: c4f0 62bb ca0e f03b b42a a43b 8173 f63b
00000050: 89cc 38bc 4111 5e3b 5240 01bc 0d10 46bc
00000060: 2316 52bc 2bf9 39bc 9cbc 30bb 0206 953b
00000070: 27f2 e53b 75aa 1bbc ef53 62bc de6f 9cba
00000080: c972 33bb 1255 ffbb 5499 05bc 31d4 f43b
00000090: 67c9 5fbc a95e 183b 3a7b 3cbc 0c88 0a3b
000000a0: eb61 303c 85a2 dd3b cba4 683b 12a3 42bc
000000b0: 609c 32bc 8a4f 25bc 32e0 33bc 6327 cabb
000000c0: f127 07bb 3c88 79bc e234 8f3b 1a38 65bc
000000d0: fea1 66bc 81f2 843b 5dba 1ebc 1f97 45bc
000000e0: b652 ebbb 4e42 bdba cdcb 243b 998a 053c
000000f0: 1475 4c3b 230b 373b b8a6 72bc d32d 5cbb
00000100: 31a8 4dbb db3d dfbb 8ecb c3bb d906 36bc
00000110: 6365 51bc 0b0c b7ba ff99 b7b9 144f 23bb
00000120: ec73 6b3b 4085 953b 90cd 563b c530 92bb
00000130: 36c4 23bb 0b66 f33b 93a5 843b 77a5 3ebb
00000140: 00a1 7cbb 5bbd aabb ccf2 1dbc fbd3 b63b
00000150: 5361 943a 39d2 403b 3b24 2fb8 679b f33b
00000160: 6ccb 72bc 0006 1abc b956 e33b f03d 31bc
00000170: a3ec db3b 519f 4ebc f0a2 843b b578 123b
00000180: 1309 24bb 6cdf d73b f9dd ec3b 6583 903b
00000190: 7a4b 6bbc 7ab4 f93b 9be0 52bb f8e3 54bc
000001a0: 53ba 0d3c 2608 223b 9d35 b63b 439d 8fbb
000001b0: 23c4 18bb 86c9 2f3b 2b79 3ebc cd72 5a3b
000001c0: a1c8 d0bb 89a4 3fbb 0f0a e33b 4d68 1fbc
000001d0: 9fd8 bdbb 0654 443b 1857 393c 5650 703b
000001e0: 704b e03b 9926 2ebb 352e 7fbc 6a15 e73b
000001f0: 7295 b73a fbf6 e43b 321d 40bc c51e cc3b
00000200: 4fb7 a3bb 06f9 46bb e94e 09bc 9298 56ba
00000210: b5de fbbb 5d1a 7bbc 3f8e 063c 3d06 f6bb
00000220: c471 8c3b 5698 003c be7f a03b daa8 e63b
00000230: ce1b 68bb 31c8 43bc 7786 7cbc d987 4bbc
00000240: d46b ec3b 036d dc3b 7dde 0a3c ecdd 263c
00000250: ca3d cfbb 6564 63bc 2dd2 fe39 58c6 7ebc
00000260: 72ab 593b 86c2 573a cf55 46bb 44d1 22bc
00000270: 815d 323c 2331 05bc 4394 21bb 8088 083c
00000280: 8eac fa3b 6e9d 9b3b 966d e2bb 8bcc fe3b
00000290: 6c0e 46bc 8448 5dbb af48 9cbb 7703 a0bb
000002a0: 3a63 053c 0257 4abc a04c 8f3b 0637 c6ba
000002b0: 0af0 173c 30aa c63b 4cf8 b8b9 f656 6cbc
000002c0: c723 523a e301 033c 1faf 1cba ea46 fcbb
000002d0: 36a3 bb3b bb35 363c 349f 39ba fe5f 4bbc
000002e0: bd95 ebbb 0c84 ab3b 9727 2abc 7c9a 033c
000002f0: e563 24bc 261b 2bbb 7299 1cbc f7fa e43b
00000300: b7f7 293b 078e e6bb 9232 df3b 715f 3dba
00000310: 91f0 1d3c f2d4 903b 1e65 09bb 5ea4 50bc
00000320: 9020 a43a d0fb 24bb 6b1a 323b c3ab 18bc
00000330: 0415 013c d735 2dbb 3eec 4abb dc20 3ebc
00000340: cf16 d13b c22c 54bb 053c df3b 595d 47bc
00000350: 9948 23bb 9f2e 9bbb a256 62bc a748 f1ba
00000360: 6606 373c e65c c5ba 1630 0b3c ab03 e63b
00000370: 1741 8fbb b9de d83b ef3a adbb 1e40 36ba
00000380: a6c0 0fba 1cf0 183c 9df1 743b 3c2d 043b
00000390: 7e93 8dbb 5c0c 3d3b fc66 1c3a 0799 5139
000003a0: 67f1 223c 5b07 8abb d086 783b 53ef 30ba
000003b0: ac76 353c 9a52 1bbc 6d63 db3b 8b11 5cbc
000003c0: ab34 03bc 9c01 f9ba 9f9e 8ebb 9b32 0b3c
000003d0: fb2b 33bc 1ad2 22bb 5e5a 583b 5c61 77bb
000003e0: 6233 41bc 613f d5bb 044b 02bc 7b07 053c
000003f0: 195b 693a de45 fb39 7a4b 14bc f464 13bc
-0.010069789 -0.004246833 -0.0071765883 -0.00072322716 -0.01422261 -0.013302771 0.0066870865 0.0022163023
0.0043151244 -0.0033423258 0.005748575 0.005201282 -0.0006440193 0.0040836995 -0.0037777815 0.0043946733
-0.003462837 0.0073259817 0.0050099734 0.0075210934 -0.011279234 0.0033884796 -0.00788887 -0.012088788
-0.012822661 -0.01135091 -0.0026967889 0.0045478353 0.007017392 -0.009501089 -0.013813957 -0.0011935194
-0.002738165 -0.0077921236 -0.008154232 0.0074715842 -0.013658858 0.0023249781 -0.011503989 0.002113822
0.010765533 0.0067637586 0.0035498615 -0.011879699 -0.0109015405 -0.010089764 -0.010978745 -0.006169246
-0.0020623172 -0.015230235 0.004370318 -0.013990426 -0.014076708 0.004057229 -0.009687987 -0.012059956
-0.007181491 -0.0014439316 0.0025145889 0.00815072 0.0031197714 0.0027930222 -0.014810257 -0.003359665
-0.0031380767 -0.0068127937 -0.0059751933 -0.011110031 -0.01278052 -0.0013965381 -0.00035019216 -0.002491896
0.003592725 0.004563004 0.0032776333 -0.00446138 -0.0024988777 0.007427936 0.0040480583 -0.0029090324
-0.0038548112 -0.005210561 -0.009640407 0.0055794693 0.0011320509 0.0029422177 -4.1756994e-05 0.007434297
-0.014819007 -0.009400845 0.0069378284 -0.01081799 0.006711559 -0.012611226 0.004047744 0.002234978
-0.0025029823 0.0065879133 0.0072286096 0.0044101947 -0.014361257 0.0076203914 -0.0032177332 -0.012993805
0.00865038 0.0024724095 0.0055605904 -0.0043827607 -0.0023310266 0.0026822998 -0.011625568 0.0033332587
-0.006371573 -0.0029242358 0.0069286893 -0.009729457 -0.0057936455 0.0029957308 0.011312269 0.0036668978
0.0068449304 -0.00265733 -0.015574981 0.0070521133 0.001400633 0.00698745 -0.011725711 0.006229254
-0.0049962173 -0.0030360832 -0.00838063 -0.0008186187 -0.007686461 -0.01532611 0.008212625 -0.007508068
0.004286023 0.00784882 0.0048980406 0.0070391716 -0.0035416964 -0.011949585 -0.015412918 -0.012422525
0.0072150026 0.0067268624 0.008475897 0.010184746 -0.0063245045 -0.013878916 0.00048603248 -0.0155502185
0.0033213762 0.00082305854 -0.0030263548 -0.009937588 0.010886551 -0.008129391 -0.0024655021 0.008333325
0.0076499647 0.0047489917 -0.0069100363 0.0077758483 -0.012088399 -0.0033765147 -0.0047694067 -0.0048832255
0.008141333 -0.012349846 0.004373148 -0.00151226 0.009273538 0.0060627684 -0.0003528021 -0.01442503
0.00080161955 0.007996055 -0.0005977023 -0.0076988833 0.0057262434 0.011121209 -0.0007080913 -0.012413023
-0.007189481 0.005234247 -0.0103854155 0.008032437 -0.010033582 -0.002610871 -0.009558069 0.006987925
0.0025935003 -0.007035974 0.0068114484 -0.0007224 0.009639875 0.0044199163 -0.0020964812 -0.012734501
0.0012521911 -0.0025174506 0.002717639 -0.009318295 0.007878546 -0.0026429796 -0.0030963565 -0.011604514
0.006380893 -0.003237531 0.006812575 -0.012168252 -0.0024915098 -0.0047357823 -0.0138146 -0.0018408493
0.011170959 -0.0015057593 0.008495351 0.00701948 -0.004371773 0.0066183475 -0.0052865664 -0.0006952303
-0.0005483724 0.00933459 0.0037375458 0.0020168563 -0.004320561 0.0028846478 0.00059662736 0.000199888
0.00994525 -0.0042123026 0.0037922151 -0.0006749529 0.011075657 -0.009480143 0.006695202 -0.013431917
-0.0080081625 -0.0018997672 -0.004352405 0.008495952 -0.010935779 -0.0024844469 0.0033012847 -0.003774724
-0.011792036 -0.0065077995 -0.007952455 0.008119459 0.0008901819 0.00047926506 -0.009051198 -0.008996237

linear_layers.0.bias f4 [25]
00000000: e7f2 e0bb 14d3 253c 377a a83a 3c76 3abc
00000010: f5f5 e23a b97c 16bc cabd 4cbb a935 dcbb
00000020: 4a69 ba39 dca2 4cbc a643 25bc 6361 c3bb
00000030: 4266 9b3b f0e4 0f3b 1de1 c23c 7c7d 81bb
00000040: 5e84 48b9 ca04 8b3c ea6b 9cbb db15 473c
00000050: 306c 37bc 3b6b 653c d205 483c fb17 2fbc
00000060: 50f6 4abc
-0.0068648937 0.010121126 0.0012853806 -0.011380728 0.0017315733 -0.00918501 -0.0031241053 -0.006720264
0.0003555513 -0.012490001 -0.010086929 -0.005962537 0.0047424147 0.0021956526 0.023788983 -0.0039517265
-0.00019122797 0.016970057 -0.0047736065 0.012151207 -0.0111952275 0.0140026165 0.012208419 -0.01068687
-0.012387827

linear_layers.2.weight f4 [5, 25]
00000000: c0d2 c2b9 36ca 0b3e e461 c93b 7366 6a3b
00000010: c345 bbbd 7693 88bd b579 9cbc 6f1c 2fbe
00000020: 0094 90ba 9825 04be dabe 7dbd c4f8 45be
00000030: e078 a03d b4d3 1cbe 703b 22bd ff7c 1ebe
00000040: b4f1 e2bc be82 7dbe 2007 9d3d 9f37 403e
00000050: 3eb5 d03c 9132 673d 9ad1 3dbe eddb 4cbd
00000060: 9bb1 383e d348 093e 3a62 173d 3189 b7bc
00000070: c30a 0dbe a4f2 893d 4e6d 94bd 13e9 053d
00000080: 82f3 163e 9723 d93d 9ac5 c83b 5fc2 babc
00000090: 726c a3bd 3ba2 2cbd 3200 13be 5cc9 ee3d
000000a0: 7a45 123d d36c 99bd 8253 65be 3312 b13b
000000b0: adf4 0ebd 2767 cdbd 91bc 493e dffe f8bd
000000c0: e3e5 dcbd f2f6 223e 129c 5a3d c2f0 553c
000000d0: 5e4e 21bd 9391 b5bd ac03 21be 8ead 57bd
000000e0: 7de3 253d 9101 edbd 0d89 8bbc 1b75 0d3e
000000f0: d450 54bd ca23 b13d a5e3 7dbc 2c64 f8bd
00000100: 2165 f03d 3a9f 54bd 07aa 2c3e 7184 79be
00000110: bfc0 183e deb4 a93d 0039 a4bc a82b a9bd
00000120: dca2 4cbe cd67 1c3e 136d f23d 6c02 94bc
00000130: ddda 1b3c 2b5d 903d 9479 303d c124 2c3e
00000140: 0e1e 1ebe 40ba c3bd fff3 2dbe 902e 303e
00000150: 7027 edbd ff79 263d 7301 1fbe 8ae7 2bbe
00000160: d6ad 94bd d955 a03d 679b ebbd e4d4 89bd
00000170: ebe7 7fbe 4912 c23d 3aca ee3d 5520 343e
00000180: 024b 3c3d c816 1cbe 54e1 28be 479b 5f3d
00000190: 2e31 24be c9a4 ff3b 5d4c 483e bd83 073e
000001a0: e01d 243e 0012 ecbb 136a 3dbd 1a2e 163d
000001b0: 6026 0fbd 730f 0a3d 1e10 d13d 3391 333b
000001c0: 145f 8ebe 2b73 c53d c7ab ec3d 7221 3c3e
000001d0: 14ba 193d 7233 62be a759 7bbd 675f 94bd
000001e0: 1acf 473c 86b3 c3bc 64be 2cbe 0574 42be
000001f0: ebdf 06be
-0.00037159584 0.13651356 0.0061457027 0.003576663 -0.09144165 -0.06668751 -0.019101003 -0.1710069
-0.0011030436 -0.12904966 -0.06194959 -0.19333178 0.07835555 -0.15315133 -0.039607465 -0.1547737
-0.027703144 -0.24756905 0.076673746 0.18771218 0.025477048 0.05644471 -0.18536988 -0.050014425
0.18036501 0.13406686 0.03695891 -0.022404285 -0.13773637 0.06735733 -0.07247411 0.03269298
0.14741328 0.10602491 0.0061270716 -0.022797761 -0.07979669 -0.042146903 -0.14355543 0.116595
0.03571079 -0.0749146 -0.22395137 0.005403781 -0.03490131 -0.100294404 0.19700839 -0.12157988
-0.10786035 0.15914515 0.053371496 0.013057889 -0.039381377 -0.08865657 -0.15724057 -0.05265575
0.040500153 -0.115725644 -0.017033124 0.13814203 -0.051834896 0.08649404 -0.015496169 -0.12128481
0.11738039 -0.051909663 0.16861735 -0.24366929 0.14917277 0.08286451 -0.020046711 -0.0826028
-0.19984001 0.15273972 0.118372105 -0.018067561 0.00951263 0.070490204 0.043084696 0.16810896
-0.15441152 -0.09557009 -0.16987608 0.17205262 -0.11579788 0.04064369 -0.15527897 -0.16787544
-0.07259719 0.07828874 -0.1150425 -0.06730059 -0.24990813 0.09476144 0.116596654 0.17590459
0.04596997 -0.15243065 -0.16492206 0.054591443 -0.16034386 0.0078016263 0.1956038 0.13233848
0.16027021 -0.007204294 -0.04624374 0.03666506 -0.034948707 0.03370614 0.10208152 0.0027399778
-0.27806914 0.09641107 0.115562014 0.18372133 0.037530974 -0.22089937 -0.061364796 -0.07244759
0.012195373 -0.023889314 -0.16869503 -0.1898957 -0.13171355

linear_layers.2.bias f4 [5]
00000000: 4a4a 493d a64d 1b3d e354 bb3d 6e63 f13d
00000010: 11f2 69be
0.049143113 0.03791585 0.0914705 0.11786543 -0.22846247
