imitation_learning/models/agent_HL_1.pt (torch, 957207 bytes, 10 tensors)

conv1.weight f4 [24, 1, 5, 5]
-0.045940623 0.08269383 0.070561394 -0.10429853 0.08345123 0.03651501 -0.18549262 0.0119058415
0.1403294 -0.081146486 0.08264806 -0.17790183 0.198813 0.1680514 0.018756902 0.06226905
0.04669474 -0.13486516 0.0064239395 -0.15792513 0.06453478 -0.17798682 -0.0781978 0.06494941
-0.040998172 0.19990952 -0.0041152732 -0.19543447 0.1408646 0.08648771 -0.11673965 -0.06036915
0.15481244 -0.0469983 -0.19639952 -0.1440668 -0.13901785 0.1379622 -0.1248867 0.11427714
-0.1002877 0.16663638 0.09997612 0.05769663 -0.12135174 -0.052000403 -0.049010295 -0.092762366
-0.02769313 0.051639978 0.15386544 -0.13112292 -0.016117899 -0.07315504 -0.037778288 -0.054352865
0.1440524 0.0951393 -0.08626512 0.10982421 -0.07032795 0.16895626 0.13847692 0.089186534
-0.07052955 -0.13133654 0.14201458 -0.15310828 -0.12600297 -0.1538026 -0.1763058 -0.16972661
-0.07454551 0.18250369 0.030956322 -0.10978164 0.100207455 0.19219701 0.0697831 -0.05056151
0.06580369 0.15376651 0.14589916 -0.11924443 0.057483632 -0.01829161 -0.00047604862 -0.1769585
0.10953516 0.10077587 0.10891576 0.021431688 -0.115941 -0.032007724 -0.124242134 0.02768222
-0.2219218 0.10630847 0.078691386 -0.07704695 -0.16335075 -0.05756497 0.18766363 -0.0028985236
0.1373099 -0.18188518 -0.20000146 0.17599389 -0.14888856 0.05133161 -0.030467294 -0.20242079
-0.10018248 -0.115413114 0.15033121 -0.04959564 0.07960065 0.03269865 -0.1851769 0.0036190234
-0.0923593 0.040422402 -0.10409865 -0.18573341 0.15379311 -0.13533276 -0.0451234 -0.14653774
-0.13659993 -0.00958204 -0.1421754 -0.14081316 -0.18007676 -0.17504376 0.13243362 0.16941372
0.08910117 0.18822953 0.1631286 0.023428878 -0.11219942 -0.12840016 0.0017616187 0.21819997
0.08810538 0.13067459 -0.035897277 0.10495745 0.20030554 -0.09514103 -0.03714039 -0.053733125
-0.10633693 -0.094731696 -0.14476061 0.17357428 0.0357998 -0.019957963 0.045146715 0.1735893
-0.028919827 -0.06405211 0.048672773 0.0212085 0.15313593 0.09865744 -0.041046474 -0.03195312
-0.18932138 -0.07155972 0.11953181 -0.19554389 0.15167217 -0.05088187 0.007494538 -0.0032991273
0.00390141 -0.0120626995 -0.10089335 -0.098880365 0.042872656 -0.08411204 -0.17425384 -0.14142984
0.012455714 -0.14615619 -0.07765971 0.12060979 0.19753876 -0.15885684 0.06214194 -0.09492725
0.13006146 0.060991116 0.13805129 -0.17239682 0.060428455 0.03514632 -0.061841927 -0.012218226
-0.16756281 0.09443743 0.11926177 -0.01307676 0.15511923 0.010252656 -0.0586133 -0.02069228
-0.08821751 0.13084468 0.032180563 -0.20150828 -0.13534835 0.10593343 0.1350079 0.0633685
0.07595337 0.00068980275 0.099007554 -0.19126867 0.11431831 -0.17251854 0.09305303 0.07447646
0.17035033 -0.13750541 -0.13300078 -0.039326455 0.043532 0.1583825 0.20071618 0.058289852
0.14607763 0.17842409 -0.09907881 0.15706894 -0.12926431 0.10297593 0.115545556 0.1783575
-0.02320011 -0.14392693 -0.18392292 -0.1769273 -0.1438877 0.16740274 -0.02534129 0.058535002
-0.20358068 -0.052775 -0.16339348 -0.16986148 -0.21799713 0.11358734 0.022708997 -0.19069128
00000000: 3c2c 3cbd 625b a93d 7e82 903d 789a d5bd
00000010: 7ae8 aa3d c390 153d c7f1 3dbe b810 433c
00000020: 83b2 0f3e 2130 a6bd 6343 a93d e62b 36be
00000030: a395 4b3e ab15 2c3e 13a8 993c d50d 7f3d
00000040: fc42 3f3d 181a 0abe e97f d23b 20b7 21be
00000050: d02a 843d 2d42 36be 2b26 a0bd 3204 853d
00000060: b3ed 27bd 15b5 4c3e 6ad9 86bb f91f 48be
00000070: cf3e 103e 7820 b13d 3315 efbd a445 77bd
00000080: 2787 1e3e 4a81 40bd f51c 49be 3f86 13be
00000090: b25a 0ebe f745 0d3e 99c4 ffbd 220a ea3d
000000a0: a363 cdbd baa2 2a3e 48c0 cc3d 4d53 6c3d
000000b0: 4387 f8bd 60fe 54bd 05bf 48bd 32fa bdbd
000000c0: b4dc e2bc 7184 533d e78e 1d3e 1645 06be
000000d0: af09 84bc 4fd2 95bd 68bd 1abd 1ca1 5ebd
000000e0: 7982 133e 65d8 c23d c4ab b0bd 84eb e03d
000000f0: 1a08 90bd df02 2d3e e5cc 0d3e 6ea7 b63d
00000100: cc71 90bd 167d 06be 456c 113e 6bc8 1cbe
00000110: ec06 01be 6e7e 1dbe 8289 34be d0cc 2dbe
00000120: 51ab 98bd 3fe2 3a3e 1d98 fd3c 32d5 e0bd
00000130: 9139 cd3d 4bcf 443e 71ea 8e3d 9619 4fbd
00000140: 16c4 863d f874 1d3e 9766 153e 6c36 f4bd
00000150: f573 6b3d 49d8 95bc 2a96 f9b9 9c34 35be
00000160: f853 e03d 9463 ce3d 3a0f df3d 8291 af3c
00000170: 7a72 edbd 881a 03bd a972 febd d3c5 e23c
00000180: 783f 63be 41b8 d93d f328 a13d cbca 9dbd
00000190: 6b45 27be 3fc9 6bbd e52a 403e 28f5 3dbb
000001a0: f79a 0c3e 1c40 3abe 2fcd 4cbe be37 343e
000001b0: 3e76 18be 1841 523d 8c96 f9bc 6547 4fbe
000001c0: 792c cdbd b65d ecbd 6df0 193e cc24 4bbd
000001d0: aa05 a33d 05ef 053d 039f 3dbe 232d 6d3b
000001e0: df26 bdbd f691 253d ac31 d5bd e630 3ebe
000001f0: f17b 1d3e ac94 0abe 50d3 38bd fd0d 16be
00000200: dae0 0bbe fdfd 1cbc 6e96 11be 5331 10be
00000210: 0b66 38be ac3e 33be ae9c 073e ca7a 2d3e
00000220: ad7a b63d 3ebf 403e 2f0b 273e ebed bf3c
00000230: cfc8 e5bd 557b 03be 1de6 e63a d06f 5f3e
00000240: 9870 b43d 8fcf 053e 0609 13bd eef3 d63d
00000250: e51c 4d3e 4dd9 c2bd 8620 18bd 4417 5cbd
00000260: 2dc7 d9bd b102 c2bd 203c 14be 75bd 313e
00000270: d0a2 123d e27e a3bc c3eb 383d 65c1 313e
00000280: 46e9 ecbc c12d 83bd 1a5d 473d 73bd ad3c
00000290: aacf 1c3e e90c ca3d 5920 28bd 46e1 02bd
000002a0: 77dd 41be e78d 92bd 18cd f43d a83c 48be
000002b0: f34f 1b3e 8269 50bd be94 f53b 2c36 58bb
000002c0: ccae 7f3b a1a2 45bc 2ca1 cebd ca81 cabd
000002d0: 3d9b 2f3d ef42 acbd 996f 32be fcd2 10be
000002e0: 0d13 4c3c f8a9 15be 0e0c 9fbd 4402 f73d
000002f0: 9a47 4a3e 5eab 22be 8c88 7e3d 3869 c2bd
00000300: d52e 053e d2d1 793d 515d 0d3e cb88 30be
00000310: d483 773d 96f5 0f3d f64d 7dbd f42e 48bc
00000320: 9695 2bbe 6968 c13d 843f f43d e83f 56bc
00000330: 93d7 1e3e c2fa 273c 8014 70bd db82 a9bc
00000340: 62ab b4bd 26fc 053e c4cf 033d 3058 4ebe
00000350: c298 0abe a0f3 d83d 833f 0a3e 58c7 813d
00000360: 718d 9b3d e1d3 343a 79c4 ca3d efdb 43be
00000370: b81f ea3d b3a8 30be 9692 be3d 1d87 983d
00000380: 5170 2e3e 38ce 0cbe 5b31 08be c714 21bd
00000390: 9c4e 323d 062f 223e 8b88 4d3e 57c1 6e3d
000003a0: 6095 153e ceb4 363e d5e9 cabd aed6 203e
000003b0: dd5d 04be 0be5 d23d 26a3 ec3d 59a3 363e
000003c0: 280e bebc 9561 13be 4a56 3cbe 6e2c 35be
000003d0: 4c57 13be a06b 2b3e 8998 cfbc 66c2 6f3d
000003e0: 7477 50be 992a 58bd 9f50 27be 2bf0 2dbe
000003f0: a43a 5fbe 7ba0 e83d 3808 ba3c 9344 43be

conv1.bias f4 [24]
0.04467914 -0.12739748 -0.06950436 0.11646671 0.1189147 0.19451325 -0.024652865 -0.09403719
0.0036254812 0.0057115387 -0.12652455 0.14972807 -0.016088469 -0.0008214809 0.039856073 0.022153981
0.05622164 -0.04091022 0.11232247 0.0069187433 -0.023811406 0.038671743 0.031658202 0.008698708
00000000: 7901 373d 7c74 02be 4d58 8ebd 1986 ee3d
00000010: 8d89 f33d 7b2e 473e cef4 c9bc 9296 c0bd
00000020: 7b99 6d3b dc27 bb3b a78f 01be 5152 193e
00000030: f7cb 83bc a658 57ba 1f40 233d 447c b53c
00000040: aa48 663d 7a91 27bd 5309 e63d a0b6 e23b
00000050: 2310 c3bc 4366 1e3d 08ac 013d 0785 0e3c

conv2.weight f4 [36, 24, 5, 5]
0.033531353 -0.035192393 -0.008398775 -0.03498215 0.014055763 -0.03801659 0.012495253 0.021711266
0.036515977 0.007811323 0.021224905 -0.021277001 0.02267975 0.010729061 0.0049386392 0.011025737
-0.018274117 0.003909455 0.03550444 0.015487774 0.019666377 -0.015989574 0.037893105 0.039848242
0.0038755792 0.015242018 -0.0033572968 -0.038528427 -0.022632621 -0.00091058546 0.019551054 -0.025814176
0.018082317 -0.021202426 -0.017773984 -0.025785577 -0.036994636 0.03634401 -0.004397456 -0.024817457
0.014494494 0.008579515 -0.038805135 0.021678917 -0.004249322 0.008402737 0.00079620094 -0.024400568
-0.03270289 0.0007161433 -0.033706795 -0.034693904 -0.0067742397 -0.017213255 0.00012898618 0.017734319
-0.04082082 -0.0068737683 -0.0294472 -0.02529282 -0.03647279 -0.035468727 -0.034007534 -0.018148206
-0.011759252 0.0013937122 0.03180406 0.034906458 -0.0326976 -0.032171737 -0.02460109 0.028320197
0.013114781 0.033849433 -0.0121187875 -0.014069392 0.00058701803 0.017890485 -0.039146442 0.0028443348
0.029205432 -0.013253796 -0.0008749399 -0.041753914 -0.00081102375 0.011228346 0.032390583 0.020502944
0.027447322 0.024739869 -0.0106938975 0.01023779 -0.017078932 0.0040504304 0.010830061 0.003814327
-0.0024305815 0.003000722 -0.01984299 0.03375057 0.007560816 0.004014135 0.02784558 -0.02448684
-0.009527478 -0.005087919 -0.032842163 0.04054459 0.032044854 -0.01258765 0.03466983 0.02249154
0.024366736 -0.011517738 0.030089773 -0.033082787 0.01844675 0.009172602 -0.01879247 0.017988602
0.008275394 -0.0061883326 0.0177699 -0.022372702 0.015917055 -0.0033718538 0.015488627 0.0059511755
-0.025251262 -0.017773649 0.031465825 -0.034431607 -0.03236541 0.02025565 0.022377765 -0.012414814
-0.020864448 -0.03210295 0.024342045 0.010347386 0.024066366 -0.006555232 0.039746255 0.011172021
-0.009316741 0.024560343 -0.012427684 -0.0036277683 -0.02094185 0.01055472 -0.01606869 0.035396848
-0.020880012 -0.03804421 -0.0041011027 0.009022746 0.038532756 -0.022142092 -0.004942535 -0.035016507
-0.031781573 0.00038659023 -0.01874172 0.015106626 0.029349342 0.01084598 -0.025395101 -0.021704502
0.020174026 -0.03925697 0.033015575 -0.013529791 -0.026076678 0.025737964 -0.036199007 0.025913034
0.021886794 0.03703374 -0.012433126 -0.036329746 0.033449363 -0.011288336 -0.00016284791 -0.016924176
0.004662177 0.008295382 -0.01797463 0.03896927 0.018451344 -0.03554783 -0.039601922 -0.019419597
0.029813118 0.018736186 0.026127197 -0.002228152 0.005016154 -0.037244245 -0.020588938 -0.004452895
-0.041865453 0.027166853 -0.0037483035 0.022020042 -0.04244966 -0.022805322 -0.024457855 0.014242548
-0.027603704 -0.01897461 0.03145221 -0.016734846 0.010103118 -0.041507583 0.028427266 0.015648853
0.028548578 -0.0071587507 0.026563672 0.0072718654 -0.019231781 -0.033236306 0.022084737 -0.017500943
-0.022643557 -0.04114971 -0.0055049025 -0.005339041 -0.00516063 -0.023510326 -0.017937435 -0.036383882
-0.03215635 -0.028782772 -0.0105335815 -0.008983707 -0.01876378 -0.033703208 -0.0082415575 0.03337083
0.033435784 -0.016915545 0.036912784 0.026911028 0.01796608 -0.012990687 0.004119251 -0.039548468
0.03429698 -0.020127414 0.006882626 -0.008865945 0.019905025 -0.023713518 -0.031593204 0.017275248
00000000: 2c58 093d e625 10bd 049b 09bc 7149 0fbd
00000010: 254a 663c 49b7 1bbd e4b8 4c3c d3db b13c
00000020: c791 153d 20f6 ff3b dadf ad3c 1b4d aebc
00000030: e2ca b93c f2c8 2f3c 4fd4 a13b 4ba5 343c
00000040: 9ab3 95bc e31a 803b 1b6d 113d 6fc0 7d3c
00000050: 621b a13c 91fc 82bc cd35 1b3d e937 233d
00000060: 6efd 7d3b a8b9 793c 1806 5cbb fccf 1dbd
00000070: 0c68 b9bc 5bb4 6eba 8829 a03c 4078 d3bc
00000080: 5e21 943c b6b0 adbc bf9a 91bc 463c d3bc
00000090: b087 17bd 75dd 143d 8918 90bb fb4d cbbc
000000a0: 507a 6d3c 1891 0c3c 22f2 1ebd fc97 b13c
000000b0: e63d 8bbb a2ab 093c 24b8 503a b3e3 c7bc
000000c0: 77f3 05bd 90bb 3b3a 2310 0abd 321b 0ebd
000000d0: 71fa ddbb d002 8dbc 7740 0739 9047 913c
000000e0: bb33 27bd 593d e1bb 413b f1bc e332 cfbc
000000f0: 7e64 15bd a847 11bd 7c4b 0bbd 8cab 94bc
00000100: e1a9 40bc 39ad b63a f944 023d 13fa 0e3d
00000110: ebed 05bd 83c6 03bd 3a88 c9bc c2ff e73c
00000120: 61df 563c b4a5 0a3d e18d 46bc 4f83 66bc
00000130: 1de2 193a 118f 923c 0558 20bd 0568 3a3b
00000140: 3b40 ef3c 7326 59bc 395c 65ba 2706 2bbd
00000150: e29a 54ba 19f7 373c fdab 043d caf5 a73c
00000160: 35d9 e03c 44ab ca3c 7535 2fbc 67bc 273c
00000170: 1ee9 8bbc 79b9 843b 9170 313c caf9 793b
00000180: 644a 1fbb c3a7 443b c48d a2bc 0a3e 0a3d
00000190: b9c0 f73b 0189 833b 6a1c e43c a098 c8bc
000001a0: 2419 1cbc 8fb8 a6bb 8185 06bd 1612 263d
000001b0: 7741 033d 6e3c 4ebc f401 0e3d 2e40 b83c
000001c0: c09c c73c e5b4 3cbc d47e f63c d181 07bd
000001d0: a31d 973c ae48 163c abf2 99bc d55c 933c
000001e0: 8595 073c 7fc7 cabb 2e92 913c f546 b7bc
000001f0: 7c64 823c 52fa 5cbb 03c4 7d3c 1402 c33b
00000200: bcdb cebc 0b9a 91bc 4fe2 003d 2808 0dbd
00000210: 9891 04bd 2def a53c 9351 b73c 8167 4bbc
00000220: ebeb aabc 627e 03bd f868 c73c 1588 293c
00000230: d426 c53c 46cd d6bb f8cc 223d da0a 373c
00000240: 3ea5 18bc c632 c93c 7c9d 4bbc dabf 6dbb
00000250: 3e8e abbc b4ed 2c3c 7ca2 83bc 49fc 103d
00000260: 8f0c abbc 3fd4 1bbd 8b62 86bb 24d4 133c
00000270: 86d4 1d3d 5563 b5bc fdf4 a1bb 786d 0fbd
00000280: 652d 02bd 43af ca39 3c88 99bc c881 773c
00000290: 086e f03c 56b3 313c 6309 d0bc a4cd b1bc
000002a0: 0044 a53c ebcb 20bd 573b 073d 0eac 5dbc
000002b0: c29e d5bc 6cd8 d23c 6945 14bd 9247 d43c
000002c0: ef4b b33c b1b0 173d 4fb4 4bbc 80ce 14bd
000002d0: 3302 093d b6f2 38bc 27c2 2ab9 92a4 8abc
000002e0: 2dc5 983b 5be9 073c 883f 93bc 3e9e 1f3d
000002f0: 4627 973c 9a9a 11bd a035 22bd d915 9fbc
00000300: a43a f43c a17c 993c b408 d63c 3006 12bb
00000310: 8d5e a43b 6c8d 18bd 22aa a8bc 97e9 91bb
00000320: 1c7b 2bbd 058d de3c 19a6 75bb 6063 b43c
00000330: b2df 2dbd 3ad2 babc d75b c8bc 9359 693c
00000340: 2a21 e2bc a470 9bbc 08d4 003d 8417 89bc
00000350: 8c87 253c db03 2abd 4ce0 e83c 0632 803c
00000360: b5de e93c f493 eabb 0f9c d93c d448 ee3b
00000370: f88b 9dbc cb22 08bd 0deb b43c 235e 8fbc
00000380: fb7e b9bc 998c 28bd 7862 b4bb 1ff3 aebb
00000390: 811a a9bb ba98 c0bc 87f1 92bc 4407 15bd
000003a0: 60b6 03bd d9c9 ebbc 0b95 2cbc 6630 13bc
000003b0: 80b6 99bc 600c 0abd 9907 07bc daaf 083d
000003c0: f6f3 083d 7892 8abc dc31 173d 8474 dc3c
000003d0: 9a2d 933c e4d6 54bc c8fa 863b 93fd 21bd
000003e0: fd7a 0c3d 3fe2 a4bc a787 e13b 7842 11bc
000003f0: dd0f a33c da42 c2bc e067 01bd d284 8d3c

conv2.bias f4 [36]
-0.031787105 0.03911618 -0.009344412 -0.030037165 -0.034743637 -0.010481137 -0.02728955 -0.010824487
-0.0017716546 -0.025301008 0.008540631 -0.03626442 0.039398983 0.004827272 -0.025763143 -0.021697493
-0.020879429 0.038645267 0.023622276 0.035693813 -0.021011619 0.017660776 -0.0037334065 -0.0033007571
-0.011432293 0.0038649288 0.0035062428 0.0015241185 0.03046865 -0.0071365535 0.004942731 0.028918486
0.029222017 0.037102725 0.03506245 -0.009018964
00000000: 3233 02bd 4a38 203d 4e19 19bc 8010 f6bc
00000010: 584f 0ebd 13b9 2bbc 568e dfbc 3059 31bc
00000020: dd36 e8ba 0f44 cfbc 01ee 0b3c 008a 14bd
00000030: d460 213d 182e 9e3b 3a0d d3bc f1be b1bc
00000040: 560b abbc 804a 1e3d 8183 c13c ad33 123d
00000050: 8f20 acbc 55ad 903c 2bac 74bb 8451 58bb
00000060: 834e 3bbc bf4a 7d3b fec8 653b eec4 c73a
00000070: 6499 f93c c0d9 e9bb a2f6 a13b 76e6 ec3c
00000080: 0363 ef3c 07f9 173d a59d 0f3d 47c4 13bc

conv3.weight f4 [48, 36, 5, 5]
0.022979142 -0.032215264 -0.02215009 0.009440447 0.0024817225 0.0032877147 -0.03223102 0.028111277
-0.029484289 0.0046325563 0.033342153 0.01782308 0.0037400324 0.0046091005 0.0043189335 0.0075400095
-0.016177826 0.0044898703 0.019339386 -0.026682096 -0.0029710284 -0.008713363 0.032830406 0.030633615
-0.012842489 0.031406865 -0.011707816 0.014424129 0.010326205 0.024496872 0.027602002 0.01105461
-0.046737976 0.021805856 -0.0333364 -0.003792296 -0.02983261 0.030811844 0.013358432 -0.015365239
-0.014707817 0.029885791 0.023360234 -0.018407425 -0.022089947 0.019045139 -0.00035273188 -0.023726447
-0.0064541493 -0.023705738 0.020900229 0.015937665 0.03625699 0.009933502 -0.028133819 -0.0025476501
-0.007849797 -0.004769838 0.0052402406 0.0005431445 0.028135855 -0.02388641 0.00059407094 0.016113656
-0.0053537623 -0.012921497 -0.029141113 -0.028929705 0.02751993 0.00435309 -0.027120473 -0.023204852
-0.026830347 0.00094856694 -0.027587157 -0.0171659 -0.014387522 -0.01479988 -0.03389489 0.018084845
0.008099226 0.028507857 0.020164136 0.009469696 0.02554148 0.019723639 -0.0054543517 0.029785234
0.02955365 0.020519514 -0.017101692 0.01881146 -0.032494422 -0.02207868 0.003990406 0.012214469
0.015906483 0.003179166 0.023618514 0.03192654 -0.030983176 -0.0068501323 0.018365836 -0.024834828
-0.03084635 0.031863987 0.0011233392 0.0023211173 -0.010768403 0.0039850343 -0.025099756 -0.020299736
-0.023171714 0.029316813 0.0058725732 0.0034556908 -0.00895085 0.025955563 -0.008775449 -0.022589425
0.032430325 -0.02076357 0.005445535 0.015159203 -0.0073320023 -0.005362681 0.030474184 -0.016255237
-0.015614223 0.02490298 0.0043657618 0.018657444 0.008587134 0.025511753 0.012546828 -0.012230523
0.032055553 -0.033571206 0.0077477447 0.024970455 -0.011969704 -0.0013870967 -0.0108904755 0.014300954
-0.017635748 0.025603583 0.0033284887 0.027028732 -0.011098339 0.004739482 -0.020713426 -0.008765135
0.009427737 0.009673968 0.00090173486 -0.0037618142 -0.02999894 0.019518394 -0.03335504 0.010510953
-0.011208602 -0.019356376 -0.010453786 0.022943653 0.00496937 0.0017531299 -0.009272398 0.020484269
0.024867296 0.006977605 0.004595031 0.0111557925 -0.024307651 0.023853414 0.016564274 -0.028833682
-0.018710267 -0.0025038396 -0.005008124 -0.029246023 0.011515398 -0.0031625493 0.01510484 -0.005529458
-0.014200056 -0.0051980764 -0.0030458204 -0.0127574215 -0.0005131451 -0.016842492 -0.01251138 0.022956613
-0.027514674 0.027386228 0.014144883 -0.004988294 0.02266501 0.0056933956 0.029952347 -0.0076785465
-0.0048891213 0.012084332 -0.020013189 0.015167257 0.024893263 0.007664837 0.00085056387 -0.021949897
-0.007951424 0.009638014 0.020965457 -0.023734912 0.015771424 0.03380907 -0.03213433 0.01265168
-0.020158188 -0.023863649 0.011892945 0.022373246 0.022880865 -0.014924761 0.033558354 -0.012868237
-0.011692973 0.031434175 -0.028446585 -0.004864718 -0.012034606 0.027245319 0.009681864 -0.015732642
0.026639905 0.011083014 0.019734971 -0.011888313 0.015339499 -0.011338867 0.029349081 0.018708022
-0.021711484 -0.009567282 -0.024669433 -0.023460258 -0.020276843 -0.014626 -0.02034845 -0.021866005
-0.006166056 -0.034077555 -0.024774265 -0.034223095 0.013474333 -0.006478366 0.012107689 -0.029088654
00000000: c13e bc3c 27f4 03bd 1b74 b5bc 1bac 1a3c
00000010: 65a4 223b b376 573b ad04 04bd 9f49 e63c
00000020: 0989 f1bc b3cc 973b c891 083d b501 923c
00000030: 551b 753b f007 973b d785 8d3b 2f12 f73b
00000040: 5c87 84bc c31f 933b a26d 9e3c 6994 dabc
00000050: 96b5 42bb 7ec2 0ebc 2d79 063d 59f3 fa3c
00000060: 4e69 52bc 7ca4 003d 24d2 3fbc 2f53 6c3c
00000070: 3e2f 293c aaad c83c 981d e23c 651e 353c
00000080: 5270 3fbd 32a2 b23c c08b 08bd 2b88 78bb
00000090: 8563 f4bc 1f69 fc3c 53dd 5a3c 7cbe 7bbc
000000a0: 0ef9 70bc 0cd3 f43c f65d bf3c 2bcb 96bc
000000b0: faf5 b4bc 8d04 9c3c dfee b8b9 f75d c2bc
000000c0: 547d d3bb 8932 c2bc f536 ab3c b58f 823c
000000d0: 3682 143d 21c0 223c e578 e6bc 7af6 26bb
000000e0: 6f9c 00bc 4d4c 9cbb 53b6 ab3b cf61 0e3a
000000f0: 2a7d e63c 6fad c3bc 6dbb 1b3a c900 843c
00000100: 9d6e afbb b0b4 53bc 58b9 eebc fdfd ecbc
00000110: 7a71 e13c 5ea4 8e3b c12b debc 1a18 bebc
00000120: 51cb dbbc 40a9 783a 76fe e1bc 809f 8cbc
00000130: a4b9 6bbc 327b 72bc 5ed5 0abd ab26 943c
00000140: 9eb2 043c 4f89 e93c 422f a53c c926 1b3c
00000150: 5e3c d13c 7893 a13c 6bba b2bb 2a00 f43c
00000160: 7f1a f23c 8a18 a83c d918 8cbc 7e1a 9a3c
00000170: df18 05bd 59de b4bc f4c1 823b 321f 483c
00000180: 504e 823c 8e59 503b 9d7b c13c 67c5 023d
00000190: 6ed0 fdbc 1377 e0bb f373 963c 6972 cbbc
000001a0: 7cb1 fcbc d083 023d 023d 933a e31d 183b
000001b0: f56d 30bc e494 823b 019e cdbc a24b a6bc
000001c0: 9bd2 bdbc d029 f03c b76e c03b df78 623b
000001d0: 96a6 12bc c3a0 d43c e7c6 0fbc 750d b9bc
000001e0: a9d5 043d 5d18 aabc 7570 b23b 4e5e 783c
000001f0: 4b41 f0bb 6eb9 afbb ffa4 f93c b429 85bc
00000200: ccd2 7fbc 5601 cc3c aa0e 8f3b 7fd7 983c
00000210: 0db1 0c3c 06fe d03c 3691 4d3c 8862 48bc
00000220: af4c 033d f681 09bd cbe0 fd3b d78e cc3c
00000230: 941c 44bc 3ecf b5ba f76d 32bc 8c4e 6a3c
00000240: d878 90bc 9bbe d13c c622 5a3b 5c6b dd3c
00000250: cfd5 35bc a84d 9b3b 34af a9bc a49b 0fbc
00000260: cc76 1a3c 907f 1e3c 6762 6c3a c588 76bb
00000270: 56c0 f5bc 0ae5 9f3c 4b9f 08bd 2236 2c3c
00000280: 49a4 37bc 4391 9ebc 5b46 2bbc 54f4 bb3c
00000290: 19d6 a23b 47c9 e53a 42eb 17bc a0ce a73c
000002a0: 80b6 cb3c 65a4 e43b ea91 963b c9c6 363c
000002b0: d720 c7bc 3c68 c33c cdb1 873c 9d34 ecbc
000002c0: 4646 99bc 7517 24bb 301b a4bb 5b95 efbc
000002d0: 14ab 3c3c c642 4fbb 4a7a 773c 7530 b5bb
000002e0: 5aa7 68bc a054 aabb 639c 47bb 8104 51bc
000002f0: 9684 06ba 44f9 89bc 88fc 4cbc 820f bc3c
00000300: 7466 e1bc 1559 e03c f0bf 673c d874 a3bb
00000310: f9ab b93c aa8f ba3b a05e f53c 519c fbbb
00000320: ec34 a0bb 5dfd 453c b3f2 a3bc 1680 783c
00000330: f5ec cb3c 5029 fb3b 60f8 5e3a 45d0 b3bc
00000340: b146 02bc c3e8 1d3c c0bf ab3c b86f c2bc
00000350: 1333 813c 617b 0a3d 4a9f 03bd fe48 4f3c
00000360: c922 a5bc b37d c3bc a0da 423c 1948 b73c
00000370: a770 bb3c fc86 74bc 7c74 093d 4cd5 52bc
00000380: e293 3fbc 1fc1 003d d008 e9bc 3668 9fbb
00000390: cc2c 45bc 9331 df3c aea0 1e3c bee1 80bc
000003a0: ee3b da3c 8895 353c 3cab a13c 33c7 42bc
000003b0: 8652 7b3c a8c6 39bc 7c6d f03c 9141 993c
000003c0: 48dc b1bc 17c0 1cbc 8d17 cabc ba2f c0bc
000003d0: 9f1b a6bc e4a1 6fbc cbb1 a6bc 5620 b3bc
000003e0: a00c cabb e894 0bbd 66f3 cabc 842d 0cbd
000003f0: 73c3 5c3c 7948 d4bb 545f 463c 544b eebc

conv3.bias f4 [48]
-0.024121786 -0.013048638 0.012967292 0.004793778 0.022410637 0.02071965 -0.0105681885 0.00153827
0.008890084 -0.026286235 -0.0040901923 0.013294386 0.0048762346 0.0107459165 0.031605717 -0.029827254
0.019007815 -0.008081724 -0.013298519 0.0077955895 0.023948954 0.0035138703 0.01606411 0.006591331
0.030343937 -0.030960392 -0.013915626 0.01920174 0.018531667 0.02234563 0.002981966 0.02795404
0.028874705 0.024219165 0.016223673 -0.007453016 0.011844603 -0.015289564 -0.02838071 0.030373676
-0.012182441 0.01741965 0.02907274 -0.0072060362 -0.0076530324 -0.033311825 -0.008288044 -0.0012782221
00000000: 0d9b c5bc f4c9 55bc c474 543c 2015 9d3b
00000010: 8396 b73c 41bc a93c 3226 2dbc c79f c93a
00000020: b7a7 113c 3b56 d7bc 0507 86bb b2d0 593c
00000030: d2c8 9f3b a40f 303c ff74 013d 4958 f4bc
00000040: 47b6 9b3c 3569 04bc 08e2 59bc 2572 ff3b
00000050: 9930 c43c f648 663b e198 833c 18fc d73b
00000060: d993 f83c a6a0 fdbc 5efe 63bc f84c 9d3c
00000070: b9cf 973c 2f0e b73c 166d 433b dfff e43c
00000080: a58a ec3c 4567 c63c 82e7 843c 6e38 f4bb
00000090: de0f 423c 1481 7abc aa7e e8bc 37d2 f83c
000000a0: dc98 47bc a7b3 8e3c f429 ee3c 9d20 ecbb
000000b0: 4ac6 fabb fb71 08bd 93ca 07bc 048a a7ba

fc1.weight f4 [25, 6912]
0.0034294345 -0.010550892 -0.0041340915 0.0015070336 -0.010183108 -0.006160272 0.0044786194 0.0030039365
0.0040817414 -0.011317242 -0.0038261025 0.00691625 0.003956235 0.010088745 -0.004538648 0.006328224
0.008209887 0.0024200394 -0.010501413 0.007648825 0.0027855875 0.007438403 -0.011016715 -0.0084986845
0.01045813 0.0060351407 0.0034272794 -0.0038036131 0.0021248828 -0.008480571 0.011155151 -0.0109858895
-0.011218526 0.0055568647 0.011690089 -0.00784179 0.006859143 -0.010156699 0.010915494 -0.001577595
-0.0021189845 -0.010591296 -0.0076226857 -0.0006426577 -0.008621193 0.010396845 0.00030630495 -0.011767301
0.0025866278 0.009881425 -0.005244989 0.009767248 -0.009447252 -0.00025421925 0.0040041646 -0.010309686
-6.884092e-05 -0.0021867065 -0.007829748 -0.0024260725 -0.0061297677 -0.0066045634 -0.003949932 0.0035806478
0.010098826 0.00715859 -0.0020235644 0.009045876 -0.008208851 0.0067932443 -0.005488732 -0.007528611
0.003678042 0.0028621969 0.00817318 -0.006585424 0.008841196 -0.00479925 -0.0049767424 0.008900366
0.0016360485 0.0069096545 0.0041204966 -0.0041517857 -0.002684151 0.0015993563 -0.0015982438 -0.006374551
0.007575108 0.0068944586 0.012820704 0.0017007451 -0.004987613 0.009461436 0.011325436 0.011466265
0.009949615 0.0060899826 -0.011403683 0.002760711 -0.008180976 0.007993362 -0.004803032 -0.0064834105
-0.009118892 0.0044232435 0.005942221 -0.0049863663 0.004070976 0.008440239 -0.011612393 0.004162484
-0.0049393172 -0.0044085034 0.009209639 -0.008865359 -0.010818925 0.0062563336 -0.00976558 0.007722241
0.013142031 -0.007450358 0.00043063477 0.00706444 -0.008923912 0.009995122 -0.0054395734 -0.0009115147
0.0032001506 -0.0051108957 0.014700896 0.0019659298 -0.00871778 -0.025180714 -0.00962176 -0.002148131
0.0029538784 -0.004123852 -0.012377643 -0.0029270828 0.010149303 -0.0123143215 -0.0070640706 0.0028470154
0.02364886 0.0019944606 0.0022811575 0.004085646 0.002199292 0.00079120154 -0.0025071918 0.023346616
-0.009779159 0.0079157585 -0.012951994 -0.0006031509 -0.0054196157 0.0045221364 0.011406414 0.004919115
-0.0077310437 0.005934875 0.011571902 -0.013835911 0.009345744 0.0048066927 -0.0006182739 0.0076336763
0.014514614 -0.012319997 0.0001036108 -0.008952602 0.010344502 0.0042876317 -0.0020086204 0.012237758
0.0011509646 0.010879416 -0.0043773674 0.00072908687 -0.008936407 0.011655409 0.00795713 -0.0075853537
-0.010967564 -0.009357836 0.020939715 0.018972345 0.013691418 0.025194667 -0.0069519556 0.005984024
-0.013740578 0.004374098 0.0021322055 -0.009285555 0.013000297 -0.002990725 0.01958472 -0.00650752
0.009549287 0.0044752387 -0.007480303 0.0038912797 -0.004996095 0.0147772115 0.005139735 0.010019816
0.009973186 -0.0054548485 0.0072342786 0.00931473 0.011971958 0.0010607372 0.008942536 0.006978262
-0.018776866 -0.0021719455 0.0074921027 0.00937397 -0.010339739 -0.008112337 0.0025865266 0.021478299
0.0014437318 -0.008220279 0.0023786158 -0.0021710966 -0.015800787 0.008386243 -0.011281554 -0.0010623736
0.015270817 0.01174459 0.022877824 -0.005841277 0.00035813687 0.0080442745 0.009929854 0.0012376388
0.015167335 0.014882162 -0.004524145 -0.004200272 -0.0066068643 0.0008041432 -0.0062822225 0.0067529515
-0.0056242184 -0.00259445 0.0053277533 0.0018115595 -0.0032954167 -0.0075338166 -0.018953867 0.011499699
00000000: 5dc0 603b a6dd 2cbc 4677 87bb a887 c53a
00000010: 0dd7 26bc 1bdc c9bb 62c1 923b b1dd 443b
00000020: 21c0 853b f46b 39bc 59bf 7abb b6a1 e23b
00000030: 4ea3 813b 434b 253c f0b8 94bb fe5c cf3b
00000040: c382 063c 8699 1e3b 1e0e 2cbc ffa2 fa3b
00000050: 678e 363b d9bd f33b 747f 34bc 113e 0bbc
00000060: 9458 2b3c 6ec2 c53b 359c 603b 0a46 79bb
00000070: 9e41 0b3b 18f2 0abc 18c4 363c 29fe 33bc
00000080: e9cd 37bc 5c16 b63b c987 3f3c da7a 00bc
00000090: a9c2 e03b 4968 26bc e6d6 323c 4ec7 ceba
000000a0: a9de 0abb 1d87 2dbc b9c7 f9bb 0778 28ba
000000b0: e73f 0dbc 8757 2a3c 8e97 a039 a3cb 40bc
000000c0: 6a84 293b b3e5 213c 28de abbb cf06 203c
000000d0: a6c8 1abc bb48 85b9 5e35 833b f5e9 28bc
000000e0: b05e 90b8 d94e 0fbb 5848 00bc befe 1ebb
000000f0: 38dc c8bb 186b d8bb 6e6e 81bb 4da9 6a3b
00000100: 8c75 253c 9b92 ea3b c79d 04bb 2735 143c
00000110: 6b7e 06bc dd99 de3b d2da b3bb 91b2 f6bb
00000120: 4e0b 713b b293 3b3b cde8 053c 8aca d7bb
00000130: aada 103c 0743 9dbb f113 a3bb d7d2 113c
00000140: ae70 d63a 626a e23b 3b05 873b b40b 88bb
00000150: 95e8 2fbb 7ea1 d13a 2a7c d1ba 9ce1 d0bb
00000160: 9d38 f83b e9ea e13b ee0d 523c 89eb de3a
00000170: 216f a3bb 2404 1b3c 528e 393c 00dd 3b3c
00000180: b603 233c 7a8e c73b 83d6 3abc 0bed 343b
00000190: 8009 06bc 97f6 023c c162 9dbb ca72 d4bb
000001a0: 6867 15bc dbf0 903b f6b6 c23b ac64 a3bb
000001b0: d265 853b ee48 0a3c e841 3ebc 7265 883b
000001c0: ffd9 a1bb 3575 90bb 07e4 163c 0340 11bc
000001d0: dc41 31bc ee01 cd3b d0ff 1fbc da0a fd3b
000001e0: ac51 573c 2222 f4bb d2c6 e139 d17c e73b
000001f0: 9a35 12bc 95c2 233c 733e b2bb b7f2 6eba
00000200: 9eb9 513b 4d79 a7bb 07dc 703c d4d6 003b
00000210: 05d5 0ebc c947 cebc 96a4 1dbc a8c7 0cbb
00000220: db95 413b 6121 87bb 99cb 4abc 4dd4 3fbb
00000230: 4349 263c 02c2 49bc b879 e7bb fe94 3a3b
00000240: 41bb c13c 7fb5 023b 797f 153b e2e0 853b
00000250: ff21 103b a368 4f3a b34f 24bb 6741 bf3c
00000260: c438 20bc 19b1 013c 9a34 54bc c61c 1eba
00000270: 0897 b1bb 6e2e 943b f8e1 3a3c 8730 a13b
00000280: b254 fdbb 5779 c23b 1398 3d3c 04b0 62bc
00000290: e41e 193c 7681 9d3b a913 22ba eb23 fa3b
000002a0: b4ce 6d3c d0d9 49bc a049 d938 efad 12bc
000002b0: fc7b 293c 437f 8c3b 0fa3 03bb e180 483c
000002c0: f7db 963a 943f 323c 0570 8fbb 3120 3f3a
000002d0: 026a 12bc 54f6 3e3c 9f5e 023c 8f8e f8bb
000002e0: 4cb1 33bc 9c51 19bc c489 ab3c e46b 9b3c
000002f0: f851 603c 0c65 ce3c 3bcd e3bb a215 c43b
00000300: 2920 61bc 9854 8f3b 79bc 0b3b 7122 18bc
00000310: 33ff 543c 0a00 44bb 2270 a03c 093d d5bb
00000320: 9d74 1c3c 06a5 923b 541d f5bb d704 7f3b
00000330: 48b6 a3bb 1e1c 723c 396b a83b 282a 243c
00000340: 9366 233c 96be b2bb 870d ed3b cf9c 183c
00000350: 0826 443c 6f08 8b3a b783 123c e8a9 e43b
00000360: f1d1 99bc 3357 0ebb 5080 f53b 4895 193c
00000370: 0268 29bc 9ce9 04bc b782 293b 42f3 af3c
00000380: 9a3b bd3a 59ae 06bc 8de2 1b3b f548 0ebb
00000390: a770 81bc 7466 093c 44d6 38bc 583f 8bba
000003a0: 7332 7a3c 616c 403c 466a bb3c 2f68 bfbb
000003b0: 51c4 bb39 22cc 033c d4b0 223c 4438 a23a
000003c0: 6a80 783c 50d4 733c 473f 94bb 6fa2 89bb
000003d0: 657e d8bb 23cd 523a 1adb cdbb dd47 dd3b
000003e0: 5d4b b8bb a607 2abb 6f94 ae3b da71 ed3a
000003f0: ebf7 57bb 3cde f6bb 2445 9bbc 3c69 3c3c

fc1.bias f4 [25]
0.008999113 0.00927712 -0.0012322983 0.010973527 -0.010138189 0.0073701637 0.008881618 0.004402655
0.0028888523 0.0033266202 0.008998417 0.0040452327 -0.010552252 -0.010668303 -0.0015491141 -0.004715942
-0.005763822 -0.010401716 -0.0077498867 -0.0016142701 0.008386774 -0.0027539746 0.00777214 0.00646972
-0.0060190666
00000000: 0471 133c 10ff 173c 1285 a1ba 4fca 333c
00000010: a61a 26bc 6a81 f13b 3584 113c 2644 903b
00000020: e652 3d3b 6d03 5a3b 196e 133c df8d 843b
00000030: 5ae3 2cbc 1bca 2ebc a50b cbba 3088 9abb
00000040: 71de bcbb f66b 2abc c3f2 fdbb eb95 d3ba
00000050: ae68 093c 077c 34bb 70ad fe3b f2ff d33b
00000060: 973b c5bb

fc2.weight f4 [5, 25]
0.079370715 0.1220513 0.010697664 0.0048044506 -0.005639796 0.10070332 0.19067179 0.01976983
0.17551917 0.031255655 0.19830176 -0.196474 -0.17784542 -0.17504402 -0.059558876 0.022946319
-0.18275397 0.08445732 0.056120194 0.062023878 0.16245732 -0.022459252 0.08871636 -0.14662507
0.105631195 0.024558948 0.039243497 0.09812024 -0.004211305 0.18426608 0.12578364 0.14309928
-0.17737181 -0.14501712 -0.19292134 0.13678698 0.037479874 -0.048586473 -0.19473097 -0.0038376802
-0.13966398 -0.19381101 -0.19032434 -0.016285365 -0.1783453 -0.078953125 -0.10273295 0.04586351
-0.054122474 0.07804724 0.22380255 0.2231394 0.072043754 -0.08611107 0.03507766 -0.22049513
-0.09403395 -0.10793254 0.016714003 0.055422712 0.18553191 0.0466604 0.17432211 -0.06673537
-0.12717146 0.065575875 0.11807436 0.020550745 -0.018265745 -0.15470162 0.11163961 0.017715095
0.08466949 -0.10285012 -0.09422481 -0.21221955 -0.0052004578 -0.11705899 -0.1266076 -0.1798914
0.17167924 -0.20686102 -0.1801023 0.17765239 -0.21111378 -0.13321537 0.115344964 -0.10816825
-0.22755559 -0.17822608 0.08968809 0.1926453 -0.037971288 0.21191704 -0.117341794 -0.10474482
-0.22213086 -0.0877519 0.17651506 0.00059202296 0.17695716 -0.13871416 0.12213376 0.20652167
-0.047388613 0.12552251 0.08587574 -0.21347015 -0.039875027 -0.15796012 -0.19633134 0.10858992
-0.21562329 0.14416736 0.20913456 -0.20336522 0.21891408 0.0103776315 0.17832172 -0.04910947
0.15148832 0.20863655 0.036153734 -0.018355608 0.008159392
00000000: 1d8d a23d 08f6 f93d 4145 2f3c a76e 9d3b
00000010: 0ace b8bb 8b3d ce3d 773f 433e 57f4 a13c
00000020: 4cbb 333e ee05 003d 9e0f 4b3e 7b30 49be
00000030: 1c1d 36be bd3e 33be 02f4 73bd ebf9 bb3c
00000040: db23 3bbe f6f7 ac3d 4ade 653d c00c 7e3d
00000050: 365b 263e 77fc b7bc ecb0 b53d e224 16be
00000060: 2b55 d83d d92f c93c cabd 203d 44f3 c83d
00000070: fdfe 89bb 3fb0 3c3e 6dcd 003e 9e88 123e
00000080: f5a0 35be 5e7f 14be 2c8d 45be e311 0c3e
00000090: 7f84 193d 9c02 47bd 8e67 47be 9781 7bbb
000000a0: 1304 0fbe 6576 46be 62e4 42be e368 85bc
000000b0: 26a0 36be 2db2 a1bd a765 d2bd 60db 3b3d
000000c0: 87af 5dbd 3bd7 9f3d 7f2c 653e a87e 643e
000000d0: ad8b 933d 005b b0bd 98ad 0f3d 7ac9 61be
000000e0: df94 c0bd bc0b ddbd ceeb 883c ed02 633d
000000f0: 14fc 3d3e fa1e 3f3d 7f81 323e 8eac 88bd
00000100: 3c39 02be a54c 863d f8d0 f13d 095a a83c
00000110: 0ba2 95bc 1a6a 1ebe 4fa3 e43d 3f1f 913c
00000120: 3367 ad3d 15a3 d2bd f0f8 c0bd 1550 59be
00000130: 9a68 aabb a0bc efbd 6ca5 01be 7335 38be
00000140: afcc 2f3e 60d3 53be bd6c 38be 82ea 353e
00000150: 362e 58be 9c69 08be fb39 ec3d 5187 ddbd
00000160: 5504 69be e680 36be 64ae b73d cf44 453e
00000170: c887 1bbd c800 593e e550 f0bd 7484 d6bd
00000180: 4676 63be 45b7 b3bd 5dc0 343e fd31 1b3a
00000190: 4234 353e 160b 0ebe 4421 fa3d 6b7a 533e
000001a0: 901a 42bd f988 003e 9fdf af3d eb97 5abe
000001b0: ff53 23bd 4cc0 21be 150b 49be 6464 de3d
000001c0: 5acc 5cbe 9ca0 133e 5f27 563e f93e 50be
000001d0: 032b 603e f106 2a3c f899 363e 0327 49bd
000001e0: c11f 1b3e d2a4 553e f015 143d 805e 96bc
000001f0: f8ae 053c

fc2.bias f4 [5]
-0.0883592 -0.028350474 0.043001782 0.03628147 0.011731297
00000000: abf5 b4bd 413f e8bc a322 303d e19b 143d
00000010: a034 403c
