imitation_learning/models/agent_HL_5.pt (torch, 966797 bytes, 10 tensors)

conv1.weight f4 [24, 5, 5, 5]
00000000: a720 203d 24ca b53d 3766 db3d 456e a83d
00000010: 387a e63c b072 d33c bda5 993d 4542 e53d
00000020: fba4 e83b 27de 9c3c 962a 2b3c 724f 5bbd
00000030: 057d b7bb f0be 343d f610 a23d 1756 103d
00000040: 10a3 1fbd bdff d93d 9ac4 e13c d47f 31bd
00000050: 9478 b13d 1a25 c43d 2f9a a1bd fb49 4f3d
00000060: e2df bdbc 2383 c4bd f087 b0bc 9b13 fbbc
00000070: 17a1 d53c 9c0b 96bd f13a 943d e98e 063b
00000080: 9a3d f23c 92f4 b2bc 886e 05bc dfef 923d
00000090: 0cdf b73d b4b5 8e3d a7c8 ca3d 1a55 92bd
000000a0: f2e4 c93d db1a 553d 8ac6 7a3c 252b bc3d
000000b0: b54a 613d ed55 dc3d e887 b2bd c618 683d
000000c0: 7302 c1bc d15e ae3c 2d0a d2bd d0a4 e43c
000000d0: 435c 803d 7c7f a9bd 3b7f 8d3d 747e 8e3d
000000e0: 587f aa3d 413e 553c 18e7 8dbd 97fe 3bbd
000000f0: 1ccd 5abc 3a67 b63d b4e7 47bc 0a62 25bd
00000100: f55a d0bb de30 2bbd aea3 dabd cb86 e5bc
00000110: d95c 953d c449 8a3b 9446 c83d 01a9 11bd
00000120: 2463 d9bd 387d bcbd e53b b53c 4ffb 9cbc
00000130: a104 043d d1ad 973d d127 7cbd 9512 00bd
00000140: 4f23 fbbc 74b8 debc 3812 80bb eb24 d2bd
00000150: 10da 8a3d d0ea a93d 0b66 b2bd e2bc c5bd
00000160: d352 e83b 8a2c 7fbd e090 6d3d 0e6d c23c
00000170: b83a 343d 459b b2bd 1549 b73c f314 c1bc
00000180: c909 b73c 4640 00bd aa9b babd e036 92bd
00000190: 4d71 24bd 60a4 d7bb 5acb d1bd 5876 3cbd
000001a0: c5d4 45bc 8009 a63d 40e1 adbd 9271 1fbc
000001b0: 5faf d83c 1b45 7d3b 3991 793c f027 933a
000001c0: 72be 05bd e484 cbbc 56a7 83ba bb8c 37bc
000001d0: 50e3 bfbd 7fe5 06bc 5dbf 413d fdb9 a7bd
000001e0: c5c0 b7bc 6b33 1dbd cf25 303c 7034 aabc
000001f0: 53d4 6cbc 4d15 fc3c 5a70 833d cca2 f3bc
00000200: 7729 453d 608d 9cbd edf9 8a3c a0ca cabb
00000210: ff5d 693d 1aa9 643d 2c5d 2e3d 2242 87bc
00000220: fcb3 c0bc a3c2 0c3d 76c6 83bd de00 753d
00000230: 06ef 0d3d 456b a03d 02f2 f5bc 75a3 063d
00000240: 7cb9 113d f0cf 973c 94c9 c8bb 1bf4 1cbc
00000250: d3b2 2ebd fe02 20bd 5141 87bc 9994 983d
00000260: befe 8bbd e45b 09bc 2fd5 543d 1529 a6bd
00000270: a66c 7f3d 4515 86bd c524 c7bb e278 fabc
00000280: 4a73 a63d 9dd6 d83b daae 3d3d e56b 70bd
00000290: dd66 6c3d 0e3f 873d edec 9b3d 81ff b2bb
000002a0: 5b1b e03c 8bf4 a2bd 7892 773c 8974 5dbd
000002b0: da9c 49bc 3612 9cb7 9cc3 42bb 4859 e1bb
000002c0: ebae d0bc d753 b7bd e784 ac3d 1da0 9a3d
000002d0: 6d70 dbbb 106f b53b 8605 18bd 76d9 82bb
000002e0: 8561 bfbd a823 16bd 9cd8 b33b 9d21 ed3c
000002f0: 2957 30bd 6c0e abbd f8e7 8b3d be55 9c3d
00000300: cb3b ae3d ff27 5dbd deb1 053c d907 b43d
00000310: e93a b13d 47b9 09bd bce0 05bd ed28 b4bd
00000320: 8324 b03d 6c56 00bc 033c cdbb 4fae 43bd
00000330: 3a8b a73c 99d9 6bbd d1db 953c 47be a3bd
00000340: 908e 61bd 4cb2 35bd 37fc 88bd 799e f9bc
00000350: 7504 d5bb 8c9e da3c 6778 63bd f43e a7bd
00000360: faf6 ab3c abac a9bd 0499 333d 6114 24bd
00000370: 70df 84bd 4531 55bd 8ff7 95bd 700c 503d
00000380: fe44 0ebd 1b8b 7b3d 4b10 97bc 32a6 a83d
00000390: a730 c43c 668f 2bbd e89f cdba 2abf 8bbd
000003a0: d925 a33d a4e0 9dbd 0459 99bd 14d2 36bd
000003b0: 3b94 333d 682d 24bd 5b5c 923c e774 3c3d
000003c0: 2dc8 6e3d 4701 153c 9af5 1a3d aa44 85bc
000003d0: 7cf1 c0bc 4765 32bd 2bd5 f83c 85ef 57bd
000003e0: 517f a1bd 6698 52bd f56a 92bd 1386 adbd
000003f0: 742c 83bc fb27 9a3d dcfd 943d a2d2 e23b
0.03909364 0.08876446 0.10712855 0.08224157 0.02813445 0.025811523 0.07502315 0.111942805
0.0070997453 0.0191489 0.010447165 -0.05354256 -0.0055996203 0.044127405 0.07913391 0.03523835
-0.038973868 0.10644481 0.027559567 -0.043334797 0.086655766 0.09577389 -0.07890736 0.050607663
-0.023178045 -0.09595325 -0.021549195 -0.030648997 0.02607779 -0.07326433 0.07237805 0.0020531958
0.02957039 -0.021845136 -0.0081440285 0.07174658 0.0897809 0.06968251 0.09901553 -0.07145138
0.09858121 0.052027564 0.015306124 0.09187917 0.055002887 0.107585765 -0.08717328 0.05666425
-0.023560738 0.021285446 -0.10255847 0.02791062 0.062675975 -0.08276269 0.06909033 0.06957713
0.0832507 0.013015331 -0.06928843 -0.045897093 -0.013354566 0.08906408 -0.012201238 -0.0403767
-0.006358499 -0.04179465 -0.10675751 -0.028018376 0.072931 0.0042202193 0.09779087 -0.035561565
-0.10614613 -0.09203571 0.022123287 -0.019162802 0.032230977 0.074062 -0.06156141 -0.03126772
-0.030656485 -0.027187563 -0.003908422 -0.10260948 0.06779873 0.0829674 -0.087108694 -0.09655167
0.0070899515 -0.062298335 0.05799949 0.023733642 0.04400131 -0.087210216 0.022373715 -0.02356956
0.022343533 -0.031311296 -0.09111722 -0.07139373 -0.040147115 -0.0065808743 -0.10243864 -0.0460113
-0.012074654 0.08107281 -0.08490229 -0.009731667 0.026450811 0.0038645926 0.015232378 0.0011227112
-0.032652326 -0.02484364 -0.0010044377 -0.011202986 -0.09369528 -0.008233427 0.04730164 -0.08189771
-0.022430787 -0.038379114 0.010751202 -0.020776957 -0.014454919 0.030771876 0.06417914 -0.029740714
0.048135247 -0.07644153 0.016964877 -0.0061887056 0.056974407 0.05582533 0.042569324 -0.016511027
-0.023523323 0.034365308 -0.06434338 0.05981528 0.03465178 0.0783296 -0.030022625 0.03287073
0.035577282 0.01853177 -0.0061275456 -0.009579684 -0.04265101 -0.039065354 -0.016510637 0.07450218
-0.068356976 -0.008383725 0.05196112 -0.081133045 0.062359475 -0.065470256 -0.0060773813 -0.03057522
0.081274584 0.006617381 0.04630933 -0.058696646 0.057715286 0.066038236 0.076135494 -0.0054625873
0.027356794 -0.07956799 0.015110604 -0.054066215 -0.012305463 -1.860513e-05 -0.0029718643 -0.006877098
-0.025474032 -0.08951538 0.084237866 0.075500704 -0.006696752 0.0055369213 -0.037114643 -0.0039932085
-0.09344772 -0.0366551 0.0054884683 0.028946692 -0.043051872 -0.0835236 0.06831354 0.076335415
0.08507498 -0.05399322 0.008160083 0.08790559 0.08653814 -0.03362396 -0.032685027 -0.087968685
0.08600714 -0.007833105 -0.0062632575 -0.047773656 0.02045213 -0.057580564 0.018293293 -0.07995277
-0.0550676 -0.04435949 -0.06688731 -0.030471073 -0.0065007755 0.02668693 -0.055534746 -0.08166304
0.020991791 -0.08284887 0.0438471 -0.040058497 -0.0648793 -0.05204894 -0.07322609 0.05079311
-0.034733765 0.06141196 -0.018440386 0.08234824 0.02394898 -0.041884802 -0.0015687915 -0.06823571
0.07966203 -0.077088624 -0.074876815 -0.04463394 0.043842535 -0.040082365 0.017866304 0.046009924
0.05829637 0.009094543 0.03783188 -0.016268093 -0.023552649 -0.043553617 0.030375084 -0.052718658
-0.07885612 -0.05141487 -0.07149307 -0.08472838 -0.016012408 0.07527157 0.07274982 0.006922082

conv1.bias f4 [24]
00000000: 5111 8fbd a5de 853d 2f83 213d 8d2a 97bc
00000010: 91e0 663d 9b93 b63c fbd8 523c 777f 503d
00000020: bd25 f7bc a59f 933d aae1 86bd 8f42 98bc
00000030: 951d b33d 108d 08bc 775e 9cbd db70 23bd
00000040: f67d 3fbd 293f 7fbc 3728 963d 614a 8d3d
00000050: 1a93 2f3d 1fd7 2bbd 18ac c33c b78f 8ebd
-0.06985725 0.06536607 0.039431747 -0.018452907 0.056366507 0.02228718 0.012869115 0.05090281
-0.030169362 0.07208184 -0.06586011 -0.018586425 0.08745877 -0.008334413 -0.07635205 -0.03990255
-0.046750985 -0.015579023 0.07331889 0.06898952 0.042864896 -0.041953202 0.023885772 -0.06961005

conv2.weight f4 [36, 24, 5, 5]
00000000: a7e3 2cbb 2ce2 eebc cd16 43bc 5d69 a23c
00000010: d57f 413c 26f0 0abd 5166 ff3c 4f38 02bc
00000020: 49d8 f9bc 7807 923c 7686 943c 4cb8 15bc
00000030: 18bc 13bd e418 fe3c 0f3d 91bc f0c6 37bb
00000040: ac1f 3f3c 2a36 f3bc b38f 08bd 5a49 7f3c
00000050: 1aa4 00bd deb0 87bc a53b a13c f7d8 103d
00000060: d80f 9e3c 84cf b7bc 704c d1bb dff6 763c
00000070: ee88 a83b f71a 09bd a226 843c 21e9 203b
00000080: e738 193d 5b1a 56bc 4f8a aa3c c46e 42bb
00000090: 60d8 6e3c b744 03bd 01b2 debb 01d9 26bc
000000a0: 58f4 273d 7038 fb3c c5a3 b33c e88f 093c
000000b0: 1283 81bc 625c 1dbc 40c8 30bc 2e32 afbc
000000c0: e6b4 8dbc d652 17bd 70fd 0bbd c901 d33c
000000d0: 0bae 3e3c 26fa e33c e9df b2bc 9bbf fabc
000000e0: a9a6 3a3b fca4 07bd baae 253d 3a8d bc3c
000000f0: 5d2f 09bd 3a95 c2ba be26 343b f06e 00bd
00000100: 579b 1ebc 3fe3 0c3d eb80 ccbc 95cd 853c
00000110: a428 e138 6129 07bd 82bb 79bb 7a21 053c
00000120: 1a52 14bd 1608 9fbc 3595 6a3b 9c01 0ebd
00000130: e9dd 3b3d 9334 8a3c ec4e b13c 217d 903b
00000140: abf1 debc ef22 2cba 6b40 0bbd 2f38 aabb
00000150: 2696 2abd 29be 03bd 2391 2f3d b160 b4bc
00000160: 89bc 143d f3a6 d8bc 2a6d 87bb 914d d9bc
00000170: 0867 2e3d 364a 1c3d 3bbf ecbb ebee 033d
00000180: b002 10bd e801 61bc 878c 0c3d b0ca cb3c
00000190: 41c4 a0bc 4e14 443c 2f8d 003d 9803 47bc
000001a0: 6896 823c b04e e73c fbd6 0abd 0bb2 45bc
000001b0: 39ea 17bd d101 07bd 177f 433c d34f 103d
000001c0: f934 3fbc d7b4 ee3c 7dd0 c43c 3835 05bd
000001d0: 776f 173c 9ec4 f1bc 6fea 013d ad50 5ebc
000001e0: eb95 b3bc cc51 0d3d e73a 42bd be20 3bbd
000001f0: c550 f5bc a0e4 1e3c fc3e 223d 7f8a 21bd
00000200: f78d 493d 3448 15bd f104 d6bc 268e b83c
00000210: 584a 0b3d 7f8d 083d 7195 5e3d 2c7c 09bd
00000220: 2e6d e93c 1eb4 ddbc 34af c6bc 961a 143d
00000230: 317c c6bb a132 f33c 6884 1ebd 5c2f 733c
00000240: bae3 b83b edfd b5ba 87b3 36bc b269 fe3c
00000250: ba86 d2bc a8ed 0dbd 0617 b83c 0d06 3cbc
00000260: 2402 c4bc 520a 1cbd aa0e 303d aacd 7c3c
00000270: 9263 063d fcd1 12bd 562d 9dbc 8926 e4bc
00000280: 136a cabb 6aa3 8ebc b30b 0ebd f3e8 0dbd
00000290: 10fa 20bc 6f98 10bd 71df 163d a6be 033b
000002a0: 6970 4e3a a480 64bc 605f 183d f10a 553c
000002b0: 6a61 ae3c 3fe0 153b 48f5 cc3b da27 cbbc
000002c0: a932 313d 01ae 083d 67fb 10bd 4938 353c
000002d0: 0fb8 0fbd 4a2f 0ebc d2bc cfbb b2fd a238
000002e0: cd5b 49bc eee5 9abb 167f feba 9552 1c3d
000002f0: 42af 6bbb 5265 953c 1beb ec38 ccbf 043c
00000300: f95b d7bc 324f 663c 60be 063d a6f7 bcbb
00000310: b043 b13c b410 b63c 8034 983c 6776 d8bb
00000320: fd27 9c3c 803e 0238 f422 88bb f1e4 403c
00000330: 89e7 f4bc 03ad 4cbc d1d4 2e3a 5032 63bc
00000340: 843f aebc ab71 a63c 0508 06bd a96a 2e3c
00000350: 1666 17bc f1ed 0abd adbc 32bb 284d 98bb
00000360: 93b2 eabc 4753 c4bc 537e 603c 5eee 7a3c
00000370: 273a ff3c f99f 223d a4d7 46bc 7698 5bbb
00000380: 0088 ec3c f3e9 f53c 742d ccbc 6428 a03b
00000390: 8e7f 903c 397c 83bb 9aea a1bb 7d39 863b
000003a0: 26b1 0b3d 460f 0a3d f53a 983c 34d1 873c
000003b0: 195a 103d 916d ae3b 128e 223d 1282 e23c
000003c0: 1625 a9bb a56d a13c 7830 6bbc 5032 7dbc
000003d0: c2e0 e2bc 97c5 873c f21f da3c 9880 753c
000003e0: 2fce 193d 3555 7e3c 96ec 9f3c 1e10 26bd
000003f0: 1605 403a e033 053c 1416 e6ba 9746 da3c
-0.0026380809 -0.029160582 -0.011907292 0.019825632 0.011810263 -0.03392043 0.031176718 -0.007947995
-0.03049864 0.017825827 0.018130522 -0.009138178 -0.036068052 0.031017728 -0.01772931 -0.002804216
0.011665266 -0.029688913 -0.033340167 0.015581453 -0.0314065 -0.016563829 0.019681761 0.035363164
0.019294664 -0.022437818 -0.006387286 0.015073507 0.0051432764 -0.03347298 0.016131703 0.0024553018
0.037407782 -0.013067807 0.020817904 -0.0029668072 0.014577955 -0.032047953 -0.006796122 -0.010183574
0.04100451 0.03066656 0.021928677 0.008396126 -0.01580957 -0.009604545 -0.010789931 -0.021386232
-0.017298173 -0.036944233 -0.034177244 0.025757687 0.011638175 0.027829241 -0.021835284 -0.030608943
0.0028480685 -0.033116326 0.040449835 0.02301656 -0.033492435 -0.0014845498 0.0027488912 -0.0313558
-0.009680591 0.034396406 -0.024963817 0.01633338 0.00010736406 -0.032998446 -0.0038106148 0.008125657
-0.03621111 -0.019413035 0.00357945 -0.034669504 0.045865927 0.016870772 0.021644078 0.004409448
-0.027214846 -0.0006566485 -0.03399698 -0.005194686 -0.0416471 -0.032163773 0.042863023 -0.022018762
0.036312614 -0.026446795 -0.0041328864 -0.026526244 0.042578727 0.03815671 -0.007224945 0.03221027
-0.035158813 -0.013733365 0.034313705 0.024876922 -0.019624831 0.011967732 0.031384643 -0.012146853
0.01594086 0.028235763 -0.033896428 -0.0120663745 -0.037088607 -0.032960717 0.011932156 0.035232376
-0.0116703445 0.029138966 0.024025196 -0.032521456 0.009242884 -0.0295127 0.031717714 -0.013569039
-0.021922072 0.034501836 -0.047419455 -0.045685522 -0.02994574 0.009698063 0.039610848 -0.03943872
0.049207654 -0.03644581 -0.026125403 0.02252872 0.034006447 0.033338066 0.054341737 -0.033565685
0.028494444 -0.027063426 -0.024253465 0.036158167 -0.0060572852 0.029687228 -0.03870049 0.014842834
0.0056423815 -0.001388488 -0.011151201 0.031056259 -0.025699008 -0.034650475 0.022471916 -0.011476052
-0.023926802 -0.03809578 0.042982735 0.0154298935 0.0328098 -0.035844788 -0.019186657 -0.027850406
-0.006177196 -0.017411906 -0.034679126 -0.034645986 -0.009825245 -0.035301622 0.036834184 0.002010265
0.0007875027 -0.013946686 0.03720033 0.013003097 0.021286685 0.0022869257 0.0062548257 -0.024799276
0.043261204 0.033369068 -0.035396006 0.011060783 -0.03508764 -0.008678267 -0.006339648 7.7720164e-05
-0.012289953 -0.004727117 -0.0019416537 0.038164694 -0.0035962616 0.01823679 0.00011297149 0.008102369
-0.026288973 0.014056968 0.0328964 -0.0057668267 0.021638721 0.022224762 0.018579721 -0.0066059115
0.019062037 3.1052623e-05 -0.0041545574 0.011773334 -0.02989556 -0.012492421 0.00066692854 -0.013866976
-0.021270521 0.020317873 -0.03272249 0.010645547 -0.009240648 -0.033918325 -0.0027273104 -0.0046478696
-0.028649604 -0.023965491 0.013701993 0.01531562 0.031155659 0.039703343 -0.012136374 -0.0033507622
0.028873444 0.030018782 -0.024924017 0.0048876274 0.017638948 -0.004012611 -0.0049412968 0.0040962086
0.03410449 0.033705972 0.0185828 0.016579248 0.035242174 0.00532312 0.03968627 0.027649913
-0.0051618917 0.019705603 -0.014354818 -0.01545389 -0.027695064 0.01657371 0.02662656 0.014984272
0.037550148 0.015523245 0.019521993 -0.040542714 0.00073249766 0.008130044 -0.0017554187 0.026644988

conv2.bias f4 [36]
00000000: 3203 d73c cbcf b9ba 5ba1 92bc f397 e93b
00000010: b90a a3bc 870b 51bb 8acd 003d 5a99 4cbc
00000020: e90f e23c 7fba 03bd 0b38 ef3c ad4d 06bd
00000030: 18ea 99bb 715f 22bd 27e5 d03c be74 b5bb
00000040: ef8d 203d 604e f13a aba8 e53c d267 26bd
00000050: a5c6 1abd 1681 8e3c 6149 14bd 0173 fbbc
00000060: aa01 043d 9bb6 c3bc 3ba2 0bbd 9cf9 0b3c
00000070: 6fd3 a9bc 3729 643b 4b7a f23c 517c d939
00000080: c9f6 013c 1a46 533a af63 123c b7f8 fabc
0.02624664 -0.0014176307 -0.017899206 0.0071287095 -0.019902574 -0.003189774 0.031446017 -0.012487734
0.027595477 -0.03216028 0.029201528 -0.03278892 -0.0046970956 -0.0396418 0.025499893 -0.0055375984
0.03919786 0.0018410198 0.028034529 -0.040626355 -0.0377871 0.017395537 -0.036202792 -0.030694487
0.03222815 -0.023890784 -0.034090262 0.008543398 -0.020730702 0.0034814605 0.02959933 0.00041482088
0.007932373 0.0008059457 0.008934899 -0.030636175

conv3.weight f4 [48, 36, 5, 5]
00000000: cf52 2b3b 2313 893c efb0 62bc d690 c73b
00000010: 873b 9b3c dd9a 7dbc 51cb 423c aead 8fbb
00000020: fabe d6bc b487 b0bc c8d7 1ebc f623 b83c
00000030: 251d 8fbc fbce e23c 01ee e1bb bf9c 973b
00000040: 9232 db3c 31ba ddbb a143 323c f243 5b3c
00000050: 79de 253b 7365 323c 223c e9bc 0286 493c
00000060: 7a31 1a3d c038 2bbd 5da8 7fbc da55 de3c
00000070: 2cd0 123d 1a91 923c 7883 49bc 1745 923c
00000080: e76a 13bd 4393 62bb 1356 a4bc 2e40 febc
00000090: d9bb 4f3b 0022 dabc db0a 05bd 00ef d9bc
000000a0: f92a d03c 149c ca3c 3e84 0f3c 50a4 5cbb
000000b0: 3a4a 343c 31b8 e43c 17a8 58bc c51d 07bb
000000c0: a102 fe3c 1065 d8bc d7e4 593c 2f69 ef3a
000000d0: ba29 58bc c6ca ee3b 8e56 42bc 523d f53a
000000e0: 572f 873c 749b ce3c f8a6 1cbb 7e37 c73a
000000f0: be97 c43c 49e0 663c b516 79b8 de2a cc3c
00000100: 4a1c ae3c 543a 3ebc 2889 a7bc a223 8bbc
00000110: 3ecc fa3c c275 78bc 9755 4fbc 4ffe bf3a
00000120: 2058 3937 68c9 793c 515e 303c 9a03 ef3b
00000130: 430f 0f3c 8bb2 a6bc f74b 763c fd2d b13c
00000140: 7213 3cbc 6986 3bbc 368a 90bc 9692 febb
00000150: 268e 8dbc e4d4 503b 4c16 9cbc a44d 06bd
00000160: bc69 c1bc 5024 cebb d68f e53c fe0e 163d
00000170: 6cbb e33a 7028 213b 060f 33bc 5604 7f3b
00000180: 56e2 693b d522 1dbd 152d 1bbc 67d6 143c
00000190: b3b7 963b 066c d7bc e003 393d 5515 24bc
000001a0: ec28 a53c 3f32 02bd 06ce 2f3c 06ea cd3c
000001b0: bcaf f1bb 6098 1ebd 181c 65bc 4a5f 983c
000001c0: 555e bf3c 2200 14bd 34b4 083c c3a9 f73c
000001d0: 1eb9 d13c 36f2 bbbb 02df ffbc 7a7a 70bc
000001e0: eeb2 183d 90ff 9abc f6b1 a23c 3d52 9dbb
000001f0: 068f 61bb 4c1b c4bc 412a cc3c f6af b73c
00000200: f047 993c 39d9 f1bc 4179 8ebc 0aa0 28bc
00000210: ee5d 11bb c04d 8d3c d4ff 123d fa88 963c
00000220: 74d0 ff3b 1316 d4bc 8cdc 2b3c 91ae d63c
00000230: 8882 20bc a97b c3bc 6bc5 ad3c 9706 9dbc
00000240: 30b8 a4bc 1239 0d3c 5113 233b d32d 6cbc
00000250: e599 01bc 2fe8 083d f3e1 743b 6f2e b33b
00000260: 58ed b0bb 9a8f 08bc 7519 ab3c 2fe1 e5bc
00000270: 823f 0b3c 61eb 74bb d06e f2bc 9b46 9e3c
00000280: 6b2a eebc a7f9 07bd 9086 4c3b b3a8 e33c
00000290: a29d 813c ed1f 8c3c 07ce ca3c 6ec7 f8bc
000002a0: da29 adbc 4253 3db7 b212 c33c 874f 9d3b
000002b0: 2e83 b2bc 861b 08bc b871 88bb f47a c03c
000002c0: ffba 29bd caf0 92bc edff 97bc 4020 d8bc
000002d0: b093 cb3c 6d48 e93a 0e2b 913c fdf3 a3bb
000002e0: 98a5 a73c dd5f acbc 2b00 acbc 1d7b b53c
000002f0: 9523 0f3b 0cf2 16bd d639 96bb 9741 59bc
00000300: 1fb4 063d 8fd2 0dbd 1092 c43a 0532 b8bc
00000310: 37c2 aabc ce26 85bc c3df 163d 27d6 0cbc
00000320: c399 97bc e7e4 afbc 1edf f5bc c6f7 df3b
00000330: f261 c8bc 4d6c 2abc c7fe b83c 9631 3e3c
00000340: 5550 1ebc 2ca7 0fbd 22a4 853a 5510 ee3b
00000350: 341b 8fbc 9eb4 8a3c 5577 babc b39a be3c
00000360: a775 bdbc c251 d43c 3304 223c 94b1 b33c
00000370: e627 84bc b667 a83c c408 f53c 3dab 9aba
00000380: 924f b53c a8a2 84bc 4405 41bc 97f1 883b
00000390: cdb7 acbc 5393 ecbc a009 3fbc 6606 183c
000003a0: 0fc8 f93b 1e0b b23a d030 723c fd56 953c
000003b0: b9dd 543c 929d da3b e0d8 dcbb f08c 09bb
000003c0: cf50 863b 0650 983c 7ce6 943b e4ae b2bc
000003d0: 086f debc 985d 06bd f6d3 133b 19a2 1a3c
000003e0: 935f ad3c 7ebd e23b a947 4e3c bf52 3e3c
000003f0: fa4c 083c a666 11bb 8930 b0bb 687a 0e3d
0.0026141887 0.016732758 -0.01383613 0.006090264 0.018949283 -0.015478817 0.011889295 -0.004384718
-0.026214112 -0.021549083 -0.009695001 0.022478085 -0.017469952 0.027686587 -0.0068948274 0.00462684
0.026757512 -0.0067665805 0.010880382 0.013382899 0.0025309606 0.010888445 -0.028471056 0.012300016
0.03764484 -0.041802168 -0.015604106 0.027140547 0.03584306 0.017891455 -0.012299411 0.01785521
-0.035990622 -0.0034572638 -0.020060575 -0.031036463 0.003169766 -0.02662754 -0.032481056 -0.026603222
0.025411116 0.024732627 0.008759556 -0.0033667274 0.011004025 0.02791986 -0.0132236695 -0.002061711
0.031007113 -0.026415378 0.013299189 0.00182656 -0.013193542 0.007287356 -0.011861457 0.0018710291
0.016502066 0.02522061 -0.0023903232 0.0015199033 0.023998138 0.01409156 -5.9387374e-05 0.024922784
0.021253724 -0.011610586 -0.020451143 -0.016984764 0.030614968 -0.015164794 -0.012654684 0.0014647933
1.10473775e-05 0.015245773 0.010764674 0.0072941305 0.008731666 -0.020348808 0.01503276 0.021628374
-0.0114792455 -0.01144562 -0.01764403 -0.0077689392 -0.017279696 0.0031865174 -0.0190536 -0.032788888
-0.023609988 -0.00629095 0.028022688 0.03663539 0.0017374582 0.0024590753 -0.010928875 0.0038912497
0.0035687885 -0.038363297 -0.009471198 0.009084321 0.0045995354 -0.026296627 0.04516971 -0.010014852
0.020161115 -0.0317862 0.010730272 0.025136005 -0.0073756855 -0.038719535 -0.013983749 0.018600125
0.02336041 -0.03613294 0.008343745 0.030232316 0.025600966 -0.005735661 -0.031234268 -0.014677638
0.037280016 -0.01892069 0.019860249 -0.0048010633 -0.0034417524 -0.023938797 0.024922492 0.022422772
0.01871106 -0.029522525 -0.017391803 -0.010292063 -0.002218123 0.017248988 0.035888508 0.018375862
0.007806832 -0.025889432 0.010489594 0.026206287 -0.009796746 -0.023862677 0.0212123 -0.019168181
-0.020107359 0.008619564 0.002488334 -0.014415222 -0.0079102265 0.033424553 0.0037366122 0.005468182
-0.0053993873 -0.0083350185 0.020886162 -0.028061477 0.008499028 -0.0037371742 -0.029593855 0.019320777
-0.02907296 -0.03319707 0.0031208135 0.027790403 0.015822235 0.017105067 0.024756445 -0.030368533
-0.02113812 -1.1284663e-05 0.023812626 0.00480074 -0.021791067 -0.008307343 -0.004163947 0.023496129
-0.0414381 -0.017937083 -0.018554652 -0.026382565 0.024850696 0.0017798074 0.017720725 -0.005003451
0.020464703 -0.021041805 -0.020996174 0.022153432 0.0021841277 -0.036851928 -0.0045845313 -0.013260267
0.03288662 -0.034624632 0.0014997143 -0.022484789 -0.020844562 -0.016253855 0.03683449 -0.00859598
-0.018505936 -0.021471454 -0.030013617 0.006834957 -0.024460766 -0.0104017975 0.022582425 0.011608502
-0.009662707 -0.035071537 0.001019601 0.0072651305 -0.017469026 0.016931828 -0.02276198 0.023267126
-0.02312739 0.025917891 0.0098886965 0.021935262 -0.016132306 0.020557266 0.029911406 -0.00118003
0.022132669 -0.016190842 -0.011781041 0.0041791904 -0.021083737 -0.028878843 -0.01166001 0.009278869
0.007622726 0.0013583635 0.014782146 0.018229956 0.012992316 0.006671616 -0.0067397207 -0.0020988546
0.0040989886 0.018592846 0.0045440774 -0.02181191 -0.027152553 -0.0328041 0.0022556758 0.009438061
0.021163737 0.006919562 0.012590327 0.011616408 0.008319134 -0.0022186427 -0.0053768796 0.034784704

conv3.bias f4 [48]
00000000: 2bb6 6039 76e8 e1bc ad2d 983c 1430 d7bc
00000010: a70c 0cbc 9f67 fcbc a0d2 86bc 3b12 b9bc
00000020: bcae 28ba db07 073c 730c 40bc dd3b b4bc
00000030: e895 07bd 3c53 653c 2b11 27bc b835 e4bc
00000040: 1d6a 04bd dc93 30bc d0fa f63b d889 43bb
00000050: 0176 95bc 7315 2fbc 599f f5ba 4c05 cfbc
00000060: 6652 a83c 9d1c 9abb 6831 d73b 8bbd 21bc
00000070: a417 d63c ec73 c53b c4b1 87bb 220e c3bb
00000080: 63a7 02bd a488 c8bc 8116 f4bc 1355 bc3c
00000090: 5eb5 03bd 5591 603c 228b 453c 34fc 98bc
000000a0: 0387 2dbc 6b3e fdbc a7cb d23c ccdf be3c
000000b0: 4f9d 21bc de43 d3bc 384d 8e3c 4c1d ed3b
0.00021430168 -0.027576666 0.018576467 -0.026268043 -0.008547938 -0.03081113 -0.016457856 -0.0225917
-0.0006434729 0.008241619 -0.011721718 -0.022001201 -0.033101946 0.013996895 -0.010196964 -0.027857646
-0.03232776 -0.01077744 0.0075372234 -0.00298368 -0.018244745 -0.010686266 -0.0018739506 -0.02527108
0.020547103 -0.004703118 0.006567169 -0.009871851 0.02613432 0.006025782 -0.0041410644 -0.0059526125
-0.031897914 -0.024479218 -0.029795887 0.022989785 -0.032155387 0.013706525 0.012057098 -0.018674947
-0.010591271 -0.030913552 0.025731875 0.023300074 -0.009864165 -0.025789198 0.017370805 0.0072361585

fc1.weight f4 [25, 6912]
00000000: e951 e7bb 0260 4a3c 8758 89bb f756 2ebc
00000010: 9659 02bc 4e53 a13b 393d b2bb 74c0 b03a
00000020: 6f43 193c 4362 113c a9d2 ab3a 43f6 2e3c
00000030: 0c0c 4fbc 8376 ad3b 7c31 6bbc 3dd5 273b
00000040: 193d 35bc 8ef5 543c 9739 d939 5adf 523c
00000050: ef20 e2bb f358 bebb 0f51 bcbb 5d49 e639
00000060: 580a 8d3a a616 b4bb 8d74 0c3c 99f7 183b
00000070: 2e5d a4ba 7b75 aa3b da0b abba db87 35bc
00000080: 5249 043a 40ac a53b 1fd6 aebb 4489 343c
00000090: fe68 403c 27a6 8fbb 2ef3 003c 8315 9abb
000000a0: e62d 1f3c e302 0bbb 9e6a 653c 6388 38bc
000000b0: 259b 1e3c b7bc 53bc 27e8 7cbb df35 72ba
000000c0: 75a8 f238 fa29 523c de8c 533b 37a7 23ba
000000d0: 4c9f 023c 6e44 d23b a450 65bc 6aad ffbb
000000e0: b01d 10bb 5b0f 14bb 8364 f3bb 668f 3abc
000000f0: 47d6 90bb 29da bb3b c8ad 71bb 408c 44bb
00000100: 339a 37bb 81b0 cb3b 1906 a6bb 7684 c63b
00000110: 2689 1dbc e9bd 883b 4bc8 37b9 58d2 38bc
00000120: 8276 193c 50ff 773a e4dc 533c b2bc c13a
00000130: 9f9a 41bc 89d5 b33b 2a18 2fbc e472 49bc
00000140: 9ccf 5d3c 15a9 0fbc c8c3 f1ba d423 e33b
00000150: 7a98 21bb 09e6 73bb bae3 853b 510e 2fbc
00000160: 79de 62bc 824e c2bb ad6a e8bb 65f5 db3b
00000170: 0674 94ba 8911 0dbb 08aa af3b ae34 22bc
00000180: 8eff 123c f54d dd3a a24f b1bb 9bfd 46bc
00000190: 363f 2cbc 3fd8 e03a 76f0 23b9 3de6 6a3b
000001a0: 8abe 603b d1cf 1d3c 6523 153b 20d0 183c
000001b0: 5136 0d3c 13ea 4ebc 37e9 03bc 95cc f9bb
000001c0: a2dd 74bb dcd2 e43b 2303 f33a 544e 73bb
000001d0: a50e adbb a92e 053c 7cf5 033c d717 7c3b
000001e0: 163b 313c a01a 7cba c860 243b 8515 c5bb
000001f0: 9ce6 8d3b 4852 b0bb 22fa 4c3b 3dea 50bc
00000200: 4715 183c a695 05bb 3e42 003c bf12 333c
00000210: d378 38ba 24c5 30bc 30e0 9abb 649c a8bb
00000220: 6aef 273c 1d98 d93b 9f39 533b d9fe 1f3c
00000230: 622c 70ba 1b7e ecbb c0e7 9e3b d5c2 163c
00000240: e5c2 09bc c425 4bbc ea1e ac3b 3e6c e83a
00000250: 94c3 9dbb 4d5c 5abb 11a8 303c 5484 5d3b
00000260: 4887 b63b 03c7 d3bb 8c2b a13b 4225 cfbb
00000270: e351 7aba df0a 393b 361b 16bc 1c8f ccbb
00000280: 1d14 403c 8474 65bc e8e7 163b cb82 2cbb
00000290: 3c52 09bc 5fed 3bbc e176 01bc 3d40 9c3a
000002a0: 225b 243c f80c e53b 8d30 b2bb 80e0 56bb
000002b0: df13 d3bb b49a e53b ab83 f43b 730c 33bc
000002c0: a4ca 3d3c 6e6f e93b 4965 3dbc 243f 99bb
000002d0: 8f3c fa3b c421 d83b a701 92ba e083 0dbc
000002e0: f519 24bc a153 44bc 2726 5c3c 0d6f 193c
000002f0: d9b9 4f3c ede6 23ba a54c 073c 3cf3 05b8
00000300: 749f efbb 29ba c13b 681f 06bc 51b9 18bc
00000310: f3e2 81ba a402 903b 60dc cd3b b1a3 f0bb
00000320: 8222 66bb 8848 9fbb 689b 233b e21f 9abb
00000330: 898d d63b d5c6 bf3b 6ce4 543c 9cc1 27bc
00000340: 08f5 3dbb 1f03 94bb 1e20 263c 2cf0 6b3c
00000350: fa4f 9aba 95aa 7a3b 6ba9 91bb c805 ff3b
00000360: 77f7 5cbc 2c07 233b df82 573a f657 77ba
00000370: c1c2 f4ba 0237 183c d0dc 35bc d04c ca3b
00000380: f67b fe3b f4e4 f63b a1cd f73b f721 03bc
00000390: 8e45 25bc 5e2a ce3b ee6f 283c f7ae 4ebc
000003a0: 9fa4 3f3c ebd3 bcbb 3e40 6a3b 4cb6 3f3a
000003b0: ea02 da37 d814 c4b9 74b9 313c 5a5c a43b
000003c0: 2e25 8f3b 250b 55bc f187 b8bb 0b08 d03a
000003d0: 1a36 54bc 333a 223b 9598 1bbb 43ee 5b3c
000003e0: 431b f73b f620 393b d5a5 d33b 4109 32bb
000003f0: 3598 23bc 2557 c23b 1884 d7bb 78a9 d5bb
-0.007059325 0.012351992 -0.0041914615 -0.010640851 -0.007955929 0.004923261 -0.005439427 0.001348509
0.009354456 0.008873525 0.0013109046 0.010678831 -0.01263715 0.0052936687 -0.01435506 0.0025609278
-0.01106193 0.012997998 0.00041432373 0.012870634 -0.0069008986 -0.0058089434 -0.0057469676 0.00043923678
0.0010760529 -0.005495864 0.00857271 0.002334094 -0.0012539977 0.005201993 -0.0013049797 -0.011079754
0.0005046326 0.005055934 -0.005335584 0.011019055 0.011743782 -0.0043838206 0.007870479 -0.0047022714
0.009715533 -0.0021211437 0.01400247 -0.011262986 0.009680544 -0.012923411 -0.0038590522 -0.0009239595
0.00011570837 0.012827391 0.0032280008 -0.00062428735 0.00797255 0.006416849 -0.013996277 -0.007802655
-0.0021990351 -0.002259216 -0.0074277534 -0.011386728 -0.004420075 0.005732794 -0.0036877263 -0.0029990822
-0.0028015494 0.0062161093 -0.005066645 0.006058271 -0.009615218 0.0041730297 -0.00017526855 -0.011280619
0.009366633 0.0009460347 0.012931082 0.0014780967 -0.01181665 0.005488102 -0.0106869135 -0.0122954585
0.013538267 -0.00876834 -0.0018445188 0.0069317613 -0.0024657534 -0.003721597 0.004085985 -0.010684566
-0.013846987 -0.005929769 -0.007092795 0.006712603 -0.0011326082 -0.0021525344 0.0053608455 -0.009900255
0.008972062 0.0016884195 -0.0054111043 -0.012145425 -0.010513118 0.001715429 -0.0001563447 0.00358428
0.0034293258 0.009632067 0.0022756692 0.009326965 0.008618907 -0.01262905 -0.008051208 -0.007623265
-0.0037363549 0.006983144 0.0018540364 -0.0037125545 -0.005281287 0.0081288 0.0080541335 0.0038466358
0.01081731 -0.00096170045 0.00250821 -0.006014528 0.0043304693 -0.0053809024 0.003127702 -0.012751159
0.009282417 -0.0020383387 0.007828293 0.010929762 -0.0007037047 -0.0107891895 -0.0047264323 -0.0051455963
0.010249952 0.006640448 0.003223039 0.00976535 -0.0009161887 -0.0072171814 0.004849404 0.009201725
-0.008408283 -0.012399141 0.0052527087 0.0017732454 -0.0048145745 -0.0033319176 0.010782258 0.0033800798
0.005570326 -0.006462933 0.0049185213 -0.00632158 -0.0009548945 0.002823524 -0.009161761 -0.006242646
0.011723545 -0.01400483 0.002302641 -0.0026323076 -0.008381423 -0.011470168 -0.007901878 0.0011921
0.010031493 0.0069900714 -0.0054379166 -0.003278762 -0.006441578 0.0070069674 0.007461985 -0.010928261
0.011583958 0.007123879 -0.011559793 -0.0046767164 0.0076366137 0.006595822 -0.0011139408 -0.0086373985
-0.010015954 -0.011982829 0.013436831 0.0093648555 0.012678587 -0.0006252367 0.00825802 -3.19362e-05
-0.0073127095 0.0059120846 -0.008186199 -0.009321527 -0.0009909555 0.004394846 0.0062823743 -0.0073437323
-0.0035115783 -0.0048609413 0.0024964456 -0.0047035078 0.006547634 0.00585256 0.012993913 -0.010239031
-0.0028985161 -0.0045169736 0.010139493 0.014400523 -0.0011773102 0.0038248647 -0.004445245 0.0077826716
-0.013486735 0.00248761 0.00082211004 -0.00094354094 -0.0018673764 0.009290459 -0.011100009 0.0061737075
0.007766242 0.0075346176 0.0075623547 -0.008003703 -0.010087384 0.0062916717 0.010280592 -0.012614957
0.011696964 -0.0057625673 0.0035743858 0.0007313236 2.5988982e-05 -0.00037399563 0.010847438 0.005015892
0.004368446 -0.013003145 -0.00563144 0.0015871538 -0.012952352 0.0024753928 -0.002374207 0.013423505
0.0075410916 0.0028248406 0.0064589777 -0.002716616 -0.009985019 0.0059307986 -0.006577026 -0.0065204464

fc1.bias f4 [25]
00000000: 4778 70bb 2fc1 01bb 7c80 443b 7b33 333c
00000010: 99f2 dfbb 6b3a 24bb 781a 2f3c 73b7 b73a
00000020: e686 19bc a3ba f9bb 974c bb3b de23 df3a
00000030: 0b1a 373c 3ffd 4fba 81fa c3ba 81a6 9ebb
00000040: ff6a 023b caa1 f2ba a2fb 34bc 50de 0ebc
00000050: db87 803b 5f26 9aba af6c 2bbc 66d6 de3b
00000060: 3e0a 2ebc
-0.0036692785 -0.0019798984 0.002998381 0.010937567 -0.00683434 -0.0025059234 0.010687463 0.0014016464
-0.009370541 -0.007621126 0.0057159173 0.0017024239 0.011175643 -0.000793416 -0.0014951975 -0.004841626
0.00199002 -0.0018511352 -0.011046322 -0.008719996 0.0039224452 -0.0011760703 -0.010462924 0.0068004606
-0.010622559

fc2.weight f4 [5, 25]
00000000: 9d18 603e ac95 643e 8d2b 36be 2a6a b03d
00000010: 05b8 1abe 7609 1dbe 5729 11be 49aa 5b3e
00000020: 492d 87bd b7d9 6fbd e628 b5bd 8f37 1a3e
00000030: 817d b1bd 9ba6 9a3d 2771 833d 3ac5 663e
00000040: 4b23 193e 7df2 b43d d50e 7d3e 2abe 4bbe
00000050: 01d2 48be 8b37 3cbc 660d 60bc d4e2 f03b
00000060: 9e23 1bba 22d0 e4bb 8f8e 2cbe 0048 36be
00000070: ce80 47be a33b 0b3e 3a01 fcbd 4ad8 393e
00000080: 4c5c b83d c571 21be 2a1e 27be c135 07be
00000090: 47e6 fcbd 72e4 253e 935b c43b 637e 4a3e
000000a0: c2e9 96bd d283 8c3d 0e4b 6c3e eee8 e93c
000000b0: 99be 5a3d 4aa0 19be b1a1 3c3e 0587 a73d
000000c0: 0f0d 9ebd da68 4bbd 041c 48bd e787 5f3d
000000d0: 5689 d0bd 5fad 10be 71da f7bd e1b4 1cbe
000000e0: 6a08 623d aa11 8cbe 419a d6bd f1ad d2bc
000000f0: 6711 663d e2df 3d3d 05c6 ab3c 4412 97bd
00000100: 7a92 193e 8109 12be b4cc 6b3e fc81 aabc
00000110: b8e4 ae3d 6af3 353e 333b a53d 493a 66be
00000120: 560a 7ebe e6b5 7e3e 4190 6dbe 02e3 2bbd
00000130: f863 98bd 2b09 71be 74aa 2c3e 7cd5 b93d
00000140: 4db7 dc3d 25f2 2dbe eed7 693d 2ac6 dfbd
00000150: b321 f83d 7b04 32be 9406 04be fced 103e
00000160: 4f51 e2bd e4c0 973d a1f2 5ebd 08d0 92be
00000170: 45a2 83bc 681a 4fbe 7f96 c83d 7009 d23d
00000180: 150d 5bbe 7f51 503e c5ef a7bd 6bb5 19be
00000190: edbb 16be 2826 0abe de4a fc3d b2c6 393e
000001a0: 9939 d0bd b07f 50bc 99e2 da3c 82db 0bbe
000001b0: 2d5a 27be dfc2 0bbd 641e 29be 8e01 70be
000001c0: 1486 79be 5a4d 7d3e 6f7f 783d e3ba 26be
000001d0: 12ff 413e edbc c13b 3f57 ec3d 183c 543e
000001e0: c1e5 613e f203 3a3e 39c1 38be 837e 3f3e
000001f0: 214d 253e
0.21884389 0.2232272 -0.17790051 0.08613999 -0.1510926 -0.1533564 -0.14175926 0.21451677
-0.06600434 -0.05855724 -0.088456914 0.15060256 -0.08666516 0.07551309 0.064180665 0.22536173
0.1495487 0.088353135 0.24712689 -0.1989676 -0.1961136 -0.011487852 -0.013675069 0.007351259
-0.0005918088 -0.006982819 -0.16851257 -0.17800903 -0.19482729 0.13596968 -0.123049214 0.18148914
0.09001979 -0.15766056 -0.163201 -0.13204099 -0.123486094 0.16200426 0.005992362 0.19774775
-0.073688045 0.0686108 0.23075506 0.028553452 0.053404424 -0.15002552 0.18421055 0.0818005
-0.077173345 -0.04966054 -0.048854843 0.054572966 -0.10182445 -0.14128636 -0.12102211 -0.15303375
0.055183806 -0.27357227 -0.1047864 -0.025717707 0.05616894 0.04635609 0.020968447 -0.07376531
0.14997283 -0.14261438 0.23027307 -0.020813935 0.085397184 0.17768636 0.08067932 -0.22483172
-0.2480863 0.24874076 -0.2319956 -0.04196454 -0.074409425 -0.23538654 0.16861898 0.09073922
0.10777149 -0.16986902 0.057090692 -0.10926469 0.121158026 -0.17384522 -0.12893134 0.14153284
-0.11050665 0.07409838 -0.054430608 -0.2867434 -0.016068587 -0.20224917 0.0979433 0.10255706
-0.21391709 0.20343588 -0.08200029 -0.15010612 -0.14720125 -0.13491118 0.12318967 0.18142202
-0.10167236 -0.012725756 0.026719378 -0.13657954 -0.16342993 -0.03412139 -0.165155 -0.23438093
-0.24367553 0.24736539 0.060668405 -0.16282229 0.18944958 0.0059124143 0.11540078 0.20726049
0.220603 0.18165568 -0.18042459 0.18700604 0.16142704

fc2.bias f4 [5]
00000000: 6f78 863c 8703 763d d9a8 fdbc ae30 203d
00000010: bc96 393d
0.01641485 0.060061958 -0.030964302 0.039108925 0.045309767
