imitation_learning/models/agent_HL_3.pt (torch, 962007 bytes, 10 tensors)

conv1.weight f4 [24, 3, 5, 5]
0.09999704 -0.055069983 -0.062253416 -0.032732546 -0.061460394 0.020305976 -0.10499815 -0.09156574
0.043662075 0.12051306 -0.07732966 -0.027075203 0.017950581 -0.008998701 -0.050316006 0.0768111
-0.041049104 -0.056616995 -0.007204456 0.048655402 -0.09107058 0.04171077 0.08794424 -0.04375551
0.02823736 0.06263722 0.038410123 -0.05716871 -0.07099006 -0.04555899 0.07957855 -0.06503952
-0.07712742 -0.058963757 0.009372673 0.0719801 0.12163527 -0.04683933 -0.06084162 -0.055036213
0.03665176 0.11297285 0.09550658 0.022836905 -0.017273119 -0.029022945 -0.02790904 0.05170232
-0.044401422 -0.059037477 0.035657097 -0.023485074 0.048053384 -0.0053903125 -0.09678797 0.12173117
0.03383624 0.028627053 0.09436033 -0.06618029 0.06665544 -0.102977365 0.021780701 0.10681655
-0.052985854 -0.11476578 0.04427791 0.1159761 -0.123403125 -0.083195746 -0.03883593 0.024544463
-0.09273273 -0.067497835 -0.102170296 -0.03426531 0.0748804 -0.13322228 -0.0042527267 0.069652796
-0.13112392 -0.06610645 0.033408314 0.074852966 -0.06725876 -0.116140634 -0.060284186 0.09591556
0.003186726 0.022208756 0.022595223 0.046286426 0.062176194 -0.015176244 -0.046135258 0.087467216
-0.0821385 -0.08359106 -0.07168915 -0.12755433 -0.05489159 -0.12766348 -0.10064839 -0.0093776565
0.023448152 0.05288568 -0.02468547 -0.02106317 -0.08515948 0.08330503 -0.089667305 0.07667595
0.061393198 -0.0721373 -0.1269607 -0.010470078 0.034131996 0.11710555 0.12371965 0.054689094
-0.029284254 -0.05321825 0.04367379 0.10629495 -0.07081247 0.10657756 0.039827593 0.11185726
-0.020161066 0.07943321 -0.11043817 0.03308717 -0.019001247 0.08504849 0.026186626 0.03958376
0.103175685 0.0803968 0.07448729 -0.112383425 -0.043764785 0.09326179 0.0722795 0.124295674
-0.11601912 -0.030280864 0.05280016 -0.07730045 0.051453963 0.09544736 -0.09454444 0.015731093
-0.0958171 -0.042199805 0.026366903 0.08094754 -0.10505391 0.07711519 -0.07068217 -0.09973213
0.11132164 -0.09235643 -0.0218017 0.030392604 0.030519437 0.06382752 0.008822566 -0.053542532
0.038058825 -0.0047743437 0.11158384 0.024755377 -0.023530424 -0.090404995 -0.1072077 -0.11043197
-0.090551674 0.024655662 0.11238879 -0.06501369 0.04344124 0.07244517 0.10101509 -0.12026514
0.025700567 0.021153163 0.012930884 0.10864572 0.03394192 -0.08469386 0.1255337 0.10036368
0.049173467 0.015918136 -0.0061745085 0.13049845 -0.07629013 -0.0973127 0.015289941 -0.08888685
-0.015928714 0.10230758 0.09005385 0.08730107 0.10511263 -0.046831224 0.14117646 0.020958005
-0.115288965 -0.0014445371 0.010477366 0.08706072 -0.12826106 0.09646696 -0.06608933 0.05513615
-0.019209035 0.054401886 0.06458432 -0.024683917 0.024143348 -0.071531765 -0.107622914 0.0014521374
-0.028572451 0.11504895 -0.0853442 0.03659222 0.075876124 -0.075656794 -0.10248496 -0.10372105
0.015337108 -0.06379323 0.10519534 0.022392629 -0.013237787 -0.03556205 -0.022415612 0.018413713
0.12396138 -0.0663675 -0.005602735 -0.01690887 -0.07128761 0.08965195 0.030052062 0.06582299
-0.017763156 -0.11284542 -0.03247662 -0.015476898 0.0022976096 0.10430358 -0.01363239 -0.09248806
00000000: 40cb cc3d 1091 61bd 70fd 7ebd 9012 06bd
00000010: e5bd 7bbd b858 a63c 4509 d7bd d286 bbbd
00000020: 01d7 323d 8dcf f63d 035f 9ebd d1cc ddbc
00000030: 190d 933c 4a6f 13bc 2818 4ebd 234f 9d3d
00000040: 1b23 28bd 39e7 67bd 5b13 ecbb e34a 473d
00000050: 3683 babd ead8 2a3d 1c1c b43d fa38 33bd
00000060: 0952 e73c f147 803d ef53 1d3d bd29 6abd
00000070: 3d63 91bd 109c 3abd 14fa a23d 7133 85bd
00000080: fbf4 9dbd fb83 71bd d78f 193c 4d6a 933d
00000090: ea1b f93d 99da 3fbd 1035 79bd a76d 61bd
000000a0: 2820 163d 4f5e e73d f498 c33d 7614 bb3c
000000b0: 5b80 8dbc 87c1 edbc 80a1 e4bc d0c5 533d
000000c0: 44de 35bd 48d1 71bd 2d0d 123d c563 c0bc
000000d0: a0d3 443d 38a1 b0bb c538 c6bd 314e f93d
000000e0: df97 0a3d 4883 ea3c fd3f c13d 8889 87bd
000000f0: a682 883d cce5 d2bd 716d b23c a3c2 da3d
00000100: b207 59bd 520a ebbd c15c 353d e184 ed3d
00000110: c7ba fcbd 8862 aabd 6d12 1fbd 7811 c93c
00000120: a8ea bdbd 4e3c 8abd a93e d1bd c859 0cbd
00000130: e55a 993d 6c6b 08be 755a 8bbb 20a6 8e3d
00000140: 5945 06be d262 87bd 28d7 083d 834c 993d
00000150: f6be 89bd 24db edbd 8dec 76bd 616f c43d
00000160: 64d8 503b 23ef b53c 9e19 b93c d696 3d3d
00000170: 77ac 7e3d c8a5 78bc 53f8 3cbd 0322 b33d
00000180: 3b38 a8bd ca31 abbd c3d1 92bd 9a9d 02be
00000190: 01d6 60bd 37ba 02be be20 cebd bea4 19bc
000001a0: 5716 c03c a89e 583d 2f39 cabc ab8c acbc
000001b0: 1868 aebd d49b aa3d 7ea3 b7bd 4808 9d3d
000001c0: 6f77 7b3d b9bc 93bd fc01 02be b18a 2bbc
000001d0: fecd 0b3d 09d5 ef3d ba60 fd3d ac01 603d
000001e0: 88e5 efbc 61fb 59bd 4ae3 323d 2bb1 d93d
000001f0: 2106 91bd 5645 da3d 4222 233d 6b15 e53d
00000200: d228 a5bc e1ad a23d 682d e2bd 6a86 073d
00000210: 81a8 9bbc e72d ae3d 5685 d63c 9522 223d
00000220: c64d d33d 14a7 a43d cb8c 983d 4829 e6bd
00000230: b442 33bd 0a00 bf3d 4607 943d bb8e fe3d
00000240: 6f9b edbd 930f f8bc fb44 583d b34f 9ebd
00000250: 64c1 523d e879 c33d 84a0 c1bd 7ede 803c
00000260: c13b c4bd b4d9 2cbd 67ff d73c d3c7 a53d
00000270: 8126 d7bd 92ee 9d3d d0c1 90bd 5c40 ccbd
00000280: 9afc e33d 5e25 bdbd 7b99 b2bc e9f9 f83c
00000290: e603 fa3c 01b8 823d 868c 103c 6a4f 5bbd
000002a0: 92e3 1b3d 1972 9cbb 1186 e43d cacb ca3c
000002b0: e0c2 c0bc 4126 b9bd b68f dbbd 282a e2bd
000002c0: 2873 b9bd acfa c93c 182c e63d e625 85bd
000002d0: 71ef 313d 225e 943d 00e1 ce3d 924d f6bd
000002e0: ff89 d23c 6649 ad3c 0fdc 533c a681 de3d
000002f0: af06 0b3d f973 adbd e88b 003e 798b cd3d
00000300: 1e6a 493d c066 823c 8853 cabb 63a1 053e
00000310: 003e 9cbd e14b c7bd a982 7a3c 4f0a b6bd
00000320: ef7c 82bc a386 d13d 276e b83d e7ca b23d
00000330: 4a45 d73d 19d2 3fbd 9090 103e 1fb0 ab3c
00000340: 9f1c ecbd 9f56 bdba 42a9 2b3c e44c b23d
00000350: de56 03be 7890 c53d d859 87bd 72d6 613d
00000360: 445c 9dbc 83d4 5e3d c944 843d ed35 cabc
00000370: 45c8 c53c 3f7f 92bd 6769 dcbd a555 be3a
00000380: c610 eabc c99e eb3d f1c8 aebd b9e1 153d
00000390: f164 9b3d f3f1 9abd a2e3 d1bd b46b d4bd
000003a0: 7e48 7b3c 06a6 82bd a870 d73d bf70 b73c
000003b0: 4ee3 58bc 83a9 11bd f2a0 b7bc 5bd8 963c
000003c0: 77df fd3d afeb 87bd 2697 b7bb 7884 8abc
000003d0: 3dff 91bd 719b b73d be2f f63c 34ce 863d
000003e0: 0a84 91bc 801b e7bd 3406 05bd d192 7dbc
000003f0: 7e93 163b 1e9d d53d 635a 5fbc 616a bdbd

conv1.bias f4 [24]
0.070049405 0.0933087 0.027607631 0.028761724 -0.050085638 -0.079061605 -0.047562886 -0.00025260283
-0.029554557 0.045109972 -0.059980273 0.09802044 -0.013101384 -0.061455633 -0.074289754 -0.037070226
-0.04815501 -0.050696954 -0.013482863 0.09108511 0.107229464 -0.036666345 0.05929189 -0.052886125
00000000: 1076 8f3d a218 bf3d 6629 e23c b59d eb3c
00000010: 9926 4dbd 0deb a1bd 4dd1 42bd c76f 84b9
00000020: 661c f2bc 3cc5 383d e0ad 75bd f1be c83d
00000030: 30a7 56bc e7b8 7bbd 3a25 98bd f3d6 17bd
00000040: 303e 45bd 9ca7 4fbd 3ae7 5cbc d58a ba3d
00000050: 1f9b db3d 732f 16bd 0edc 723d 1f9f 58bd

conv2.weight f4 [36, 24, 5, 5]
0.023009773 -0.020401066 0.012533407 -0.024553474 -0.020809967 0.0275413 0.010613306 -0.024561636
-0.03128857 0.041237637 -0.030896105 -0.016790412 0.02967699 0.026567085 0.036588684 -0.0077801934
0.034581084 0.0065270606 -0.01847292 -0.023138555 0.031259686 -0.040319465 -0.0369056 0.0004249204
0.023380153 0.02460026 -0.039349902 -0.0017631896 -0.035099313 0.022252439 0.015960941 0.0065257964
0.0024941054 -0.022284133 -0.022732338 0.018338019 -0.017075328 -0.033001505 -0.026974378 0.04234064
0.025866833 0.05235191 -0.016967598 -0.009916919 0.016255412 0.015052144 0.03353844 -0.027987972
0.027426567 -0.02973175 0.0299803 -0.008595054 -0.0010005878 -0.0028891717 -0.02353393 0.041922957
0.03213655 -0.013935045 0.006596451 -0.016827378 -0.03781768 0.022629237 0.027616171 -0.025341846
-0.04419079 -0.01374215 0.04217615 -0.01071689 0.0050851377 0.03910956 -0.016411511 -0.015688237
0.030063923 0.003537038 0.01567944 0.0020944471 -0.0071945325 -0.0057543344 -0.031250313 -0.013699641
0.027253652 0.042078275 0.0018460968 0.030373305 0.02102392 0.03344276 -0.011841434 -0.0075838855
0.0019039701 -0.022199528 0.0056607947 -0.02764359 0.0026133852 0.035970613 -0.036026154 0.01316181
0.030143386 0.031061167 0.0019235262 0.0024317359 -0.0209917 0.030551037 -0.013215078 -0.022613525
0.019486714 0.043571625 0.038134772 -0.01368407 0.023438878 -0.019607186 0.035606068 -0.013312416
0.029813442 -0.038634535 0.026390532 -0.010158603 0.037692226 0.027221149 -0.046253216 0.025636043
-0.013479528 0.019159159 -0.009145693 -0.013539044 -0.026118033 0.008901769 -0.03477611 -0.013317769
-0.0068829097 0.027154353 0.02592563 -0.017768223 0.02818684 -0.021058653 -0.028429512 -0.016313354
0.0003030557 0.04584618 0.029162161 -0.020904144 -0.021808917 0.03825276 -0.041083124 -0.040293805
-0.007002287 -0.019579295 0.00094888185 0.0007438119 0.010999783 0.018441914 0.04134352 0.037449982
0.031369306 0.043418605 0.045307662 0.038024865 -0.009975205 0.0056641884 -0.010925458 0.036371343
-0.031381942 -0.010034107 0.021050299 0.011790576 -0.0063334834 -0.010764832 0.033653416 0.026367636
0.03698091 0.008857767 0.0123238545 0.018460935 0.012691693 -0.042441953 0.026308753 0.04199428
-0.0047540064 0.045090713 0.041435774 -0.0096415905 -0.029547915 0.024669813 0.01713804 0.035953198
-0.04312526 0.011258741 0.00970033 0.004006001 -0.009126965 -0.023169227 0.040195424 0.019366616
0.005295586 -0.03570294 -0.04113175 0.028269678 0.007981988 -0.00045629303 -0.02662512 -0.0377227
-0.0039752717 -0.004244097 0.05544833 -0.037147306 0.02267927 -0.0022980585 0.017581625 -0.035432912
-7.6565586e-05 0.03219373 0.04598763 0.026384763 -0.03119235 -0.039908566 -0.02220404 0.050460868
0.008789773 -0.011425136 -0.046142884 -0.010929277 0.020846743 0.018967157 0.017098626 -0.007329951
-0.05217213 0.0012578549 -0.034355152 -0.035916504 -0.0015965952 0.027510725 -0.009872203 0.03033644
0.013419707 0.026238676 -0.03291411 -0.032529537 0.008042705 -0.037948653 0.012251088 -0.020795487
-0.02262248 -0.04276951 -0.029122658 -0.0060190354 0.0049820356 -0.047405556 0.035443973 -0.038116623
-0.021995224 -0.019762801 0.0027330578 -0.009837185 -0.012189216 -0.03808961 0.010446025 -0.036019277
00000000: fe7e bc3c 2320 a7bc eb58 4d3c 5e24 c9bc
00000010: aa79 aabc 4b9e e13c 6fe3 2d3c 7c35 c9bc
00000020: 7228 00bd cce8 283d d419 fdbc 0c8c 89bc
00000030: 291d f33c 37a3 d93c 04de 153d fef0 febb
00000040: e5a4 0d3d f4e0 d53b 8554 97bc 118d bdbc
00000050: 280a 003d 0626 25bd 542a 17bd dac7 de39
00000060: bc87 bf3c 7c86 c93c 5d2d 21bd d31a e7ba
00000070: 4cc4 0fbd bf4a b63c 85c0 823c 59d6 d53b
00000080: 2574 233b 378d b6bc 2b39 babc 9d39 963c
00000090: 8fe1 8bbc 962c 07bd 5ff9 dcbc 616d 2d3d
000000a0: aee6 d33c f56e 563d a2ff 8abc 937a 22bc
000000b0: 122a 853c 459d 763c 9a5f 093d 0847 e5bc
000000c0: aead e03c 0090 f3bc 3f99 f53c 45d2 0cbc
000000d0: 2826 83ba 4258 3dbb 3aca c0bc 68b7 2b3d
000000e0: 9da1 033d d14f 64bc 0b27 d83b 92d9 89bc
000000f0: b6e6 1abd f360 b93c 4f3b e23c b499 cfbc
00000100: 6701 35bd c126 61bc e6c0 2c3d e595 2fbc
00000110: 3aa1 a63b 5931 203d 6f71 86bc 9e84 80bc
00000120: 9e48 f63c a7cd 673b 2b72 803c fe42 093b
00000130: 1dc0 ebbb db8e bcbb 5400 00bd 7674 60bc
00000140: 0d43 df3c 455a 2c3d bbf8 f13a 70d1 f83c
00000150: 5b3a ac3c 47fb 083d 9302 42bc 3e82 f8bb
00000160: a38e f93a c9db b5bc 307e b93b cf74 e2bc
00000170: 5445 2b3b ec55 133d 2990 13bd a2a4 573c
00000180: 43ef f63c fd73 fe3c d41e fc3a c25d 1f3b
00000190: c9f6 abbc 2b46 fa3c 0e84 58bc 0040 b9bc
000001a0: 9aa2 9f3c 2978 323d 3533 1c3d 2633 60bc
000001b0: e402 c03c 409f a0bc abd7 113d 521c 5abc
000001c0: 523b f43c 3f3f 1ebd f530 d83c 4570 26bc
000001d0: 2a63 1a3d e3fe de3c 0374 3dbd ae02 d23c
000001e0: 3dd9 5cbc abf3 9c3c d1d7 15bc ded2 5dbc
000001f0: 7cf5 d5bc bad8 113c 6571 0ebd c632 5abc
00000200: 088a e1bb ce72 de3c fd61 d43c aa8e 91bc
00000210: 16e8 e63c 3283 acbc 02e5 e8bc 95a3 85bc
00000220: 73e3 9e39 34c9 3b3d 7ce5 ee3c 2b3f abbc
00000230: 9da8 b2bc edae 1c3d c746 28bd 1e0b 25bd
00000240: 7173 e5bb c264 a0bc 62be 783a 5ffc 423a
00000250: 6f38 343c 7f13 973c d357 293d 2765 193d
00000260: 1a7d 003d b5d7 313d 8794 393d f6bf 1b3d
00000270: 0b6f 23bc a89a b93b b100 33bc 1efa 143d
00000280: 5a8a 00bd 1866 24bc ad71 ac3c 432d 413c
00000290: 1c89 cfbb fa5e 30bc 2ad8 093d f100 d83c
000002a0: 4b79 173d 2b20 113c fee9 493c 633b 973c
000002b0: d2f0 4f3c 9dd7 2dbd 7485 d73c 3202 2c3d
000002c0: 7fc7 9bbb 0ab1 383d 8fb8 293d c3f7 1dbc
000002d0: 780e f2bc 5918 ca3c 1365 8c3c a943 133d
000002e0: 1da4 30bd 9576 383c 22ee 1e3c c644 833b
000002f0: 4489 15bc 64cd bdbc f5a3 243d bda6 9e3c
00000300: 9886 ad3b 3f3d 12bd c479 28bd d095 e73c
00000310: e2c6 023c 9d3a efb9 ec1c dabc 1e83 1abd
00000320: ff42 82bb 1112 8bbb ca1d 633d c627 18bd
00000330: e0c9 b93c 069b 16bb 5707 903c 1a22 11bd
00000340: d691 a0b8 93dd 033d 865d 3c3d dc24 d83c
00000350: 1987 ffbc 2a77 23bd 3fe5 b5bc 0eb0 4e3d
00000360: fb02 103c 7e30 3bbc 5200 3dbd b610 33bc
00000370: cac6 aa3c 0361 9b3c 6b12 8c3c 1630 f0bb
00000380: 72b2 55bd 9bde a43a fdb7 0cbd 2f1d 13bd
00000390: d844 d1ba 2c5e e13c 05bf 21bc 2084 f83c
000003a0: 55de 5b3c 7ef2 d63c f2d0 06bd b13d 05bd
000003b0: 8dc5 033c 0c70 1bbd cab8 483c 4c5b aabc
000003c0: c752 b9bc 152f 2fbd a492 eebc 543b c5bb
000003d0: 5840 a33b 542c 42bd b32d 113d 2d20 1cbd
000003e0: 542f b4bc 99e5 a1bc 1a1d 333b 252c 21bc
000003f0: 47b5 47bc da03 1cbd ce25 2b3c f388 13bd

conv2.bias f4 [36]
-0.0036061706 -0.03939482 0.032456722 -0.040862877 -0.035048604 0.010186997 0.0029861208 -0.010965354
0.011755413 0.013490655 -0.01069689 -0.027288992 -0.020894768 -0.018874649 0.007734112 -0.030478204
0.018562226 0.0050448924 -0.040210947 -0.015648747 -0.024368837 -0.012984819 0.021454534 -0.010562923
0.037686266 -0.000898831 -0.023810789 0.029232664 0.006294516 -0.026139325 0.010023616 0.033805646
-0.02138546 0.0393979 -0.03854053 0.011197216
00000000: 8155 6cbb 765c 21bd 57f1 043d d55f 27bd
00000010: 208f 0fbd 5de7 263c cbb2 433b 07a8 33bc
00000020: c799 403c e907 5d3c 0242 2fbc 2a8d dfbc
00000030: 812b abbc 029f 9abc 6f6e fd3b 6dad f9bc
00000040: cf0f 983c a04f a53b 3cb4 24bd cd31 80bc
00000050: 28a1 c7bc 47be 54bc 6bc1 af3c 1c10 2dbc
00000060: ea5c 1a3d 879f 6bba d80e c3bc 5779 ef3c
00000070: 3a42 ce3b 2322 d6bc 183a 243c ca77 0a3d
00000080: 8f30 afbc b15f 213d addc 1dbd 8774 373c

conv3.weight f4 [48, 36, 5, 5]
0.0068606366 0.029492954 0.033837095 0.0062379846 -0.0183681 0.02290358 -0.02311683 -0.036521547
0.0022505403 -0.039385825 -0.03185708 0.01759244 -0.022005191 0.013447775 -0.0125208525 0.030026518
-0.00366228 -0.011130557 0.0008385911 0.037352514 -0.03537473 -0.00659826 0.0055927658 -0.0059475917
0.013966726 -0.0142881535 0.0012327795 -0.0011078541 0.002605388 0.026393492 0.009480701 0.024240037
-0.008541812 0.018016562 0.02666234 -0.00031888176 0.01393341 -0.011052109 0.0041792816 0.030124998
0.015620466 -0.010619266 -0.023496982 -0.020159816 0.01172726 -0.00159532 0.007297679 0.0071108625
-0.02226894 0.017735234 0.008321814 -0.021430593 -0.008019114 0.019386193 0.030425163 -0.010660803
-0.023580749 -0.012644497 -0.031159116 0.019332334 -0.034004953 0.030023053 -0.008192154 -0.016549045
-0.022070576 -0.0023433783 -0.030745048 0.025294451 -0.0051618004 -0.010323832 0.016814029 -0.023147909
-4.8218564e-05 0.02779551 0.0002760696 -0.032917045 -0.030477876 0.002718995 -0.025774742 -0.033041578
0.03159084 -0.006125072 -0.010179371 -0.010065107 0.03640846 0.023462353 -0.021139206 -0.0343385
0.0057240594 0.030852944 -0.008323296 0.02034702 -0.005518111 0.031555012 0.020468036 -0.03541548
0.032657612 0.014881396 -0.0065273754 -0.013327126 -0.0119617125 -0.016382154 -0.034708984 0.014743873
-0.023463057 0.017406171 -0.034929935 0.014279471 -0.021601688 0.02228386 0.021152284 0.008050223
0.014953182 -0.01805286 -0.015466027 7.7219534e-05 0.018690972 -0.018501708 0.010162576 0.00977425
0.010457318 0.0061009466 -0.034976162 -0.03407879 -0.0019356353 0.01139369 -0.025188705 0.013828041
0.021106197 -0.011690471 -0.018395003 0.038236894 -0.0019573828 -0.023845794 0.032071855 -0.029674029
-0.011303326 0.005576475 -0.022284344 0.004388996 -0.02279152 -0.024729611 -0.008996837 -0.0027508053
0.0019432491 0.02452892 0.0243891 -0.013562348 -0.02501006 -0.0027896347 -0.01316497 0.0052855494
0.007587874 -0.0020414859 -0.027404984 -0.020696942 0.015899168 0.026666807 0.00582076 -0.02578792
-0.010223218 -0.033256445 0.010448686 0.008223627 -0.013773472 0.025452342 -0.010821345 0.024177574
-0.019216266 -0.013761698 0.020465571 -0.008440463 0.010079189 -0.0152029805 0.024675433 0.0049382444
-0.021951744 0.030851781 0.024590112 0.014282527 -0.01269096 0.03231065 0.028698863 -0.020996826
-0.02550038 0.005263244 0.020817792 -0.0070183584 0.023876274 -0.015458741 0.018833596 -0.014445552
-0.008014192 0.020474076 -0.007939632 0.00031603413 0.0065479707 -0.02677941 0.018629484 0.018347286
-0.024323372 0.017564189 0.01299364 0.015660543 -0.0017717459 0.0065755164 -0.027045488 0.030304834
0.016441667 -0.018213518 -0.010742146 -0.0068820566 0.026273424 -0.026193872 -0.03014316 -0.019921374
-0.017557852 -0.028575504 0.017786305 -0.023646235 -0.026769087 0.031054292 0.024312375 0.0029625052
-0.021873787 -0.031285793 -0.015153852 -0.001966268 0.014542172 0.018531855 -0.012908087 0.0072030225
-0.01853073 0.026272822 -0.0011660462 -0.019183544 0.0005812109 -0.043101333 0.025404245 0.034939352
-0.0053245258 0.011777656 -0.01979048 0.022912655 0.024320262 -0.02896425 -0.007258271 0.00795907
0.013937785 -0.034300465 0.017346203 0.018382333 -0.0058115507 -0.008530444 -0.006452482 -0.0013780872
00000000: 31cf e03b 359b f13c c498 0a3d 0268 cc3b
00000010: b378 96bc 4aa0 bb3c 825f bdbc 9e97 15bd
00000020: cd7d 133b 0853 21bd 927c 02bd 051e 903c
00000030: 3b44 b4bc 0e54 5c3c 4324 4dbc 2cfa f53c
00000040: dd02 70bb f15c 36bc e5d4 5b3a f3fe 183d
00000050: 18e5 10bd 3736 d8bb 8543 b73b 04e4 c2bb
00000060: b2d4 643c dc18 6abc 3795 a13a 6a35 91ba
00000070: 28bf 2a3b 2a37 d83c f154 1b3c 0b93 c63c
00000080: f5f2 0bbc 7897 933c fb6a da3c 962f a7b9
00000090: f548 643c e813 35bc 5bf2 883b b3c8 f63c
000000a0: fcec 7f3c 6efc 2dbc be7c c0bc 3326 a5bc
000000b0: b223 403c 0e1a d1ba 5e21 ef3b 3d02 e93b
000000c0: 5a6d b6bc 7b49 913c 3858 083c 368f afbc
000000d0: 9a62 03bc cbcf 9e3c 313e f93c a6aa 2ebc
000000e0: 6a2c c1bc dd2a 4fbc 6741 ffbc d85e 9e3c
000000f0: c748 0bbd e8f2 f53c 6238 06bc dd91 87bc
00000100: 5acd b4bc 5d93 19bb 0add fbbc 4f36 cf3c
00000110: 5224 a9bb 4a25 29bc 93bd 893c afa0 bdbc
00000120: 4a3e 4ab8 69b3 e33c 6fbd 9039 06d4 06bd
00000130: bdac f9bc 2b31 323b 8d25 d3bc 9b56 07bd
00000140: 6665 013d d4b4 c8bb 60c7 26bc 1ee8 24bc
00000150: 0a21 153d 1f34 c03c 212c adbc 87a6 0cbd
00000160: e490 bb3b 50bf fc3c 6f5e 08bc cbae a63c
00000170: 45d1 b4bb d43f 013d 95ac a73c d30f 11bd
00000180: fdc3 053d 19d1 733c 98e3 d5bb 055a 5abc
00000190: 0ffb 43bc de33 86bc 022b 0ebd 4990 713c
000001a0: 9935 c0bc 6397 8e3c b112 0fbd 71f4 693c
000001b0: 06f6 b0bc a48c b63c 8e47 ad3c 15e5 033c
000001c0: 31fe 743c 97e3 93bc 3865 7dbc ecf0 a138
000001d0: cf1d 993c e590 97bc ef80 263c 2d24 203c
000001e0: 2c55 2b3c 73ea c73b 2a43 0fbd 3496 0bbd
000001f0: 25b5 fdba 99ac 3a3c 8b58 cebc 028f 623c
00000200: e7e6 ac3c 6489 3fbc 1eb1 96bc 4a9e 1c3d
00000210: 6f47 00bb 4158 c3bc c75d 033d f316 f3bc
00000220: 9631 39bc ddba b63b a88d b6bc 91d1 8f3b
00000230: 48b5 babc c195 cabc 7867 13bc db46 34bb
00000240: 9fb4 fe3a e0f0 c83c a6cb c73c 9c34 5ebc
00000250: e6e1 ccbc 4ed2 36bb e3b1 57bc 6732 ad3b
00000260: b3a3 f83b 73ca 05bb 6b80 e0bc a28c a9bc
00000270: f93e 823c 5974 da3c 13bc be3b 3041 d3bc
00000280: 497f 27bc e937 08bd f730 2b3c 64bc 063c
00000290: 21aa 61bc 6e81 d03c 034c 31bc 0c10 c63c
000002a0: 6e6b 9dbc bf78 61bc 6aa7 a73c de49 0abc
000002b0: 2f23 253c ec15 79bc 2224 ca3c ffd0 a13b
000002c0: 25d4 b3bc e0bc fc3c 3471 c93c 4301 6a3c
000002d0: bfed 4fbc 2c58 043d e119 eb3c 8901 acbc
000002e0: 2ce6 d0bc 4a77 ac3b 138a aa3c 42fa e5bb
000002f0: 2d98 c33c a946 7dbc ea48 9a3c 09ad 6cbc
00000300: f54d 03bc 40b9 a73c 3b15 02bc 62b1 a539
00000310: 5c90 d63b 7e60 dbbc dc9c 983c 0c4d 963c
00000320: cf41 c7bc c6e2 8f3c 47e3 543c 8a4a 803c
00000330: ed39 e8ba 6e77 d73b 808e ddbc d841 f83c
00000340: adb0 863c 8434 95bc d3ff 2fbc e082 e1bb
00000350: 5d3b d73c 8894 d6bc caee f6bc 2632 a3bc
00000360: 7cd5 8fbc 2d17 eabc 96b4 913c c0b5 c1bc
00000370: d84a dbbc 9265 fe3c bf2a c73c 9726 423b
00000380: a830 b3bc 8825 00bd dd47 78bc 81dc 00bb
00000390: 4a42 6e3c 1ed0 973c 717c 53bc 5507 ec3b
000003a0: c2cd 97bc 1a3a d73c 05d6 98ba cf26 9dbc
000003b0: 675c 183a 068b 30bd 901c d03c 911c 0f3d
000003c0: 5c79 aebb 12f7 403c a51f a2bc 52b3 bb3c
000003d0: 493b c73c 6f46 edbc cad6 edbb c266 023c
000003e0: 4f5b 643c a57e 0cbd a019 8e3c 8c96 963c
000003f0: d26e bebb 47c3 0bbc 586f d3bb efa0 b4ba

conv3.bias f4 [48]
-0.01863941 -0.005270735 0.017744746 0.0262481 0.00091765344 -0.012392837 0.0051770695 0.031437583
-0.017887855 0.026808718 -0.033145092 -0.013156646 -0.016754132 0.014456021 0.025711568 -0.019330971
-0.017419638 0.029866464 -0.007645778 0.022935357 0.016238853 -0.013376944 -0.028241009 -0.015307103
-0.029149786 -0.032049544 -0.0017996794 0.014680705 0.020849764 0.0025394436 0.012125551 -0.028177422
-0.024793617 -0.025651006 0.017218828 -0.030766131 0.009333496 0.029852478 -0.016127475 0.0061967922
0.015519335 0.0047032065 0.013643112 0.027885925 -0.013942636 0.012039945 -0.016441442 0.015163139
00000000: adb1 98bc 21b6 acbb 6e5d 913c 4106 d73c
00000010: ae8e 703a 530b 4bbc 68a4 a93b b2c4 003d
00000020: 8d89 92bc f59d db3c 26c3 07bd f98e 57bc
00000030: f63f 89bc f2d8 6c3c 11a1 d23c fc5b 9ebc
00000040: a1b3 8ebc 84aa f43c 6f89 fabb eee2 bb3c
00000050: 5807 853c f82a 5bbc b059 e7bc a5ca 7abc
00000060: 88cb eebc 6246 03bd 38e3 ebba 5787 703c
00000070: 20cd aa3c cb6c 263b 3faa 463c 56d4 e6bc
00000080: fc1b cbbc 0f22 d2bc 800e 8d3c 4109 fcbc
00000090: 85eb 183c 2f8d f43c c41d 84bc 760e cb3b
000000a0: cf44 7e3c 5b1d 9a3b 5c87 5f3c 0671 e43c
000000b0: a76f 64bc 3143 453c 34b0 86bc d16e 783c

fc1.weight f4 [25, 6912]
0.0065091047 -0.0023839134 0.008567423 0.013118838 0.009990822 0.00947947 -0.00042914363 -0.00992918
0.016265953 0.0065505705 0.012808398 -0.009321618 0.0043227207 -0.00052753784 0.013217406 0.0020666604
0.006574177 0.0017697559 -0.0009719543 -0.00064788497 0.0061560264 -0.0128392745 0.00014394773 -0.008023818
0.0071501345 0.005814382 0.014745855 0.010423559 0.015406036 0.0071439464 -0.010979864 0.0012723232
-0.013446011 0.0125592565 0.009787032 0.004068068 -0.00050885597 0.013579106 -0.0022891243 0.0024958455
0.00033887094 -0.0015277611 0.0101601165 -0.01741306 0.0068251295 -0.00056551734 -0.0078757545 0.007971861
0.0046295305 -0.010959019 -0.0011419822 -0.0037403244 0.0002951273 -0.002261559 0.011792329 -0.002107869
-0.018223628 0.011185394 0.012318193 -0.006895837 0.011824551 -0.00032263985 0.013093327 -0.01213176
0.006939966 0.011358711 0.010255679 -0.009241753 -0.02061605 -0.011413164 0.0019042245 -0.003437694
0.006819198 0.00036880013 0.009115852 -0.008161997 -0.011626034 0.0036463046 -0.0095075155 -0.0067938594
-0.0049440707 0.0073591047 0.0041457615 -0.005911491 0.008017068 0.0030399624 0.011499442 -0.013663729
0.0027999687 0.01951209 -0.0037420422 0.004381532 -0.006994227 0.011576538 -0.011559666 0.0101263225
-0.0004137375 -0.008850465 0.010198553 -0.005536743 0.0011416156 -0.0005356685 -0.004730702 0.009511632
0.0026320582 0.012572053 -0.0045920713 0.008074992 0.01569919 0.0122359535 0.0028831908 0.014507787
0.0053245956 0.00028712436 0.007940471 -0.009085742 -0.009316739 -0.0049263854 0.0077072955 -0.0029135311
0.016700592 -0.007014034 0.0009858963 0.007643266 -0.012245185 0.011819178 0.0037177734 0.0064271563
-0.000560522 -0.00917185 0.0035339121 0.0026645367 0.0029828814 -0.010066119 0.004864007 -0.0028021974
-0.01185186 0.00503744 0.012730898 -0.009112322 0.002480863 0.0054525537 -0.01207608 0.0039952924
-0.010127642 -0.008406132 -0.0020034057 -0.0062373052 0.0135798445 0.018354656 0.0034126344 -0.005137849
-0.010186789 -0.0035774815 0.009235268 -0.0012861927 -0.0077005113 -0.01141654 -0.0072904 0.0026573108
-0.0075132498 0.01467087 0.0035086665 0.00049285375 0.0125032235 0.0033971912 0.0011522814 0.004870591
-0.0038152216 0.006755903 0.0026683337 -0.002167118 -0.0023182416 -0.011851126 0.009581249 0.0012047838
-0.008506029 -0.009773482 0.0029284952 -0.008746411 0.0050904346 0.008796046 -0.005758777 0.0018230382
0.0051039597 -0.016989974 -0.00014080569 0.004373554 -0.016313095 0.015287135 0.0103133 0.001850983
0.014707624 0.0031651726 -0.011185796 0.008351958 0.0058831163 -0.0062168417 -0.011579303 -0.00067309104
0.009888153 -0.003631039 -0.0075511094 -0.00036949816 -0.007938322 -0.00019861596 0.0061751986 -0.008615787
0.007722636 -0.01115719 -0.010080499 0.0025995253 -0.008480282 -0.008137492 0.0021537847 -0.0010676889
-0.0017905753 -0.017876975 -0.0034352804 0.018142955 0.0027774468 0.014388897 -0.0048235473 -0.005379859
0.0075905137 -0.005655961 0.0031324814 0.010076385 -0.00760595 -0.003451663 0.006938953 0.013127019
-0.004593748 -0.010957807 -0.0058500213 0.00394177 0.0103672575 0.00785226 -0.0011031948 0.0052614855
-0.0065927515 0.0014494361 0.0064878953 0.008646982 -0.0046433522 0.0071651866 -0.00083360024 -0.013074017
0.0013876606 0.0036538325 -0.0043008574 0.0007267785 -0.010553997 -0.0070123915 -0.004622443 0.0044407914
00000000: 544a d53b 6e3b 1cbb 605e 0c3c 65f0 563c
00000010: 8bb0 233c c74f 1b3c affe e0b9 00ae 22bc
00000020: 2d40 853c 2ba6 d63b 51da 513c b3b9 18bc
00000030: 9ca5 8d3b 774a 0aba d28d 583c cf70 073b
00000040: 326c d73b 27f7 e73a c0ca 7eba d3d6 29ba
00000050: 7eb8 c93b d25b 52bc adf0 1639 5576 03bc
00000060: ad4b ea3b 9286 be3b 9998 713c 93c7 2a3c
00000070: 9969 7c3c c417 ea3b e3e4 33bc 15c4 a63a
00000080: a84c 5cbc 57c5 4d3c ca59 203c 6e4d 853b
00000090: bf64 05ba e67a 5e3c 2205 16bb 5791 233b
000000a0: 7daa b139 283f c8ba 9e76 263c d5a5 8ebc
000000b0: 56a5 df3b 3a3f 14ba 4f09 01bc 699c 023c
000000c0: 51b3 973b 758d 33bc 90ae 95ba 3b20 75bb
000000d0: 51bb 9a39 aa36 14bb 9d34 413c 2c24 0abb
000000e0: b849 95bc f142 373c 3fd2 493c 79f6 e1bb
000000f0: c3bb 413c fd27 a9b9 6585 563c 4ac4 46bc
00000100: a868 e33b e319 3a3c 6f07 283c b96a 17bc
00000110: fee2 a8bc 48fe 3abc 2c97 f93a ef4a 61bb
00000120: 9473 df3b 845b c139 a85a 153c e6b9 05bc
00000130: 1f7b 3ebc d7f6 6e3b 69c5 1bbc 069f debb
00000140: df01 a2bb a524 f13b 2bd9 873b 2eb5 c1bb
00000150: 055a 033c 1b3a 473b 2868 3c3c d5dd 5fbc
00000160: ae7f 373b d2d7 9f3c 0d3d 75bb f492 8f3b
00000170: d42f e5bb 85ab 3d3c c164 3dbc e0e8 253c
00000180: e8ea d8b9 8a01 11bc d517 273c 916d b5bb
00000190: 43a2 953a 1b6c 0cba 0104 9bbb add6 1b3c
000001a0: 9c7e 2c3b 03fb 4d3c 1679 96bb f94c 043c
000001b0: 969b 803c 4f79 483c eaf3 3c3b 12b2 6d3c
000001c0: f279 ae3b 2e89 9639 c018 023c 5ddc 14bc
000001d0: 3ca5 18bc 846d a1bb 7b8d fc3b f1f0 3ebb
000001e0: aecf 883c fbd5 e5bb 3139 813a 5d74 fa3b
000001f0: 07a0 48bc 3aa5 413c e3a5 733b e59a d23b
00000200: ffef 12ba 8745 16bc 3599 673b 829f 2e3b
00000210: 727c 433b 5dec 24bc 3f62 9f3b 12a5 37bb
00000220: 4e2e 42bc 1c11 a53b 4295 503c d94b 15bc
00000230: f995 223b 56ab b23b c0da 45bc f1ea 823b
00000240: 69ee 25bc e0b9 09bc 924b 03bb 4f62 ccbb
00000250: ff7d 5e3c 815c 963c 81a6 5f3b 675b a8bb
00000260: 7de6 26bc 2e74 6abb 864f 173c 7795 a8ba
00000270: 9254 fcbb 700c 3bbc 4fe4 eebb 4726 2e3b
00000280: b531 f6bb 175e 703c a8f1 653b db32 013a
00000290: 52da 4c3c 69a3 5e3b 2608 973a 7b99 9f3b
000002a0: cc08 7abb 9f60 dd3b 36df 2e3b 3506 0ebb
000002b0: a4ed 17bb 3a2b 42bc acfa 1c3c d6e9 9d3a
000002c0: df5c 0bbc f420 20bc ffeb 3f3b 1b4d 0fbc
000002d0: a9cd a63b 4a1d 103c 1fb4 bcbb 03f3 ee3a
000002e0: 1e3f a73b 8f2e 8bbc 3da5 13b9 0850 8f3b
000002f0: 0aa3 85bc e476 7a3c 1ef9 283c af9c f23a
00000300: 3ff8 703c c96e 4f3b a144 37bc a7d6 083c
00000310: 28c7 c03b a6b6 cbbb 1eb7 3dbc 6072 30ba
00000320: eb01 223c baf6 6dbb 4c6f f7bb 34b9 c1b9
00000330: bc0f 02bc 9143 50b9 5259 ca3b 3b29 0dbc
00000340: 2b0e fd3b a6cc 36bc ad28 25bc cc5c 2a3b
00000350: e1f0 0abc 1e53 05bc 8326 0d3b b2f1 8bba
00000360: bdb1 eaba bc72 92bc 7122 61bb 89a0 943c
00000370: d305 363b 69bf 6b3c d90e 9ebb 8749 b0bb
00000380: d8b9 f83b a455 b9bb 514a 4d3b 6c17 253c
00000390: 553b f9bb 4c35 62bb 2860 e33b b512 573c
000003a0: 2787 96bb 6088 33bc 89b1 bfbb f729 813b
000003b0: 6edb 293c c4a6 003c 1399 90ba 8a68 ac3b
000003c0: 0208 d8bb 01fb bd3a 6998 d43b 12ac 0d3c
000003d0: 4327 98bb f1c9 ea3b f785 5aba 6734 56bc
000003e0: 2ae2 b53a 2375 6f3b 35ee 8cbb 4885 3e3a
000003f0: acea 2cbc 34c8 e5bb dd77 97bb 0f84 913b

fc1.bias f4 [25]
0.0049524033 -0.009218145 0.008828225 -0.001837207 -0.004755944 0.0016062121 0.008829456 0.0011290766
0.0031138305 -0.002568451 -0.0016492151 -0.00037359065 -0.0074197417 -0.0058259848 -0.008990649 -0.007302148
0.0073160687 -0.007944706 0.0036909375 -0.008957076 -0.009683909 -0.0017856893 -0.010302876 0.008936953
-0.007156174
00000000: c547 a23b b407 17bc 42a4 103c 70ce f0ba
00000010: c0d7 9bbb 8987 d23a 6ca9 103c 86fd 933a
00000020: 6811 4c3b 7553 28bb 7a2a d8ba 7dde c3b9
00000030: 4e21 f3bb e7e7 bebb 844d 13bc db46 efbb
00000040: a2bb ef3b 832a 02bc a8e3 713b b3c0 12bc
00000050: 42a9 1ebc ca0d eaba 65cd 28bc 4c6c 123c
00000060: 577e eabb

fc2.weight f4 [5, 25]
0.08936805 0.12140804 0.23586288 -0.12577133 0.16414872 -0.21906483 0.21609259 0.008611511
0.20249556 0.11293178 0.04643697 -0.11010714 0.00993173 0.20022646 -0.16633208 -0.10262518
-0.21135654 0.24267535 -0.008923162 0.104316786 0.034956034 -0.054787993 0.20963383 0.089516915
-0.025672704 0.24501248 -0.15782467 -0.098564535 0.06649593 -0.18199916 -0.23540273 -0.07185657
-0.12097656 0.12602815 -0.07188934 -0.14479527 -0.1286217 0.10175274 -0.061580308 0.113136135
0.07689816 -0.03114602 -0.117841765 -0.04634388 -0.18416816 0.15415707 0.112342656 0.13801987
0.16076767 0.20398611 -0.10259904 0.10128994 0.24236271 -0.018505156 -0.00044261882 -0.14710364
0.073673405 0.137487 -0.1954055 0.06601346 -0.098594755 0.20686881 0.14212604 -0.11486671
0.17057194 0.14080936 0.24640745 -0.15585817 0.17759375 0.19064982 -0.24574496 0.15256445
0.12838234 -0.16569011 -0.14445691 -0.1973442 0.016707784 -0.26434553 -0.1535663 0.05836627
-0.009024541 -0.040996045 -0.19412015 0.24212606 0.035014566 -0.15349175 -0.058513746 -0.15089265
-0.1833818 -0.057292335 0.083496034 0.06344866 -0.24295981 -0.22372127 0.016814105 0.24333933
-0.24149133 -0.3007488 0.012316814 -0.18165131 -0.19965515 0.2024097 -0.17886056 0.115028806
0.22913343 0.2391818 -0.082483955 0.22276051 -0.016387079 -0.17172118 -0.16142319 0.10770916
0.1516596 -0.14725639 0.07255521 0.09424976 -0.2074981 -0.092211805 0.030919252 -0.014381715
0.10425413 -0.09737086 0.21635817 0.024264578 0.106237665
00000000: 9906 b73d c7a4 f83d 0a86 713e 33ca 00be
00000010: 9a16 283e 8852 60be 6047 5d3e 4c17 0d3c
00000020: ff5a 4f3e c748 e73d b134 3e3d da7f e1bd
00000030: b2b8 223c 2a08 4d3e f552 2abe 262d d2bd
00000040: d96d 58be e37f 783e 7432 12bc 0aa4 d53d
00000050: 0f2e 0f3d 6069 60bd 40aa 563e a554 b73d
00000060: 904f d2bc 8de4 7a3e ca9c 21be 34dc c9bd
00000070: 052f 883d fd5d 3abe 6a0d 71be 8a29 93bd
00000080: 8fc2 f7bd 860d 013e b83a 93bd 3645 14be
00000090: 68b5 03be be63 d03d a23b 7cbd ebb3 e73d
000000a0: c87c 9d3d f025 ffbc 0657 f1bd 15d3 3dbd
000000b0: 9496 3cbe 5adb 1d3e e813 e63d 1555 0d3e
000000c0: 48a0 243e bce1 503e 721f d2bd 1a71 cf3d
000000d0: ee2d 783e 2098 97bc 4b0f e8b9 56a2 16be
000000e0: 15e2 963d 64c9 0c3e 6118 48be 1132 873d
000000f0: 0cec c9bd 6bd5 533e 7d89 113e 3d3f ebbd
00000100: 69aa 2e3e 5430 103e 3c52 7c3e 4999 1fbe
00000110: 23db 353e b539 433e 91a4 7bbe db39 1c3e
00000120: a976 033e abaa 29be 83ec 13be 9914 4abe
00000130: c3de 883c 4c58 87be 7c40 1dbe 7811 6f3d
00000140: abdb 13bc 78eb 27bd 6fc7 46be e5ef 773e
00000150: 6f6b 0f3d f12c 1dbe 1cac 6fbd 9a83 1abe
00000160: 70c8 3bbe 5eab 6abd f8ff aa3d 5ff1 813d
00000170: 75ca 78be 3017 65be bcbd 893c f22d 793e
00000180: 8149 77be bffb 99be 76cc 493c cd02 3abe
00000190: 6672 4cbe 7d44 4f3e 3927 37be 3994 eb3d
000001a0: f4a1 6a3e 13ec 743e 59ed a8bd 551b 643e
000001b0: 323e 86bc add7 2fbe 1f4c 25be 9f96 dc3d
000001c0: a74c 1b3e 61ca 16be d397 943d 0506 c13d
000001d0: 627a 54be 8bd9 bcbd 5f4a fd3c 49a1 6bbc
000001e0: 3083 d53d 606a c7bd ff8c 5d3e 82c6 c63c
000001f0: 2293 d93d

fc2.bias f4 [5]
0.17456678 -0.04780995 -0.0039452096 -0.12622891 0.15091449
00000000: a2c1 323e 5ed4 43bd d146 81bb 2742 01be
00000010: 5489 1a3e
